checkpoint_actor_1.pth (torch_old, 163815 bytes, 10 tensors)

fc1.weight f4 [256, 24]
0.022821084 0.5025506 -0.056599446 0.085666 -0.006373091 -0.4680333 -0.15855859 0.16044547
-0.012180457 0.56437665 -0.0032636414 -0.019788455 -0.011186434 -0.61051434 -0.0069603045 -0.06541258
-0.1294464 0.44869152 -0.07918273 -0.027314447 0.17240727 -0.49701488 -0.0076697394 0.021397462
0.36928838 0.13557634 -0.075601645 -0.07523089 -0.12499438 -0.33358568 -0.03107759 -0.13092151
0.47637692 0.20043206 -0.023077229 0.09640642 -0.058454353 -0.31475747 -0.0385538 0.12458517
0.5004403 0.054059714 0.046969138 -0.025218708 0.022647595 -0.37768757 -0.061910935 -0.018451557
0.060373697 0.09125934 0.009876581 -0.057691038 -0.3020401 0.27597776 0.0044709058 -0.02944786
0.03090502 0.1119531 -0.007411098 -0.016570432 0.21610793 0.10657792 0.038854387 -0.050629668
0.09421035 0.026589043 -0.011299678 -0.03949335 0.9590077 -0.12437416 0.0479137 -0.060434822
-0.30881736 -0.50498146 -0.047040466 -0.045388628 0.0057360013 -0.4127146 0.00090152957 -0.14704247
-0.19146521 -0.51207936 -0.020856448 -0.04189845 -0.01766689 -0.5951291 -0.031895015 -0.044471387
-0.0793901 -0.5505477 -0.014061917 0.04463679 -0.008396266 -0.64946675 -0.020455716 0.10955208
0.086189985 -0.1224223 -0.024057742 0.19758108 -0.50072527 -0.2200896 0.08845498 0.2262289
0.07968314 -0.12935421 -0.018992785 0.41785848 -0.22073834 -0.35214728 -0.03619388 0.3370944
0.024577739 -0.14353375 0.031188253 0.24339904 -0.08433883 -0.4283953 0.028097415 0.21591821
0.056069348 -0.35071814 -0.078333415 -0.23686418 0.16423352 -0.2614925 -0.0147871375 -0.19126546
0.03768459 -0.43385023 -0.028881487 -0.14400811 0.17005718 -0.09283525 -0.034085512 -0.13694331
0.17698015 -0.40988085 0.09924076 0.38445285 0.10915566 0.014571909 0.18133822 0.3797459
0.073343486 -0.007189184 0.007600793 0.17232858 -0.03306565 0.025886288 0.0010540378 0.12423888
0.074619524 0.047955416 -0.380393 0.034086406 -0.08804099 -0.05586899 -0.32137105 0.114499025
0.06281672 -0.11223867 0.018454691 -0.19207048 -0.050264586 0.08881035 0.03087638 -0.26558247
0.05563932 -0.24403217 0.02120111 -0.3729324 0.12135332 -0.29544583 0.03833748 -0.41864747
0.08926462 -0.3740851 0.03211532 -0.05424772 0.28313014 0.00040230254 0.02491034 -0.090201244
0.10064476 -0.3193976 -0.12192621 -0.06648642 0.2889696 0.09446759 -0.089407094 -0.03551007
-0.055671368 0.03330954 0.03716215 0.07388966 0.3004156 0.19294591 -0.08529842 0.07185791
0.008294982 0.02979101 -0.029452458 0.075771034 0.3127629 0.394982 -0.05035241 0.07073235
0.12312011 0.16245812 0.019687776 0.10309348 0.3433762 0.55036926 -0.016039781 0.14953855
0.15850797 -0.13321348 -0.017223997 0.01894914 0.33514687 -0.07577777 -0.10645538 -0.02043821
0.17547415 -0.08731388 -0.13688084 -0.044887044 0.112156615 0.1314223 -0.12603849 -0.02893431
0.062033884 -0.08788453 -0.07513357 0.038628098 0.050256107 0.4264253 -0.18760294 0.10659423
0.15408482 -0.0010303756 -0.08356109 -0.29152408 0.1765628 -0.42288718 -0.100277804 -0.32867807
0.11096778 -0.17260678 -0.08496734 -0.17413062 0.03155749 -0.18080793 -0.058096234 -0.12710518
00000000: 48f3 ba3c 28a7 003f d2d4 67bd a871 af3d
00000010: 5dd5 d0bb 10a2 efbe 2f5d 22be d14b 243e
00000020: 8a90 47bc fd7a 103f d1e2 55bb 661b a2bc
00000030: 4e47 37bc ab4a 1cbf 4413 e4bb 08f7 85bd
00000040: 998d 04be e5ba e53e 8e2a a2bd 8cc2 dfbc
00000050: 888b 303e bc78 febe 7052 fbbb bb49 af3c
00000060: 5e13 bd3e 86d4 0a3e 09d5 9abd a712 9abd
00000070: 0efd ffbd becb aabe 6e96 febc 4a10 06be
00000080: ade7 f33e 103e 4d3e 750c bdbc bb70 c53d
00000090: d56d 6fbd e427 a1be 97ea 1dbd 8226 ff3d
000000a0: db1c 003f b86d 5d3d b662 403d 7797 cebc
000000b0: 7387 b93c 4460 c1be 5296 7dbd b827 97bc
000000c0: 694a 773d 2de6 ba3d 62d1 213c 704d 6cbd
000000d0: 00a5 9abe f54c 8d3e ad80 923b a33c f1bc
000000e0: 862c fd3c ab47 e53d ccd8 f2bb b7be 87bc
000000f0: 664b 5d3e 8645 da3d c725 1f3d 0e61 4fbd
00000100: 5bf1 c03d 44d1 d93c 4922 39bc c7c3 21bd
00000110: 8781 753f e1b7 febd 2841 443d 818a 77bd
00000120: 4f1d 9ebe 7746 01bf 81ad 40bd 6de9 39bd
00000130: 11f5 bb3b 544f d3be a054 6c3a 4d92 16be
00000140: 750f 44be a217 03bf 24db aabc b69d 2bbd
00000150: 27ba 90bc 615a 18bf 59a4 02bd a127 36bd
00000160: 4797 a2bd b2f0 0cbf f463 66bc 11d5 363d
00000170: 7e90 09bc 7443 26bf bf92 a7bc d75c e03d
00000180: 6084 b03d 8bb8 fabd be14 c5bc b252 4a3e
00000190: 882f 00bf 2b5f 61be e227 b53d 8ca8 673e
000001a0: ea30 a33d 6e75 04be c296 9bbc 8cf1 d53e
000001b0: 3b09 62be a64c b4be 0940 14bd a397 ac3e
000001c0: 4157 c93c 83fa 12be 827e ff3c 993d 793e
000001d0: d6b9 acbd a156 dbbe 8d2c e63c aa19 5d3e
000001e0: f9a8 653d 5491 b3be 456d a0bd 868c 72be
000001f0: d52c 283e 58e2 85be c045 72bc 18db 43be
00000200: 285b 1a3d 9e21 debe de98 ecbc dd76 13be
00000210: 7823 2e3e 6820 bebd 409d 0bbd de3a 0cbe
00000220: 493a 353e e7db d1be bd3e cb3d 01d7 c43e
00000230: 018d df3d 04bf 6e3c bab0 393e 0e6e c23e
00000240: 1c35 963d 3f93 ebbb 1310 f93b e776 303e
00000250: d96f 07bd 7b0f d43c a427 8a3a f470 fe3d
00000260: 1fd2 983d e66c 443d dfc2 c2be 309e 0b3d
00000270: d64e b4bd e2d6 64bd bf8a a4be 777e ea3d
00000280: 0da6 803d 63dd e5bd 4b2e 973c 20ae 44be
00000290: 3de2 4dbd 33e2 b53d 76f0 fc3c 6dfa 87be
000002a0: 0ee6 633d 92e3 79be f3ad ad3c fff0 bebe
000002b0: 1788 f83d ad44 97be c307 1d3d f658 d6be
000002c0: 5ed0 b63d 1588 bfbe 5b8b 033d db32 5ebd
000002d0: 6ff6 903e 22ec d239 c510 cc3c 6ebb b8bd
000002e0: d71e ce3d 1588 a3be 73b4 f9bd 082a 88bd
000002f0: d3f3 933e 3978 c13d 111b b7bd 0273 11bd
00000300: a907 64bd 966f 083d 5737 183d 7653 973d
00000310: 13d0 993e 9d93 453e f0b0 aebd 3d2a 933d
00000320: ade7 073c 470c f43c 4846 f1bc d82d 9b3d
00000330: 7522 a03e 153b ca3e 543e 4ebd 1fdc 903d
00000340: 6526 fc3d 6c5b 263e 4248 a13c ad22 d33d
00000350: 01cf af3e 00e5 0c3f dc65 83bc a220 193e
00000360: ea4f 223e 1d69 08be 5719 8dbc 3a3b 9b3c
00000370: 5f98 ab3e 6031 9bbd 4705 dabd 086e a7bc
00000380: 7faf 333e 9fd1 b2bd 7e2a 0cbe 7adb 37bd
00000390: 5eb2 e53d 9193 063e 3c10 01be a507 edbc
000003a0: 3e17 7e3d cefc b3bd a1df 99bd 7f38 1e3d
000003b0: 59d9 4d3d 6b54 da3e fc1a 40be 134e da3d
000003c0: 69c8 1d3e ab0d 87ba 1422 abbd a542 95be
000003d0: e1cc 343e ab84 d8be 735e cdbd 7e48 a8be
000003e0: 1343 e33d d5bf 30be 5b03 aebd 4c4f 32be
000003f0: 6d42 013d b725 39be 51f6 6dbd dc27 02be

fc1.bias f4 [256]
0.043283448 -0.28610954 -0.42511436 0.044669326 -0.16413799 -0.20800959 0.10820023 -0.051214967
-0.090278864 -0.39596665 -0.6212702 -0.10547305 -0.22979121 -0.04978275 -0.09855937 -0.092356674
0.17604554 -0.5332377 -0.30636033 0.02743243 0.011415939 -0.20591617 0.15757918 -0.19526696
0.12269202 -0.1405339 -0.17652021 -0.632413 -0.2472036 0.17738314 -0.23140652 -0.32548574
-0.34133986 0.2739719 -0.35369933 0.12761739 -0.061458703 -0.1765718 -0.3702971 0.09104933
0.08800388 -0.24897985 -0.1395585 -0.2832206 0.32738438 -0.04706561 0.1491659 -0.0947448
0.052941564 -0.32483953 0.05126032 -0.2276731 -0.031705517 -0.09359983 0.09535464 -0.4535782
-0.23963945 -0.1397517 0.016197983 0.14724185 -0.11940213 -0.578448 -0.18703705 -0.29055846
-0.110481754 -0.0055355798 -0.6097533 -0.36854312 -0.09656028 -0.42525917 -0.21635777 -0.5984727
0.2015018 0.05875788 -0.51752913 0.06978334 0.056214456 0.038422547 -0.42029127 -0.2407377
-0.0023777685 -0.42118484 -0.15155774 0.09032725 -0.12817632 -0.25530577 0.056658342 -0.24635737
-0.094086945 -0.09231646 -0.4236161 -0.32085425 -0.0878708 -0.4600728 0.0030256102 -0.1756593
0.06647215 -0.24199389 -0.053422675 -0.09469322 -0.47094116 -0.053447194 0.11105617 -0.43672365
0.28644007 0.1341125 0.043461617 -0.08081617 -0.0716121 -0.32671636 -0.416771 0.0149827385
-0.42198855 0.13233772 -0.12788123 -0.30496237 0.04468862 0.1652268 -0.44002244 -0.2068527
0.12716337 0.27264947 -0.2598713 3.99174e-06 -0.17354481 -0.11543166 -0.23986915 -0.16812879
-0.25626388 0.2265323 -0.25702077 -0.13219392 -0.21228255 -0.13120812 -0.5163505 -0.3067903
-0.29973885 0.059639256 -0.10704875 0.18048409 -0.47202078 0.046835497 -0.144622 -0.19484493
-0.10665934 -0.12532057 0.058274258 -0.3261366 0.08135654 0.06859815 -0.13461234 -0.540854
-0.25258508 -0.08414397 -0.09713265 -0.031976484 -0.54762733 -0.01855223 0.002712351 -0.4807375
-0.10588313 -0.11371199 -0.1899811 0.05294028 0.11192268 -0.062089067 -0.5289589 -0.09518679
-0.20134042 -0.017564112 0.108470365 -0.1483359 0.0011648756 -0.16716085 0.030857058 -0.14372061
-0.24784248 -0.46912768 -0.25201097 -0.20563444 0.12656829 -0.36208725 -0.27392852 -0.2894719
0.16717345 0.083510034 -0.2525656 0.1312492 0.15707935 -0.014364029 0.019553905 -0.13909851
0.101523444 -0.2951084 -0.26250437 -0.06428752 -0.20487173 -0.13849911 -0.17281295 -0.13876301
-0.2019401 -0.36427397 -0.072828814 -0.4783197 -0.4220858 -0.2543552 -0.26334536 0.119491674
-0.051616054 -0.5180472 -0.17030787 -0.41996735 -0.113316685 0.057382748 0.0056902575 0.0072750477
0.23480657 -0.12504174 -0.17122409 -0.21125294 -0.3346424 0.020949556 0.0935936 0.16941388
-0.076453455 0.05241324 -0.12681982 0.058471635 -0.18254994 0.11816376 -0.04660283 0.052015007
0.08393727 -0.43240488 0.08634411 -0.040734727 0.2232938 0.19389352 0.06823287 -0.010927901
-0.30131721 -0.2849447 -0.5009697 -0.2828611 -0.04285373 0.16391963 -0.022816077 0.038632635
0.066116884 -0.029884754 -0.31069645 -0.13388267 -0.3538542 0.19304977 0.033679415 -0.34145156
00000000: fc49 313d f37c 92be 97a8 d9be 2ff7 363d
00000010: ca13 28be 7700 55be 1598 dd3d c9c6 51bd
00000020: 20e4 b8bd 24bc cabe 900b 1fbf 4102 d8bd
00000030: 634e 6bbe ffe8 4bbd 7fd9 c9bd 7f25 bdbd
00000040: 4845 343e 4482 08bf 43db 9cbe fab9 e03c
00000050: eb09 3b3c b0db 52be 705c 213e 10f4 47be
00000060: f445 fb3d 1ee8 0fbe b7c1 34be d2e5 21bf
00000070: f122 7dbe eda3 353e d5f5 6cbe 11a6 a6be
00000080: 19c4 aebe 0b46 8c3e 1418 b5be 22ae 023e
00000090: 1fbc 7bbd 3dcf 34be 9597 bdbe 1278 ba3d
000000a0: 613b b43d 93f4 7ebe 6ce8 0ebe 4a02 91be
000000b0: ed9e a73e dec7 40bd f2be 183e 9009 c2bd
000000c0: 41d9 583d 5e51 a6be 57f6 513d 2323 69be
000000d0: a5dd 01bd 45b1 bfbd 4b49 c33d 673b e8be
000000e0: 0b64 75be 121b 0fbe a2b1 843c 91c6 163e
000000f0: 1b89 f4bd 2b15 14bf a486 3fbe 14c4 94be
00000100: 4244 e2bd cf63 b5bb cb18 1cbf afb1 bcbe
00000110: 65c1 c5bd 92bb d9be e48c 5dbe 8235 19bf
00000120: 7d56 4e3e 1aac 703d ca7c 04bf 91ea 8e3d
00000130: 2141 663d f660 1d3d 6b30 d7be f283 76be
00000140: 56d4 1bbb 8aa5 d7be f431 1bbe 7efd b83d
00000150: a740 03be 70b7 82be 9412 683d 1b45 7cbe
00000160: a8b0 c0bd 6a10 bdbd 36e4 d8be 0247 a4be
00000170: 9bf5 b3bd a98e ebbe 5149 463b 08e0 33be
00000180: 8d22 883d 3fcd 77be bcd1 5abd 85ee c1bd
00000190: 331f f1be 72eb 5abd 6b71 e33d 3e9a dfbe
000001a0: 46a8 923e ca54 093e cf04 323d f382 a5bd
000001b0: 5da9 92bd 5e47 a7be 0263 d5be 297a 753c
000001c0: e20e d8be 8a83 073e 4cf3 02be 0724 9cbe
000001d0: 6a0b 373d 3731 293e 9f4a e1be 32d1 53be
000001e0: 1d37 023e b698 8b3e da0d 85be c9f0 8536
000001f0: bbb5 31be 6f67 ecbd 42a0 75be f429 2cbe
00000200: 0535 83be 15f8 673e 3a98 83be d85d 07be
00000210: 9960 59be 6c5b 06be 8c2f 04bf 9e13 9dbe
00000220: 5f77 99be 4b48 743d 603c dbbd d2d0 383e
00000230: b5ac f1be 94d6 3f3d ca17 14be 6e85 47be
00000240: 3670 dabd 0954 00be fdb0 6e3d 60fb a6be
00000250: 429e a63d 307d 8c3d d1d7 09be 6875 0abf
00000260: d552 81be ac53 acbd 7ced c6bd c6f9 02bd
00000270: 4e31 0cbf d9fa 97bc b3c1 313b 3a23 f6be
00000280: 41d9 d8bd d5e1 e8bd 688a 42be e8d7 583d
00000290: b837 e53d 1b51 7ebd da69 07bf 4bf1 c2bd
000002a0: 2f2c 4ebe 9de2 8fbc b625 de3d 5ee5 17be
000002b0: bdae 983a 372c 2bbe f1c7 fc3c 7f2b 13be
000002c0: 6bca 7dbe 8131 f0be 9507 81be d691 52be
000002d0: 1e9b 013e 8063 b9be 5c40 8cbe a935 94be
000002e0: 842f 2b3e 4f07 ab3d 4750 81be 3166 063e
000002f0: 69d9 203e 1b57 6bbc 832f a03c d76f 0ebe
00000300: 86eb cf3d 7318 97be f966 86be 2da9 83bd
00000310: e5c9 51be b6d2 0dbe e1f5 30be e417 0ebe
00000320: 63c9 4ebe 1e82 babe 4627 95bd 52e6 f4be
00000330: a11b d8be d83a 82be 34d5 86be 0db8 f43d
00000340: 5b6b 53bd be9e 04bf 3065 2ebe f605 d7be
00000350: 9412 e8bd 2c0a 6b3d 5775 ba3b 8663 ee3b
00000360: 2271 703e f10a 00be 5e55 2fbe b152 58be
00000370: 4056 abbe 679e ab3c 00ae bf3d d57a 2d3e
00000380: a193 9cbd 44af 563d 0edd 01be f47f 6f3d
00000390: 5fee 3abe d7ff f13d 9ce2 3ebd b00d 553d
000003a0: 4ee7 ab3d 2c64 ddbe 2ed5 b03d 75d9 26bd
000003b0: 21a7 643e 068c 463e adbd 8b3d f00a 33bc
000003c0: 4046 9abe 46e4 91be 8d3f 00bf 2cd3 90be
000003d0: 6587 2fbd 8cda 273e c8e8 babc 413d 1e3d
000003e0: 4a68 873d dfd0 f4bc 9b13 9fbe 8a18 09be
000003f0: 612c b5be d7ae 453e 6df3 093d bdd2 aebe

batchnorm.weight f4 [256]
0.4649475 0.4783465 1.2140944 1.1787193 0.43799618 0.589129 0.42910972 0.5928707
0.6973056 0.58142996 0.65754795 0.8269133 0.8262446 0.39069366 0.33889717 0.3309135
0.4815614 0.5060634 0.36084968 0.4719009 0.07244803 0.45104554 0.48943126 0.18832043
0.34264538 0.5449734 0.87189746 0.6558553 0.7711991 0.27920938 0.3989641 0.7088726
0.5034634 0.084549956 0.637265 0.009085486 0.9690863 0.7838208 0.46817183 0.34982896
0.95002115 1.17023 0.26220337 0.6577107 0.70858586 0.3099055 0.82376295 0.32125127
1.0213308 0.649601 0.4387602 0.51548904 0.36454844 -0.0033945846 1.0438033 0.68671906
1.0965111 0.48635158 1.001385 1.1108544 0.4521218 0.5309516 0.34793827 1.3155689
0.46303046 0.22910997 1.6790904 0.90284115 0.90057814 0.9116473 0.31426746 1.0195612
0.52422076 0.26898283 0.74079186 0.76217806 0.60542464 1.203158 1.106642 0.3204589
0.64718807 0.16985634 0.6407312 0.81777453 0.2961329 0.9365886 0.65249103 0.35882163
-0.055122208 0.20602044 0.41399816 1.0262312 0.6294964 0.3010403 0.63791007 0.12754796
0.95639586 0.495612 0.23675583 0.39839885 0.7613962 0.41391844 1.1393887 0.8688472
0.6444757 0.17399228 0.3346066 0.25857213 1.2705336 0.38231838 0.6258655 0.8641592
0.3530328 0.87548244 0.56315714 0.41348544 0.12696451 0.7676288 0.46888202 1.144666
0.6950255 1.017408 0.48875117 0.37334627 0.32663116 0.6348229 0.6078453 0.40744132
1.5798018 0.6108122 1.0461193 0.802209 0.4028018 0.2811945 0.6623211 0.7044962
0.8931878 0.61594796 0.75829005 0.075790934 0.66356593 1.2781243 0.32604608 0.70528364
0.37714916 0.06358031 0.2848138 -0.26814485 0.2501353 0.7944604 0.35700697 1.1118197
0.5056396 0.61188775 0.8100039 0.27543405 0.82986826 0.43293384 0.16197516 0.33103734
0.9645134 0.58580005 0.958259 1.3927919 0.2587611 0.3583518 1.1008785 0.82873774
0.69879746 0.4525515 0.31870052 0.35440108 0.65787196 0.7461199 0.70684713 0.12902741
0.854133 1.0351073 0.4139801 0.51402175 0.023353277 0.43876427 0.83421266 1.0459062
1.0451095 0.14143212 0.46476957 1.0761312 0.6634745 0.13490234 0.8401503 0.55955786
0.13980961 0.45106426 0.8535225 1.2768915 1.0445836 0.66448075 0.4093634 0.6774932
0.184789 0.8406026 0.25945905 0.8913817 0.47716132 1.1808456 0.56295455 0.16712418
0.29233992 0.90543926 0.9342683 0.57373595 0.6202851 0.7210233 0.1416719 0.39626977
0.36846942 0.6367082 1.1432714 0.5707307 0.9907454 0.8031751 0.6476253 0.6981982
0.5942927 0.4028982 0.8724546 0.09280957 1.0849208 0.3911275 0.55282307 0.52809316
0.6124444 0.84422505 0.41091165 1.1337193 0.39801386 0.87560207 0.45493758 0.7969786
0.49898216 0.70218056 0.6578712 0.3191401 0.47793314 -0.053230375 0.69769007 0.7353411
0.8866814 0.36846262 0.31614316 0.83856064 1.0061258 0.6173996 0.86471087 0.6723293
00000000: 990d ee3e d5e9 f43e 7267 9b3f 46e0 963f
00000010: 0941 e03e 28d1 163f 45b4 db3e 60c6 173f
00000020: 9f82 323f 98d8 143f 1055 283f 97b0 533f
00000030: c484 533f 0009 c83e ee83 ad3e 7f6d a93e
00000040: 378f f63e 5f8d 013f 4ac1 b83e ff9c f13e
00000050: a25f 943d 71ef e63e bc96 fa3e 12d7 403e
00000060: 376f af3e 6083 0b3f ac34 5f3f 22e6 273f
00000070: 4e6d 453f 88f4 8e3e 0645 cc3e ad78 353f
00000080: fae2 003f 8728 ad3d cd23 233f 4adb 143c
00000090: 0a16 783f 7ba8 483f 38b4 ef3e c81c b33e
000000a0: 9634 733f 19ca 953f 853f 863e ba5f 283f
000000b0: e265 353f efab 9e3e 21e2 523f 0c7b a43e
000000c0: f8ba 823f 404c 263f 2da5 e03e 17f7 033f
000000d0: 18a6 ba3e ae77 5ebb 599b 853f d2cc 2f3f
000000e0: 7a5a 8c3f 1303 f93e 622d 803f 7a30 8e3f
000000f0: 827c e73e 72ec 073f f724 b23e 9064 a83f
00000100: 5412 ed3e ce9b 6a3e 6fec d63f 9920 673f
00000110: 4a8c 663f b861 693f aae7 a03e fb80 823f
00000120: 5533 063f 1eb8 893e 89a4 3d3f 1a1e 433f
00000130: 1cfd 1a3f 1501 9a3f 72a6 8d3f 3013 a43e
00000140: 1eae 253f d2ee 2d3e f606 243f ac59 513f
00000150: bb9e 973e 45c4 6f3f a709 273f 78b7 b73e
00000160: d3c7 61bd 06f7 523e 91f7 d33e 8b5b 833f
00000170: ad26 213f f421 9a3e 134e 233f ef9b 023e
00000180: 5cd6 743f dbc0 fd3e 1f70 723e effa cb3e
00000190: ddea 423f 1eed d33e 7dd7 913f c56c 5e3f
000001a0: 5cfc 243f 082b 323e 8e51 ab3e 9163 843e
000001b0: d8a0 a23f 3cbf c33e b938 203f 8a39 5d3f
000001c0: b7c0 b43e 9e1f 603f 112b 103f 5db4 d33e
000001d0: fc02 023e 5283 443f 4e11 f03e 6a84 923f
000001e0: 31ed 313f 6d3a 823f 983d fa3e 3e27 bf3e
000001f0: 333c a73e c183 223f c09b 1b3f 269c d03e
00000200: f236 ca3f 305e 1c3f 3de7 853f 925d 4d3f
00000210: 0a3c ce3e baf8 8f3e e08d 293f dd59 343f
00000220: f5a7 643f c4ae 1d3f 4c1f 423f 4738 9b3d
00000230: 75df 293f 9499 a33f 83ef a63e 788d 343f
00000240: b219 c13e 6536 823d 1dd3 913e 484a 89be
00000250: bc11 803e c261 4b3f 9ec9 b63e 1c50 8e3f
00000260: 9971 013f ada4 1c3f 6a5c 4f3f b105 8d3e
00000270: 3f72 543f 81a9 dd3e d1dc 253e ba7d a93e
00000280: 5aea 763f fef6 153f 7650 753f 0147 b23f
00000290: 567c 843e e379 b73e 96e9 8c3f 2828 543f
000002a0: 64e4 323f d5b4 e73e b72c a33e 0f74 b53e
000002b0: 4c6a 283f b701 3f3f eff3 343f c31f 043e
000002c0: 76a8 5a3f 657e 843f 33f5 d33e ee96 033f
000002d0: 5f4f bf3c b6a5 e03e f68e 553f 41e0 853f
000002e0: 26c6 853f 95d3 103e 47f6 ed3e abbe 893f
000002f0: 77d9 293f d723 0a3e 1714 573f 2f3f 0f3f
00000300: 402a 0f3e e5f1 e63e 7380 5a3f 2e71 a33f
00000310: eab4 853f 691b 2a3f 1498 d13e 3270 2d3f
00000320: 5439 3d3e bb31 573f d1d7 843e 9731 643f
00000330: 7d4e f43e f325 973f ca1d 103f 9a22 2b3e
00000340: 94ad 953e deca 673f 352c 6f3f 5ce0 123f
00000350: 01cb 1e3f fc94 383f 7012 113e dfe3 ca3e
00000360: 06a8 bc3e 4fff 223f b856 923f 681b 123f
00000370: 7ea1 7d3f e29c 4d3f c6ca 253f 1ebd 323f
00000380: 9123 183f ac48 ce3e 2f59 5f3f f212 be3d
00000390: afde 8a3f dd41 c83e d085 0d3f 1d31 073f
000003a0: 28c9 1c3f 221f 583f 0363 d23e b71d 913f
000003b0: 79c8 cb3e 7527 603f 94ed e83e ca06 4c3f
000003c0: 977a ff3e 1bc2 333f 3f6a 283f 5566 a33e
000003d0: a7b3 f43e 1808 5abd d19b 323f 503f 3c3f
000003e0: 8dfd 623f 22a7 bc3e 84dd a13e e9ab 563f
000003f0: bbc8 803f e60d 1e3f b15d 5d3f c61d 2c3f

batchnorm.bias f4 [256]
0.032939438 -0.054236725 0.05471649 0.1645008 -0.18620282 0.28717172 -0.0050550695 0.13023199
0.022047304 0.17247568 0.075337596 0.17753015 -0.09998654 0.120811455 -0.09095543 0.11219548
0.12259068 0.12673596 0.11180998 0.09848685 0.2856173 -0.10939144 -0.018892707 -0.0892127
0.1764663 -0.017794887 -0.015170947 0.084508784 0.0071885465 0.2386517 0.044075347 -0.0047472026
-0.01953881 -0.09031406 0.052409057 0.15543361 0.09819577 0.065536164 0.12694703 0.18387249
0.0592695 0.27978715 0.06661427 0.06330824 0.059770808 0.14318816 0.047899105 0.24433744
0.045811605 0.039280877 0.14598168 0.24930309 0.19815303 0.0035996581 0.20380934 -0.079613425
-0.029656231 0.13213632 -0.018436212 0.023057314 0.09806469 0.05621223 0.08928136 0.055401128
0.0599307 0.091467 0.19460803 0.03573263 0.21827641 0.24654359 0.08883574 0.0020152591
0.30132154 0.16882281 0.26824754 0.2147007 0.22980598 -0.013105817 0.105522044 0.151845
0.14035702 0.17299093 0.33127433 0.15393323 0.17494613 0.04954156 0.047808193 -0.07230893
0.30620936 0.15482382 -0.0019604983 0.10471445 0.27909505 0.16050677 -8.6510314e-05 0.16849479
0.2161912 0.050952367 -0.10146418 0.1594522 -0.08427115 0.047681797 0.03269303 -0.03658571
0.27127895 0.15215023 0.035066716 0.044841353 0.068338655 0.0011161887 0.061832312 0.0861425
0.1919161 0.1364571 -0.021223767 0.15952085 0.011506964 0.080279306 0.1098636 -0.11811358
0.06119983 0.085064925 0.013647777 0.12732333 0.21086767 -0.0010647821 0.20878753 0.23171961
0.009405742 0.19126238 0.0409883 0.121666595 0.08476315 0.25823936 0.09669039 -0.03842411
0.09334786 0.20783754 0.052522138 -0.10435517 0.14179324 0.096412696 0.09131229 0.25644404
0.18317448 0.16202259 -0.022255883 -0.15369007 0.13382736 -0.013929483 0.3880547 -0.060126577
-0.011039142 0.12862067 0.043590408 0.095179565 0.043792393 -0.03957618 0.09243637 0.18988347
0.13854969 0.2580803 0.1641976 0.114191234 0.074853756 -0.011217336 -0.019341774 0.051705364
-0.020426847 0.122335054 0.29976103 0.11779121 0.2696351 0.06432443 0.04914431 0.21100073
0.15104006 0.15131521 0.05524788 0.182708 0.17089577 0.15817833 0.057382733 0.22248071
0.030467698 0.21951088 0.2742987 0.17247912 -0.07211197 0.028011044 0.25198433 0.076556034
0.024724001 -0.013468224 0.088964194 0.060617782 -0.110027604 0.07644869 0.098646335 0.13931605
0.22530763 0.13100182 0.22398363 0.0507067 0.114005715 -0.018451374 0.21933354 0.08587606
0.07513778 0.14343846 0.20895897 -0.03438593 0.15047766 -0.14031112 -0.019473784 0.019858906
0.08027252 0.034015927 0.028589657 0.10181622 0.11048085 0.12261175 0.1323776 -0.029395526
0.0867126 0.012691084 0.08855169 0.136301 -0.017354975 0.22372617 0.15498601 0.008255837
0.23308767 -0.0003058126 0.26556584 0.03316307 0.03529068 0.10857086 0.11441183 0.029082958
0.044296052 0.13351244 0.041014504 -0.05658737 -0.07543583 -0.05934821 0.12553579 -0.02806332
0.078105435 0.16921957 0.03535327 0.15546717 0.023322392 0.06540728 0.06812177 0.038492702
00000000: 81eb 063d 5427 5ebd 661e 603d e672 283e
00000010: f4ab 3ebe 2c08 933e ffa4 a5bb 895b 053e
00000020: 8c9c b43c 779d 303e 994a 9a3d 77ca 353e
00000030: bec5 ccbd ff6b f73d d746 babd bec6 e53d
00000040: d310 fb3d 12c7 013e a1fc e43d 79b3 c93d
00000050: 6e3c 923e 9f08 e0bd e1c4 9abc 26b5 b6bd
00000060: 95b3 343e 95c6 91bc 908f 78bc f112 ad3d
00000070: e68d eb3b 1c61 743e 5a88 343d 6c8e 9bbb
00000080: db0f a0bc 94f6 b8bd e1aa 563d fd29 1f3e
00000090: dd1a c93d d337 863d 67fe 013e 1249 3c3e
000000a0: 93c4 723d 4340 8f3e 106d 883d c0a7 813d
000000b0: 3cd2 743d eb9f 123e da31 443d 9833 7a3e
000000c0: f3a4 3b3d fce4 203d 397c 153e 4f49 7f3e
000000d0: a1e8 4a3e 3ee8 6b3b 65b3 503e 5d0c a3bd
000000e0: a0f1 f2bc be4e 073e 8a07 97bc b1e2 bc3c
000000f0: 24d6 c83d cc3e 663d 25d9 b63d 4bec 623d
00000100: e579 753d 0d53 bb3d 5447 473e 615c 123d
00000110: da83 5f3e ec75 7c3e 83ef b53d 7012 043b
00000120: d146 9a3e e3df 2c3e be57 893e 80da 5b3e
00000130: 4252 6b3e c8b9 56bc f11b d83d 417d 1b3e
00000140: c0b9 0f3e 8924 313e ca9c a93e aca0 1d3e
00000150: 1425 333e 17ec 4a3d 86d2 433d b416 94bd
00000160: 79c7 9c3e 238a 1e3e b47b 00bb 8874 d63d
00000170: 8ce5 8e3e e35b 243e df6c b5b8 e689 2c3e
00000180: 3a61 5d3e 6eb3 503d 74cc cfbd 7047 233e
00000190: 5a96 acbd fd4d 433d 20e9 053d e6da 15bd
000001a0: 13e5 8a3e 45cd 1b3e 1ea2 0f3d 91ab 373d
000001b0: 23f5 8b3d 144d 923a e143 7d3d 7b6b b03d
000001c0: a785 443e 69bb 0b3e 77dd adbc 6f59 233e
000001d0: b587 3c3c 7a69 a43d 2b00 e13d 88e5 f1bd
000001e0: acac 7a3d 8536 ae3d ed9a 5f3c 0c61 023e
000001f0: b2ed 573e 2990 8bba 66cc 553e e847 6d3e
00000200: 8b1a 1a3c 49da 433e 59e3 273d 562c f93d
00000210: 4d98 ad3d f337 843e 9c05 c63d 9962 1dbd
00000220: 2a2d bf3d 5dd3 543e 7421 573d 2ab8 d5bd
00000230: 3f32 113e 0574 c53d f001 bb3d a24c 833e
00000240: 1792 3b3e 40e9 253e f851 b6bc ee60 1dbe
00000250: 0a0a 093e 7c38 64bc 1baf c63e 4947 76bd
00000260: 84dd 34bc 23b5 033e db8b 323d 81ed c23d
00000270: a75f 333d a21a 22bd 484f bd3d d070 423e
00000280: f8df 0d3e 1a23 843e 6a23 283e 18dd e93d
00000290: ed4c 993d ebc8 37bc a472 9ebc 01c9 533d
000002a0: 3456 a7bc cd8a fa3d 477a 993e 853c f13d
000002b0: 9d0d 8a3e 87bc 833d 8b4b 493d 9310 583e
000002c0: 3faa 1a3e 60f2 1a3e 9a4b 623d ce17 3b3e
000002d0: 4dff 2e3e 80f9 213e 280a 6b3d fcd1 633e
000002e0: 6597 f93c 76c7 603e e170 8c3e 5e9e 303e
000002f0: 71af 93bd 6b77 e53c 1704 813e 69c9 9c3d
00000300: fd89 ca3c d3a9 5cbc dc32 b63d 5a4a 783d
00000310: 2756 e1bd 2191 9c3d 1707 ca3d dea8 0e3e
00000320: 0bb7 663e 5725 063e f75b 653e d4b1 4f3d
00000330: d47b e93d 5627 97bc f998 603e cadf af3d
00000340: d6e1 993d 88e1 123e 57f9 553e 43d8 0cbd
00000350: d116 1a3e b8ad 0fbe 7c87 9fbc 25af a23c
00000360: eb65 a43d 4954 0b3d db34 ea3c 0685 d03d
00000370: c943 e23d df1b fb3d fe8d 073e e3ce f0bc
00000380: 6096 b13d 44ee 4f3c 975a b53d 7d92 0b3e
00000390: 052c 8ebc 7918 653e a7b4 1e3e 7d43 073c
000003a0: 89ae 6e3e 7955 a0b9 3ff8 873e 00d6 073d
000003b0: f68c 103d 665a de3d c050 ea3d 623f ee3c
000003c0: c76f 353d 7cb7 083e d3fe 273d 28c8 67bd
000003d0: 1a7e 9abd 1c17 73bd 748c 003e 0ce5 e5bc
000003e0: bef5 9f3d e547 2d3e 97ce 103d c932 1f3e
000003f0: 9a0e bf3c 41f4 853d 6d83 8b3d 86aa 1d3d

batchnorm.running_mean f4 [256]
0.49786273 0.00013200905 2.5275521 0.63695276 1.3954471 1.9400969 3.0799193 1.46952
3.767563 2.0104547 0.23601203 0.3030516 2.5623772 0.2501642 0.40079963 0.08646829
8.54801 0.5513903 4.5594807 4.37474 5.431247 2.169928 5.350622 4.987579
0.87338233 0.6800666 10.328196 1.1286477 0.19955336 2.847706 3.563762 0.16985364
0.4286392 5.948117 2.0939484 2.2712426 0.75361776 3.4761012 0.47465262 3.738869
1.3819911 0.62496746 6.593227 0.8013718 6.948318 0.67058027 0.15508464 3.1800225
4.3081055 7.314202 4.9420233 1.1983486 1.7959852 5.549119 6.4187603 2.732177
3.4595964 1.404472 5.293722 1.7176887 1.3603063 1.5629513 0.9140643 0.938635
3.4680119 4.8252296 0.35885596 0.23969938 2.269715 3.0526593 1.8180265 2.2861
4.088838 2.0718846 0.1766586 9.372175 1.0876359 9.174695 1.6381149 2.0247846
3.7143111 0.5846907 0.43295825 0.4884674 4.019097 5.5695324 1.2179269 3.4929826
4.172181 1.2893022 0.017580383 0.24683927 1.0966932 3.1333518 0.5538811 1.456211
3.878611 4.044358 8.818536 0.70479584 3.8365557 1.9449916 0.5778341 3.0497537
2.4024105 0.47295323 10.661593 7.485871 0.47040582 3.5814815 0.26199946 0.6560221
0.62665 0.82570726 1.4924544 0.87529147 2.2080142 5.114058 0.4808882 0.18068293
3.9969878 0.25708658 0.40852436 3.0943387 2.5545058 5.079663 6e-45 2.151851
0.04741969 9.159982 2.1053028 3.855066 1.3129976 2.7911627 1.6692692 2.989111
1.4259019 3.5110626 2.6532762 3.9335737 1.4547031 1.6559345 3.3384852 2.2126987
0.9472189 11.312074 6.387359 3.9076571 4.7714667 1.5133506 2.574574 0.95177704
0.5538037 0.31665394 1.8341769 0.1663984 0.17530109 2.4752543 1.8848383 2.2219899
9.970814 0.9700397 6e-45 0.3185498 2.1559079 8.266937 5.0290527 2.9957926
1.827572 2.2191143 1.8545151 1.9607719 4.168008 3.479778 3.3646014 0.98487
1.8414922 1.2489085 4.45593 3.1493099 2.6566553 1.9637569 0.19764963 1.4542953
4.7140446 2.4760349 2.8886018 1.2093782 1.4231755 2.8823 2.9380643 3.1836298
5.306972 0.2734743 0.4170386 0.57215846 2.5545397 4.2915425 1.2267468 3.6920223
1.876469 0.14445986 3.2229254 2.2047262 6e-45 0.96816915 0.2239335 9.788437
6.042761 0.09385853 1.555721 1.0108136 1.0557712 3.9610856 2.8936596 7.3867226
9.191794 2.8399746 4.861499 1.4133534 0.31295303 0.24449554 2.5619497 4.7676206
3.2791753 8.133349 1.1309149 2.4215913 3.8157346 7.0343666 3.68784 8.286414
3.5963078 0.15173836 2.0074847 0.99104726 9.01836 6.462787 10.6766 0.7739239
1.0758387 1.8138121 0.022643892 2.841993 0.47070816 9.199723 3.2663455 0.6989404
4.810497 5.304451 0.9409786 1.6311682 5.5835986 1.4938458 8.186499 0.94920874
00000000: dde7 fe3e e96b 0a39 6ac3 2140 560f 233f
00000010: 039e b23f 1855 f83f 661d 4540 3b19 bc3f
00000020: c11f 7140 4aab 0040 23ad 713e 9429 9b3e
00000030: fdfd 2340 8615 803e 9c35 cd3e 4916 b13d
00000040: a6c4 0841 ea27 0d3f 44e7 9140 dffd 8b40
00000050: c7cc ad40 1ae0 0a40 4c38 ab40 3f9a 9f40
00000060: fc95 5f3f d818 2e3f 4a40 2541 8777 903f
00000070: b757 4c3e d140 3640 ad14 6440 1dee 2d3e
00000080: 9976 db3e f956 be40 4003 0640 0a5c 1140
00000090: 18ed 403f 7178 5e40 ab05 f33e a149 6f40
000000a0: 16e5 b03f defd 1f3f b7fb d240 b426 4d3f
000000b0: 9f58 de40 26ab 2b3f 82ce 1e3e 7d85 4b40
000000c0: 00dc 8940 f10d ea40 0e25 9e40 7d63 993f
000000d0: d8e2 e53f 6292 b140 7c66 cd40 fddb 2e40
000000e0: 076a 5d40 bdc5 b33f 2c66 a940 39dd db3f
000000f0: 841e ae3f ca0e c83f 1e00 6a3f 624a 703f
00000100: e8f3 5d40 4868 9a40 f8bb b73e c173 753e
00000110: 0343 1140 c55e 4340 18b5 e83f 764f 1240
00000120: c3d7 8240 c299 0440 fee5 343e 6ef4 1541
00000130: a737 8b3f 8dcb 1241 c0ad d13f 1296 0140
00000140: 46b7 6d40 4aae 153f b4ac dd3e 6618 fa3e
00000150: 719c 8040 9c39 b240 07e5 9b3f 078d 5f40
00000160: 8282 8540 db07 a53f bc04 903c 6fc3 7c3e
00000170: 7160 8c3f d688 4840 27cb 0d3f 1f65 ba3f
00000180: 2a3b 7840 616b 8140 b918 0d41 806d 343f
00000190: 218a 7540 7cf5 f83f f0ec 133f 2a2f 4340
000001a0: 18c1 1940 ed26 f23e e395 2a41 418c ef40
000001b0: 08d9 f03e fe36 6540 cb24 863e 10f1 273f
000001c0: 226c 203f 8d61 533f bf08 bf3f 1a13 603f
000001d0: 1b50 0d40 5da6 a340 fa36 f63e f204 393e
000001e0: a6ce 7f40 daa0 833e 1b2a d13e a509 4640
000001f0: 067d 2340 998c a240 0400 0000 edb7 0940
00000200: 263b 423d 498f 1241 48bd 0640 67b9 7640
00000210: 4e10 a83f 69a2 3240 9daa d53f 984d 3f40
00000220: f483 b63f 40b5 6040 47cf 2940 acbf 7b40
00000230: b633 ba3f a9f5 d33f bea9 5540 db9c 0d40
00000240: f07c 723f 41fe 3441 3f65 cc40 0e17 7a40
00000250: dbaf 9840 79b5 c13f d2c5 2440 a9a7 733f
00000260: 14c6 0d3f 7720 a23e 4fc6 ea3f 5864 2a3e
00000270: 2182 333e 916a 1e40 6242 f13f 1535 0e40
00000280: 7488 1f41 8654 783f 0400 0000 f618 a33e
00000290: 65fa 0940 6045 0441 00ee a040 11bb 3f40
000002a0: e1ed e93f f805 0e40 c060 ed3f 93fa fa3f
000002b0: 5260 8540 afb4 5e40 a155 5740 7120 7c3f
000002c0: 04b6 eb3f 3cdc 9f3f fb96 8e40 4b8e 4940
000002d0: a406 2a40 635c fb3f aa64 4a3e 5926 ba3f
000002e0: 74d9 9640 5b77 1e40 dade 3840 e8cc 9a3f
000002f0: 9d2a b63f 9a77 3840 3f09 3c40 97c0 4b40
00000300: b7d2 a940 d304 8c3e 1586 d53e fa78 123f
00000310: 947d 2340 5154 8940 0a06 9d3f 184a 6c40
00000320: 2330 f03f 49ed 133e 6944 4e40 3c1a 0d40
00000330: 0400 0000 efd9 773f d34e 653e 709d 1c41
00000340: 4c5e c140 e738 c03d de21 c73f 5762 813f
00000350: 8323 873f 6d82 7d40 b831 3940 0860 ec40
00000360: 9711 1341 25c2 3540 6691 9b40 c4e8 b43f
00000370: 613b a03e 0a5d 7a3e fcf6 2340 5990 9840
00000380: 02de 5140 3322 0241 d2c1 903f 5afb 1a40
00000390: ff34 7440 8819 e140 9205 6c40 2795 0441
000003a0: e829 6640 4d61 1b3e a17a 0040 46b5 7d3f
000003b0: 344b 1041 27cf ce40 5bd3 2a41 e01f 463f
000003c0: 15b5 893f ff2a e83f af7f b93c 37e3 3540
000003d0: a900 f13e 1132 1341 ce0b 5140 c2ed 323f
000003e0: 97ef 9940 10be a940 f9e3 703f 1fca d03f
000003f0: d7ac b240 5736 bf3f e6fb 0241 58ff 723f

batchnorm.running_var f4 [256]
2.4956732 0.000116254516 9.699113 2.590936 6.9218125 9.013691 42.066727 8.634744
16.606647 20.282772 1.3552336 1.3793905 12.958125 1.12388 1.9794477 0.33215174
14.505029 2.5681787 18.138283 28.438871 36.58541 11.316115 13.942481 22.348698
4.2120547 2.1894186 18.715944 3.8543355 0.97398597 14.234076 23.670431 0.9058996
0.9077154 25.708899 8.258183 21.13266 2.9148002 13.642952 2.0593877 22.716995
2.3876495 2.4775512 30.032135 4.9018445 29.634577 1.3736495 0.6198292 31.327335
15.629455 9.929285 25.354174 3.4219992 11.507132 25.325775 37.811935 10.315775
13.408608 6.3470984 21.396942 7.862896 9.199234 3.9322016 5.2820606 3.7815952
32.073235 13.995619 1.4529353 1.1452984 19.91611 25.857433 14.0582285 7.9613194
24.82789 4.0558476 0.8025252 24.003859 8.816002 15.506955 8.84504 10.144785
23.562414 2.521205 2.542527 1.7947009 18.680372 14.920066 10.013056 12.08065
19.135664 7.3171277 0.050642937 0.7681591 8.687283 21.215462 1.7363908 13.144656
23.953274 20.415686 38.765804 4.4343343 17.171263 17.85077 1.9140207 28.087519
9.009407 2.3992395 74.93491 34.020042 1.3847764 12.878433 0.8098512 3.4733279
3.739173 2.1084955 5.9600363 4.4543176 12.388889 46.863785 1.4763414 0.66647273
17.891426 1.0370153 2.2491188 31.438354 15.248115 21.60586 6e-45 11.770103
0.15716395 63.85762 7.246047 52.90035 6.5753045 7.5266137 8.032642 19.322151
4.013756 30.059721 11.805832 24.037882 12.150575 7.303041 29.526808 19.282137
2.6838217 105.07636 37.086983 16.756433 24.146729 3.9826891 22.61864 3.1449914
1.5802618 1.4881582 15.307055 0.53081554 0.5732975 12.105744 7.9332166 9.330298
59.01225 6.523004 6e-45 0.59827363 22.520544 10.266652 27.92277 23.092615
4.9269934 7.9024134 8.687192 19.459644 22.91519 14.557682 25.755146 6.862233
17.724081 5.938704 14.9334345 17.011875 20.205154 8.20433 0.9746486 8.614032
6.9984426 21.45877 17.650005 1.5011954 12.396219 13.21033 21.129002 18.799284
18.270176 0.40659258 1.4530251 2.0454276 15.817426 41.855133 3.5401704 19.083048
17.133165 0.730127 17.452318 11.791447 6e-45 5.5769753 1.0731759 18.217611
28.327555 0.38190153 11.665603 3.127268 7.697837 37.81749 32.542286 34.188793
10.642544 21.666138 16.992062 11.500719 0.9162168 0.73239756 24.430746 29.276638
21.206696 15.268579 7.666057 18.678911 18.532452 49.286488 15.728765 12.75007
18.410854 0.5970681 14.604951 2.0647573 17.348705 6.1397147 65.38274 2.1540139
5.3193846 8.356739 0.076378725 34.629696 2.4024158 22.135605 13.293585 2.6171908
28.799028 32.98453 5.479534 13.702907 19.862019 12.848131 10.42664 3.7151597
00000000: 1cb9 1f40 abcd f338 912f 1b41 e5d1 2540
00000010: 7d7f dd40 1438 1041 5444 2842 e927 0a41
00000020: 6ada 8441 1e43 a241 4b78 ad3f de8f b03f
00000030: 7b54 4f41 4ddb 8f3f 8b5e fd3f cb0f aa3e
00000040: 9914 6841 0a5d 2440 341b 9141 cf82 e341
00000050: 7657 1242 cf0e 3541 6714 5f41 22ca b241
00000060: 27c9 8640 6f1f 0c40 41ba 9541 6fad 7640
00000070: 2557 793f c6be 6341 0b5d bd41 09e9 673f
00000080: 0960 683f d3ab cd41 8421 0441 b00f a941
00000090: 168c 3a40 8849 5a41 02cd 0340 68bc b541
000000a0: 40cf 1840 3390 1e40 d041 f041 e9db 9c40
000000b0: 9d13 ed41 bfd3 af3f 20ad 1e3f 629e fa41
000000c0: 3f12 7a41 5ade 1e41 59d5 ca41 0902 5b40
000000d0: 361d 3841 309b ca41 6c3f 1742 6a0d 2541
000000e0: a989 5641 6e1b cb40 f02c ab41 d89c fb40
000000f0: 1030 1341 31a9 7b40 a406 a940 a805 7240
00000100: fe4a 0042 0eee 5f41 c9f9 b93f 2399 923f
00000110: 3154 9f41 06dc ce41 81ee 6041 21c3 fe40
00000120: 859f c641 81c9 8140 4b72 4d3f e707 c041
00000130: 580e 0d41 7d1c 7841 4985 0d41 0a51 2241
00000140: d37f bc41 6c5b 2140 c3b8 2240 c2b8 e53f
00000150: 6771 9541 97b8 6e41 7a35 2041 584a 4141
00000160: d715 9941 e925 ea40 f86e 4f3d 13a6 443f
00000170: 1cff 0a41 44b9 a941 0e42 de3f 8350 5241
00000180: 4ea0 bf41 5353 a341 2f10 1b42 11e6 8d40
00000190: bf5e 8941 61ce 8e41 a1fe f43f 3db3 e041
000001a0: 8826 1041 248d 1940 adde 9542 8614 0842
000001b0: 5a40 b13f 100e 4e41 6952 4f3f 014b 5e40
000001c0: 9c4e 6f40 97f1 0640 9eb8 be40 c589 8e40
000001d0: e438 4641 8474 3b42 c1f8 bc3f f59d 2a3f
000001e0: a421 8f41 ebbc 843f 90f1 0f40 c081 fb41
000001f0: 47f8 7341 cdd8 ac41 0400 0000 5852 3c41
00000200: 96ef 203e 346e 7f42 9edf e740 f599 5342
00000210: e568 d240 05da f040 b485 0041 c493 9a41
00000220: b070 8040 4f7a f041 b0e4 3c41 954d c041
00000230: c168 4241 83b2 e940 e736 ec41 d141 9a41
00000240: bcc3 2b40 1927 d242 1259 1442 2d0d 8641
00000250: 802c c141 61e4 7e40 faf2 b441 8a47 4940
00000260: 0546 ca3f f87b be3f b3e9 7441 87e3 073f
00000270: a0c3 123f 21b1 4141 e9dc fd40 e748 1541
00000280: 8b0c 6c42 73bc d040 0400 0000 7628 193f
00000290: 132a b441 3544 2441 d561 df41 adbd b841
000002a0: eea9 9d40 92e0 fc40 bdfe 0a41 5aad 9b41
000002b0: 4f52 b741 44ec 6841 8a0a ce41 6a97 db40
000002c0: ebca 8d41 dd09 be40 59ef 6e41 5218 8841
000002d0: 28a4 a141 f044 0341 9282 793f 13d3 0941
000002e0: 3ef3 df40 90ab ab41 3633 8d41 2c27 c03f
000002f0: ea56 4641 835d 5341 3208 a941 ef64 9641
00000300: 5229 9241 e72c d03e bafc b93f 49e8 0240
00000310: 2d14 7d41 a86b 2742 2792 6240 15aa 9841
00000320: b910 8941 9ae9 3a3f 599e 8b41 c4a9 3c41
00000330: 0400 0000 9576 b240 d45d 893f abbd 9141
00000340: d59e e241 9988 c33e 4fa6 3a41 2925 4840
00000350: ae54 f640 1c45 1742 4d2b 0242 53c1 0842
00000360: dc47 2a41 4054 ad41 beef 8741 f202 3841
00000370: 2f8d 6a3f 687e 3b3f 2b72 c341 8e36 ea41
00000380: 50a7 a941 194c 7441 5750 f540 696e 9541
00000390: 7642 9441 5d25 4542 05a9 7b41 4900 4c41
000003a0: 6e49 9341 74d9 183f e1ad 6941 fc24 0440
000003b0: 26ca 8a41 8b78 c440 f6c3 8242 5ddb 0940
000003c0: 6638 aa40 34b5 0541 736c 9c3d cf84 0a42
000003d0: 2ec1 1940 b815 b141 86b2 5441 0e80 2740
000003e0: 6964 e641 29f0 0342 5858 af40 1b3f 5b41
000003f0: 6ae5 9e41 f291 4d41 84d3 2641 2dc5 6d40

fc2.weight f4 [128, 256]
-0.1223739 0.09438767 0.6017226 0.06580385 0.1523586 -0.16704243 -0.0362535 0.05812791
0.18719473 0.111195385 -0.011697348 0.0063051637 0.11410273 0.13527788 -0.035758343 -0.3048653
0.10596977 0.15450157 0.07844897 -0.122866884 -0.016702933 -0.052249778 0.32726768 0.012141919
-0.538627 -0.015734484 0.122826025 -0.479879 0.25657544 -0.035857216 0.16527429 0.03376206
0.13952473 -0.13774776 -0.1671732 -0.15627101 0.031730983 -0.0035016781 0.004507096 -0.072290115
0.19638851 0.103750885 0.01878844 -0.1364607 0.09094999 -0.046431508 0.23722889 -0.018991036
0.20875038 0.2531394 -0.10628688 -0.18916184 -0.3871136 -0.059076846 -0.0065636095 0.06950105
-0.18304671 -0.2194492 -0.22460751 0.19687173 -0.05105098 0.14149535 -0.17249058 0.20733155
0.19088592 -0.2058914 -0.034743614 -0.008664324 -0.43200532 0.27327216 -0.124958076 0.12688302
-0.011093539 -0.2901257 0.12851052 0.05913043 0.045372553 0.09125317 -0.035418373 -0.23144673
0.13391227 -0.22501512 -0.021865694 -0.14055091 -0.09680306 0.19287723 -0.032818355 0.37987888
-0.08506968 0.033269435 0.066932864 0.14994092 -0.011402129 0.16555578 -0.40349254 -0.07590436
0.162967 0.00442336 0.11888646 0.051374402 0.011420326 -0.036394995 -0.058008928 -0.042094786
0.37396112 0.01696091 0.060883645 0.061487064 -0.42421064 -0.069693096 -0.27595875 -0.30720675
-0.1147714 0.010067458 0.0048879674 0.010370688 8.615476e-05 0.41612294 0.0812393 0.8013227
-0.11047816 0.22758214 0.29280582 -0.30940703 -0.055903103 0.17711839 -0.011661814 -0.18904155
0.561868 -0.05181286 -0.15292948 -0.33994648 -0.119687274 0.11323808 -0.15233576 -0.23441485
-0.60459995 0.0029244747 -0.2661368 0.11564541 0.09087079 -0.16878144 0.09217149 -0.03006461
-0.10009812 -0.0038496342 0.11465995 0.05950291 -0.080375105 -0.0024279524 -0.14869022 0.2818556
0.31558838 -0.06348253 0.026378967 -0.17174767 0.18143527 0.02106138 0.028318232 0.20654748
-0.1416146 -0.22526418 -0.11240669 0.30617356 -0.14402264 0.14081155 0.031309556 -0.25372514
0.21531187 -0.06349107 -0.048242092 -0.059153046 0.015869739 -0.03970064 0.061251093 -0.24640194
-0.12526557 0.0985996 0.30636412 0.062796615 -0.06791938 0.20554312 -0.0066294833 -0.22553547
0.36385405 -0.052784987 -0.009405648 0.5756362 -0.022131871 -0.06207572 0.06596245 0.0832537
0.012357736 -0.059587922 -0.3276831 -0.13706145 -0.32509702 0.06322937 0.09245859 0.18995054
-0.14376542 0.62447846 -0.18328188 0.5170129 -0.08275806 0.2904284 -0.1274294 -0.0070027513
0.25694695 -0.16998129 -0.065504715 0.49861416 -0.30634946 0.17727895 0.13458005 -0.06123794
0.10896362 0.03429493 0.045606256 0.21870811 0.11386319 0.29163218 0.012314007 0.14203502
0.059529122 0.06824893 0.09891022 0.05576341 0.09517849 0.012393712 -0.18167806 0.10828325
0.07166202 -0.19404766 -0.12664078 -0.038129367 -0.19381754 0.42976862 0.06760821 0.26591888
0.410142 -0.04420707 -0.004154168 0.09717545 0.118293904 -0.10259484 -0.14721747 0.08387504
0.10267348 -0.19574009 0.009409686 0.03978411 0.11017018 -0.10855686 0.14712411 -0.10864393
00000000: 2b9f fabd 534e c13d 7e0a 1a3f 2bc4 863d
00000010: e503 1c3e 2c0d 2bbe 8d7e 14bd 8817 6e3d
00000020: faaf 3f3e 68ba e33d 3ca6 3fbc 8c9b ce3b
00000030: b1ae e93d 4986 0a3e 5777 12bd 4e17 9cbe
00000040: ae06 d93d a935 1e3e dba9 a03d a2a1 fbbd
00000050: 97d4 88bc dd03 56bd a18f a73e e6ee 463c
00000060: 76e3 09bf 9be5 80bc 368c fb3d b3b2 f5be
00000070: db5d 833e 04df 12bd aa3d 293e 164a 0a3d
00000080: 92df 0e3e c00d 0dbe 742f 2bbe 8205 20be
00000090: 59f8 013d 697c 65bb 43b0 933b d70c 94bd
000000a0: 121a 493e 587b d43d 37ea 993c 5bbc 0bbe
000000b0: fd43 ba3d f72e 3ebd 21ec 723e 1793 9bbc
000000c0: a9c2 553e 7d9b 813e f0ac d9bd a4b3 41be
000000d0: c133 c6be 90fa 71bd 8c13 d7bb 9156 8e3d
000000e0: 9970 3bbe 4bb7 60be 83ff 65be be98 493e
000000f0: d51a 51bd 28e4 103e 5fa1 30be b94e 543e
00000100: 9977 433e 32d5 52be 524f 0ebd cff4 0dbc
00000110: cd2f ddbe 54ea 8b3e 05ea ffbd 9fed 013e
00000120: adc1 35bc 5b8b 94be 4398 033e c032 723d
00000130: 92d8 393d f1e2 ba3d db12 11bd 5f00 6dbe
00000140: 4c20 093e 5d6a 66be af1f b3bc 94ec 0fbe
00000150: af40 c6bd 9c81 453e 8a6c 06bd 7c7f c23e
00000160: 0339 aebd 8845 083d 1914 893d 1d8a 193e
00000170: ffcf 3abc 7487 293e 9396 cebe bf73 9bbd
00000180: d2e0 263e d5f1 903b bf7a f33d f76d 523d
00000190: 521c 3b3c eb12 15bd c59a 6dbd 956b 2cbd
000001a0: d577 bf3e 9bf1 8a3c 2161 793d dcd9 7b3d
000001b0: 2332 d9be 41bb 8ebd 774a 8dbe 344a 9dbe
000001c0: 450d ebbd fbf1 243c 3e2b a03b d1e9 293c
000001d0: fcad b438 110e d53e ca60 a63d 7c23 4d3f
000001e0: 6042 e2bd 4b0b 693e a5ea 953e 996a 9ebe
000001f0: a7fa 64bd 865e 353e 3111 3fbc 1c94 41be
00000200: 95d6 0f3f b939 54bd 8c99 1cbe 770d aebe
00000210: 9a1e f5bd 5ee9 e73d e8fd 1bbe 720a 70be
00000220: 10c7 1abf 8ba8 3f3b 1543 88be 80d7 ec3d
00000230: 771a ba3d 0bd5 2cbe 68c4 bc3d 0f4a f6bc
00000240: 3e00 cdbd 254a 7cbb d6d2 ea3d 53b9 733d
00000250: b49b a4bd 481e 1fbb 4042 18be 614f 903e
00000260: cd94 a13e 2103 82bd b418 d83c 9fde 2fbe
00000270: 2bca 393e ea88 ac3c a3fb e73c 2f81 533e
00000280: 6b03 11be a7ab 66be 7b35 e6bd c8c2 9c3e
00000290: ac7a 13be e730 103e 733e 003d 43e8 81be
000002a0: b77a 5c3e 9b07 82bd 8099 45bd 774a 72bd
000002b0: 4101 823c 239d 22bd 6de2 7a3d ca50 7cbe
000002c0: 9e45 00be 96ee c93d c2db 9c3e 839b 803d
000002d0: 5119 8bbd e579 523e 233c d9bb c5f2 66be
000002e0: 144b ba3e 1235 58bd 261a 1abc e55c 133f
000002f0: e64d b5bc 1c43 7ebd 5217 873d ea80 aa3d
00000300: 1a78 4a3c 7712 74bd 14c6 a7be d659 0cbe
00000310: 1e73 a6be 667e 813d ee5a bd3d 6582 423e
00000320: 3e37 13be d2dd 1f3f 3fae 3bbe f55a 043f
00000330: 0f7d a9bd 08b3 943e da7c 02be 5677 e5bb
00000340: 8d8e 833e 930f 2ebe 5627 86bd 5b4a ff3e
00000350: d6d9 9cbe 9d88 353e 5acf 093e a2d4 7abd
00000360: 5228 df3d d778 0c3d a0cd 3a3d 05f5 5f3e
00000370: 1b31 e93d d050 953e b0c0 493c a171 113e
00000380: cfd4 733d 18c6 8b3d 7191 ca3d 2c68 643d
00000390: f1ec c23d ff0e 4b3c d009 3abe 9cc3 dd3d
000003a0: 8ac3 923d 6eb4 46be 1fae 01be 8a2d 1cbd
000003b0: 1b78 46be a20a dc3e 2c76 8a3d 8526 883e
000003c0: 22fe d13e 7912 35bd b01f 88bb ec03 c73d
000003d0: 1344 f23d 3e1d d2bd 2dc0 16be adc6 ab3d
000003e0: 7946 d23d 1770 48be 152b 1a3c aaf4 223d
000003f0: e7a0 e13d 0f53 debd b4a7 163e b580 debd

fc2.bias f4 [128]
-0.020642487 -0.0067599923 -0.13478082 -0.34616476 0.015312034 -0.021648811 0.069456935 -0.10904564
-0.017417554 -0.1677575 -0.059926763 -0.18719481 -0.06503742 -0.05580425 -0.26012796 -0.1434528
-0.117217004 -0.1635997 0.1294896 -0.112458155 -0.0060461718 -0.118511386 -0.03288544 -0.14222106
0.045220643 -0.08610104 -0.22275475 -0.14267242 -0.13840114 0.06443796 -0.038767595 -0.164243
-0.01710673 0.004002186 -0.102433905 -0.17184576 -0.12630025 0.019875819 -0.21364602 -0.060779564
-0.13324828 0.13221464 -0.09197166 -0.28795114 -0.045883514 -0.057046898 -0.19947354 -0.20266247
-0.18908533 0.013535146 -0.08531975 -0.31424436 -0.16136181 -0.033774536 -0.076762386 -0.10628146
-0.11155642 -0.046108883 -0.06954644 0.0008398286 -0.05236083 0.015547519 -0.119250365 -0.29469222
0.09249841 -0.07342907 0.04096021 0.008816014 -0.27466896 0.017181162 0.13126218 -0.07120033
-0.12311617 0.05421452 -0.22433095 -0.2208908 -0.21092893 -0.062633514 -0.12093176 -0.0007975679
-0.19231082 -0.11602212 -0.09005176 -0.3684761 0.0048056114 -0.013562617 -0.12534092 0.062087353
-0.3780224 0.0029906894 -0.24856663 -0.15049966 -0.05297476 -0.25771144 -0.018199554 0.11091909
-0.2211264 0.066269636 -0.09058475 0.03162491 -0.08719968 -0.19073817 0.010689704 -0.050910577
0.027570946 -0.20320415 -0.18408297 -0.20289965 -0.015999023 0.19995995 0.022331707 -0.06736242
0.015068366 -0.18059361 -0.11303812 0.10452148 -0.19537917 -0.03468234 -0.118643105 0.10807645
0.07918039 -0.10208426 -0.05275639 -0.046104804 0.13000982 -0.071437225 -0.3102775 -0.0009771846
00000000: 6f1a a9bc ed82 ddbb fc03 0abe 823c b1be
00000010: 53df 7a3c d958 b1bc 703f 8e3d 5253 dfbd
00000020: 42af 8ebc 9fc8 2bbe c475 75bd ffaf 3fbe
00000030: 5732 85bd ff92 64bd 7e2f 85be 4ae5 12be
00000040: 780f f0bd ae86 27be ec98 043e 7650 e6bd
00000050: f71e c6bb 19b6 f2bd e2b2 06bd 66a2 11be
00000060: 4839 393d be55 b0bd d219 64be b818 12be
00000070: 07b9 0dbe 0df8 833d c5ca 1ebd 512f 28be
00000080: 6a23 8cbc c524 833b dec8 d1bd 56f8 2fbe
00000090: da54 01be 9dd2 a23c 06c6 5abe fef3 78bd
000000a0: 3d72 08be 4663 073e a35b bcbd 556e 93be
000000b0: 5af0 3bbd 02aa 69bd cb42 4cbe c086 4fbe
000000c0: 969f 41be 84c2 5d3c 1fbc aebd a3e4 a0be
000000d0: 083c 25be 2b57 0abd 9935 9dbd 18aa d9bd
000000e0: b177 e4bd abdc 3cbd 5d6e 8ebd f127 5c3a
000000f0: 4f78 56bd 05bb 7e3c 8939 f4bd e6e1 96be
00000100: ce6f bd3d fb61 96bd e5c5 273d 0b71 103c
00000110: 69a1 8cbe 82bf 8c3c 9869 063e 7bd1 91bd
00000120: 5524 fcbd 0b10 5e3d 03b7 65be 3331 62be
00000130: c1fd 57be 0046 80bd 12ab f7bd e013 51ba
00000140: 21ed 44be 019d edbd 0f6d b8bd e6a8 bcbe
00000150: 6478 9d3b bd35 5ebc 5f59 00be 4f4f 7e3d
00000160: 278c c1be 71ff 433b 4088 7ebe 951c 1abe
00000170: 10fc 58bd c1f2 83be 3b17 95bc 8c29 e33d
00000180: f66e 62be 60b8 873d 7f84 b9bd 1f89 013d
00000190: bf95 b2bd de50 43be de23 2f3c 9c87 50bd
000001a0: 77dc e13c c014 50be 3f80 3cbe edc4 4fbe
000001b0: 6210 83bc 4dc2 4c3e fcf0 b63c 4ff5 89bd
000001c0: 4fe1 763c 88ed 38be 8880 e7bd 5c0f d63d
000001d0: 7a11 48be 120f 0ebd 28fb f2bd 3057 dd3d
000001e0: 5429 a23d 8d11 d1bd 1617 58bd 64d8 3cbd
000001f0: 4b21 053e ae4d 92bd b1dc 9ebe e014 80ba
