checkpoint_actor.pth (torch_old, 47326 bytes, 6 tensors)

fc1.weight f4 [128, 24]
00000000: c570 af3d 621e 6e3d 922a 90bc 1fd8 81be
00000010: 0261 0c3d 2ce4 3c3e e338 b43b c878 b3be
00000020: ef45 953d bd89 53be c528 8a3d 5101 3dbe
00000030: 2709 5e3e 8854 673d f686 2fbc efd9 84be
00000040: b952 1ebd 2380 503d 703c 953d 26cc 84bb
00000050: eba6 be3e 4af1 093e 24c5 753d 01d0 bfbd
00000060: aa21 00be f91d 6f3e 7505 2bbd 5efc 6a3e
00000070: ebc7 3ebd e68f e03c 9b48 c33c 59a8 993e
00000080: fa64 9abd 30b1 e23e a754 e03c 9f2d aebd
00000090: c3ba 303c f6e4 31be f21e 55bc e2bd 04bd
000000a0: 5b3f f4bc f19a cb3d 408a 813d 7452 b0bd
000000b0: 90f0 d6bd 62bc 9cbd 53a1 29bd c348 03be
000000c0: 3c70 fbbc cdc7 ddbe a9a8 253e b6e1 8cbe
000000d0: 5be1 793c 4fd4 473e 2696 183d 319d 91be
000000e0: 5164 a63d 48c5 cdbe 2f80 1ebd c793 833e
000000f0: 85ce 03be a302 913e 9418 20be 8fd7 3b3e
00000100: 531c d83d 46a8 73be a586 5d3d 8b9e dc3d
00000110: 3a8b 97be abdf 3b3e fabf 273c 953d f63d
00000120: e689 9e3c 5e8e 9c3d 1587 ea3a 3904 d4bd
00000130: edd9 463e 98a4 85be 4063 36bd 5431 29be
00000140: abc5 c1bd e672 1abe 95d5 6c3d 5183 aabe
00000150: 6262 3d3e 3071 9dbd b3f6 2e3d 1868 61be
00000160: 90f4 8fbd bf72 54be ea48 13bd 1d40 69be
00000170: 0555 8bbd 704e 1b3e 397d ddbd 708e 8fbe
00000180: 05e7 7f3d 158d 1b3e a590 073d 7dda 90bd
00000190: c9db 023e 907f ea3d bff3 2f3d 4fc6 5dbb
000001a0: 1575 00be 2a5d 9b3d c4a3 e63c de0d c2bd
000001b0: 5fad 04bc fa32 023e 2589 6e3d ad46 31be
000001c0: e1a9 60bd b747 5839 07cb 6dbd 3520 13be
000001d0: 1f37 aabc 6aa6 2e3e 6742 dabb 1140 0cbe
000001e0: ba68 243d 0af2 23bf ee9d 2f3d a972 34be
000001f0: bc0e e83d 5d7a 21be 654d 9f3d 958a 2abe
00000200: 8c75 c83d b1ad 2ebf 2962 abbd 600d 49bd
00000210: d7a6 383e 875a 2bbe 4cfc c9bb ad7c 983d
00000220: 0bbf cbbc bf2b 22bf 28be f53d 238d 3e3e
00000230: 2075 3f3e b9ee 873d 89f6 163e 7df5 3f3e
00000240: 5358 af3e 1554 03bc e336 ee3b c5b8 bd3e
00000250: 7409 b3bd ca3d b63c b0e6 b2bd 73b5 d63e
00000260: db48 723e 5b15 21be c488 8fbc e5e0 0e3e
00000270: 235c a73c 73bb 83bd 2ca2 6c3c 9bb5 9c3d
00000280: 60eb 443e b5b2 063e 4554 cf3b e19c a33e
00000290: 4626 223d ace1 8fbd 536e fbbd 18e3 973e
000002a0: a026 f33c ba92 463e f1d4 533d 96ee e23d
000002b0: c1f7 863e 918f d33c de7c 323d 0512 0e3e
000002c0: 8409 80bd 9a2f 413e 4a3e 0f3e d5e0 07be
000002d0: 57e0 743e 5113 62bd 4089 a93d ff4d 85bd
000002e0: 7cf3 f1bd b330 e73c ec26 ed3d ffcc debd
000002f0: a731 0f3d c337 503c 8a06 423d b1f5 02be
00000300: 23e0 bb3d d283 353c 67fc 273d 4815 2c3e
00000310: 7b8c dbbd 606d 0bbe 42cb 17bd d1c8 d13d
00000320: c2eb bc3d ea74 76bd d476 3e3d 2801 49be
00000330: 47b3 453d a645 c9bd 9299 6f3d 5de5 d9bd
00000340: 6cac 003e 7341 593d ef5f 0cbe a2b5 b23c
00000350: 3668 403e 6e68 00bd 47ba 3dbe a78d ecbc
00000360: c2a3 d2bb f401 103f 6112 8dbd ed83 503d
00000370: f771 873e cf6f 663d 92fb 85bd 1b1f a93d
00000380: 40c9 583d abd4 013f 6a9a a0bc 2809 e33d
00000390: 16d9 db3e b850 b33d f9ca a03c f629 e33d
000003a0: 2134 a83d be77 de3e ee82 fc3c 7918 4cbd
000003b0: 0f29 9d3e d249 813e 666e a93d b960 103d
000003c0: 24fe 45bd ad25 843e 5bb9 543b e4cc c43d
000003d0: 205a 4b3e e7eb 353e b970 47bc ce9e 473d
000003e0: 93ef cbbc fb1f 883e a797 563d 46ec 7dbd
000003f0: f00b 233e 7cb4 cd3d 8eba adbc afb8 78bd
0.08566431 0.058134444 -0.017598424 -0.253602 0.0342722 0.18446416 0.0054999455 -0.35053086
0.072887294 -0.20658012 0.067460574 -0.18457533 0.21683179 0.0564771 -0.01071333 -0.2594752
-0.03865311 0.05090345 0.07286918 -0.0040526567 0.37236723 0.1347095 0.06000246 -0.093658455
-0.12512842 0.23351277 -0.04175325 0.22947833 -0.046577375 0.027412366 0.023838332 0.30011252
-0.07538791 0.44275808 0.027384115 -0.08504795 0.010786715 -0.17372498 -0.013007866 -0.03240765
-0.029815366 0.09941662 0.06325197 -0.08609477 -0.104951024 -0.07653119 -0.041413616 -0.12820725
-0.030693166 -0.43316498 0.1617762 -0.27515954 0.015251483 0.19514583 0.037252568 -0.2844024
0.081246026 -0.40189576 -0.038696464 0.25698683 -0.1287175 0.28322324 -0.15634376 0.18343948
0.105522774 -0.2379466 0.054083485 0.10772427 -0.2959841 0.18347041 0.010238642 0.120234646
0.019352864 0.07644342 0.0017893041 -0.10352368 0.1941907 -0.26102138 -0.044528246 -0.16522723
-0.0946153 -0.15082893 0.057820875 -0.3330331 0.18494561 -0.076876044 0.04271574 -0.22012365
-0.070290685 -0.20746897 -0.03595821 -0.22778364 -0.068033256 0.1516664 -0.108149 -0.2803836
0.062476177 0.15190537 0.03309693 -0.07072923 0.12779154 0.11450112 0.042957064 -0.0033840125
-0.12544663 0.07586129 0.028154261 -0.09475301 -0.0080979755 0.12714759 0.05823626 -0.17312117
-0.05484951 0.00020626081 -0.05805495 -0.14367755 -0.020778237 0.1705567 -0.006660748 -0.13696314
0.040138938 -0.640412 0.042875223 -0.17621864 0.11330935 -0.15769334 0.07778434 -0.16654427
0.09788045 -0.6823378 -0.08368332 -0.04908502 0.18032394 -0.16733752 -0.0061641093 0.07445655
-0.02487137 -0.63348 0.1199916 0.18608527 0.18697023 0.066373296 0.14742483 0.1874599
0.34247074 -0.008015652 0.0072697266 0.3705503 -0.087420374 0.02224626 -0.087354064 0.4193531
0.23660605 -0.15730803 -0.01752127 0.13952978 0.020429676 -0.064322375 0.014442962 0.07651826
0.19230413 0.13154109 0.0063271844 0.31955627 0.03958728 -0.07025465 -0.12276902 0.29665446
0.029681504 0.19391909 0.05171675 0.11080663 0.26360896 0.025825294 0.043576114 0.13874061
-0.06251815 0.18865815 0.13988605 -0.1326936 0.23913704 -0.055194203 0.082781315 -0.06509017
-0.11814019 0.028221464 0.115796894 -0.10878944 0.03495946 0.012708607 0.047369517 -0.12789036
0.0917361 0.011078792 0.041012194 0.16804993 -0.10720154 -0.13615942 -0.037059076 0.10243381
0.09224655 -0.06017009 0.046500042 -0.19629347 0.048266675 -0.098277375 0.058496065 -0.10639451
0.12565774 0.053040933 -0.13708471 0.021815125 0.18789753 -0.031349592 -0.1852809 -0.028876139
-0.006428213 0.5625298 -0.06888271 0.050907064 0.26454136 0.056258973 -0.06542124 0.08257886
0.052926302 0.5071513 -0.01960488 0.11085731 0.4293906 0.0875563 0.019628035 0.11091988
0.08213068 0.4345073 0.03082415 -0.049828026 0.30695388 0.25251633 0.0827301 0.035248492
-0.04833807 0.25809994 0.0032459113 0.09609392 0.19858599 0.17765771 -0.012172871 0.048735432
-0.024894511 0.265869 0.05239072 -0.061992906 0.15922523 0.1004419 -0.02120712 -0.060723003

fc1.bias f4 [128]
00000000: fb6a 943e 9376 003d 78a1 03be 91e2 623e
00000010: 5e89 8d3e 85cc 283d 9c89 2f3d 3419 0abd
00000020: 82d4 383e 4c09 adbd 7535 513e 73c8 173e
00000030: 1668 2a3e 5e9f 0c3e 841f 343e 2862 3f3e
00000040: ba4e 4a3e 7b51 7a3c 1133 67be 0785 e13c
00000050: f501 a43e 3306 413e a31e 5b3e bf32 05bd
00000060: 5cc9 98be 5a1c da3e ad51 bbbd 881e 243e
00000070: 6a07 28be eaa0 073e e535 4f3d 7907 cdbc
00000080: cb5d 8abd 8cef 14be c771 8dbe 9212 213e
00000090: eb8d cb3d 3118 9dbd fbb1 47bd 8df1 91bd
000000a0: df96 b13e b8d1 203e 1631 af3d 849c b63d
000000b0: 0267 113e 0210 c3be 957e a1bd 215f 43be
000000c0: d014 74be ff29 09be ec4c 613d 2ff2 513d
000000d0: ba5b b83e 7c63 a6bd 6f01 19be 9f65 9e3e
000000e0: 4168 87be 024a 4b3e 838a 623e 29f9 64be
000000f0: fa0b 1e3e 125e f83d 55ae 8c3e 48b4 fdbc
00000100: c500 21be 93d8 213d 2c1f 333e de15 12bd
00000110: d8a8 49be 69d6 923b 1ded 30be 2d0e b2bd
00000120: 0c95 653d e7eb 03be 4ca8 a73d 9a49 1fbd
00000130: f9ae c23d ed05 1fbe 08bf 76be 6010 14be
00000140: bc67 4bbd 2aa5 b03c 269a 753e 22e9 c1bd
00000150: 938d 693e 2647 dabd 48fb d33d 1825 ca3d
00000160: 0b8a 023e 2ac7 6fbe 71a3 3c3d 432a 373e
00000170: 1e67 1ebe 53ce cc3e df9e c7be b2a2 7fbd
00000180: 76a4 293e a45b 73be a5bd 63bd ea5d 313e
00000190: 3564 ee3d 426f 0739 8d30 873e e024 e23c
000001a0: 553a 35bb 126c 4d3d c41f 593e 4a8b e33d
000001b0: 021c b1bc 6a4a a3be 21a0 613e d223 f9bd
000001c0: 8bbb 0ebc 3b34 72bc 5442 123e f889 ffbd
000001d0: ef9b 603e e1d9 b53d 924d 23be af6f 1ebe
000001e0: 3873 303d d1af 8d3e 28db 80be fc04 6dbe
000001f0: 2579 a1be 24d9 bcbe 1d12 323e 6c15 dbbd
0.2898787 0.03136308 -0.12854564 0.2215674 0.27643865 0.04121067 0.042855844 -0.03371544
0.18049815 -0.08449039 0.20430548 0.14822559 0.16641268 0.13732669 0.17590147 0.18689787
0.19756594 0.0152782155 -0.22578074 0.027529253 0.32032743 0.18850021 0.21398406 -0.0325191
-0.29841125 0.42599756 -0.09146438 0.16027272 -0.16409078 0.13244978 0.050588507 -0.025027977
-0.06756171 -0.14544505 -0.27625868 0.1572974 0.09939178 -0.0767063 -0.04875372 -0.0712615
0.34685418 0.15705001 0.08554284 0.08916572 0.1419945 -0.3809815 -0.07885472 -0.19079258
-0.23836064 -0.13394926 0.055005 0.051256355 0.36007482 -0.08124444 -0.14941953 0.30936906
-0.26446727 0.1985245 0.2212315 -0.22360672 0.15434256 0.121273175 0.27476755 -0.030969754
-0.1572295 0.039513182 0.1749236 -0.035665385 -0.19693315 0.004481126 -0.17277952 -0.0869411
0.056050345 -0.12882958 0.08186397 -0.03888855 0.0950603 -0.15529604 -0.2409631 -0.14459372
-0.049659476 0.021563131 0.23984584 -0.09468295 0.22807913 -0.10658102 0.103506625 0.09870356
0.12747972 -0.23415819 0.046054307 0.17887215 -0.15469024 0.40001163 -0.38988397 -0.062411018
0.16566643 -0.23765427 -0.05560078 0.17320982 0.11640207 0.0001291605 0.2640423 0.027605474
-0.0027653177 0.050151892 0.21203524 0.11110552 -0.0216198 -0.3189271 0.2203374 -0.12165035
-0.008711706 -0.0147829605 0.14283115 -0.12477487 0.21934484 0.08879448 -0.1594756 -0.15472291
0.04307863 0.276732 -0.25167203 -0.23146433 -0.31537738 -0.36884415 0.17389722 -0.10697445

fc2.weight f4 [64, 128]
00000000: 0740 0e3e 0bf7 dcbd 0de7 3c3e 7066 b73d
00000010: c58c cbba e67a 183e 9fdd e6be 8530 9bbd
00000020: 97b9 47be 986e 6b3d cdc2 5cbd bb9a dbbc
00000030: dfc7 18bd 2428 943b c8a5 8fbd 57b2 c6bc
00000040: a866 01be fb25 71be 8f75 0e3e fddb d43c
00000050: 8f66 f0bc 59ae 34bd 51e0 1c3e d651 d33d
00000060: b0ec d33d ad67 84be c20b 153e fe88 7f3c
00000070: b2ef 56be 1178 84bd 7028 813d a4ad e9bd
00000080: c124 a4be 561f d53c fc21 1f3e 5c2d 483e
00000090: 588a 2bbe 0b1e 1f3d 6edf 973d d8fe 8e3e
000000a0: c8cc 95bd ff49 363e 95f5 16be 76f5 133e
000000b0: 0947 503e 8e5c b0bb fa1a 773d 5354 1ebc
000000c0: 03ab 4dbe 9ac3 223d 02aa 0a3d b9af fabd
000000d0: f0d5 a6bd 0a21 503d 3234 a03d c993 01bd
000000e0: e497 3b3d 920b 033d 8d6e 29bd 0f5f 113e
000000f0: d7a5 8f3d 0c8b 86be 9b40 743d 043d 06be
00000100: 97e9 3e3d 9756 66bd 27ca ff3c 1abc a2bd
00000110: a8b7 2739 6f83 f23d 67e9 dfbd b6cf a43d
00000120: 20b9 6f3e c8c4 293e 67ca d13d 77ca 4b3d
00000130: 59eb cebd 90a2 c2bd 5b45 0f3e 291d a0be
00000140: 5699 133c f4fa 983d 49cb 1dbe d594 003e
00000150: 444f 353e 7859 cebd 466b c1bd 1ff9 44be
00000160: e8df 88be fa3e 3ebd 29e9 b83e f7b6 f7bd
00000170: 5e7b 843d 9147 8dbb aa20 d73d 8790 933d
00000180: 36b6 013e 00c4 ac3e 5dce a03d 1b8f 63bd
00000190: e44f b33d a3bb d5be d401 ef3d 7a9a e3bc
000001a0: 6eed e4bc 26d1 9ebd d30a e6be cdf9 303c
000001b0: 5776 053e 261c 843e 15be 20bc 52a7 363e
000001c0: 7ebb c23d 80de a9bd 0f84 c13d 523e fc3d
000001d0: ef0b b43d 9e8c bdbd ee3c 8c3e 87b2 f0bc
000001e0: 1da9 1c3e fe59 e23c bd36 d53d 0805 babf
000001f0: 5ac9 ee3c 876d 7f3c 7990 aebd 8a56 04be
00000200: 290e 5bbd 9e1e ed3c 7bcb bc3d 5135 14be
00000210: 8d4b e6bd 0020 2c3d c424 033b e5ee 28be
00000220: 2387 12be 8dae c33c d529 a53d 07b3 c63e
00000230: 1161 66be c477 813e 82cf 993e f676 5ebd
00000240: 2e26 013e baec dfba 2ed3 b0bd 52bb 893b
00000250: 0b9e 113c e275 4bbd ed15 63be 8d38 2b3d
00000260: 7c8d 71bd 3d76 4cbe 2467 28be 41b6 d33c
00000270: de99 ef3d 24dd 1e3d 029c b63c 1e8a a13d
00000280: 969b 19bd a17a 163d c721 aebd 6c46 7bbe
00000290: 7e6a 44bd 2f91 5f3e 326a 013d ef7e 18be
000002a0: f591 4bbd a995 84bd 75be ee3c e10a 34be
000002b0: 7a42 373d ab43 0a3e 4442 14bd eb27 bc3c
000002c0: f4d7 a0bd 0ea9 ef3d 2086 c23c 8924 dbbc
000002d0: ce4b 023e 0288 193d 0787 10be 75a2 c13d
000002e0: cf2a 00bd bf80 e2bd 86fe 9d3d 2ae3 aabd
000002f0: 35ed 75bc 26af 7e3d 8fff 703d 8bb1 5b3d
00000300: 9b0f a43d c2cb 1b3e 8637 c2bd 0247 02be
00000310: befe f13d 1e20 a03e bb66 5fbe 02b0 d5bd
00000320: 4722 8f3c e2fa 783e cab4 cabc 6365 90be
00000330: 8376 e13d de40 dfbc ccca 9c3d 2672 bcbc
00000340: d7ff ab3b 1571 3bbd 67dc ca3d 280d a2bd
00000350: d4b6 013e fabc 8a3d 66ee 8e3d a3b6 523e
00000360: 4f1f 413e df84 853e e625 8e3d eea4 543e
00000370: 99de adbd 25b2 1a3e 560f 103d 295f c53d
00000380: 0b47 a93d 23da 24bd c2ca ae3d fb91 673d
00000390: 4bd1 8c3d ef45 c83e 01e7 72be 5081 bdbd
000003a0: cd9f 1a3e 04ef d03c 6ee2 413e e225 943d
000003b0: a744 3c3e 833a cc3d aa2e 863d 6bc6 993d
000003c0: c146 343d 56a9 443e 180a c63d da8f 193e
000003d0: 3707 29be 2c64 233e 88b5 b4bc 4dab 823e
000003e0: 4ee7 513d ec87 b63c 0e03 de3c a4de 213e
000003f0: 6c21 b5bc b39a 2b3e 8374 b7bd 07de a93c
0.13891612 -0.10789307 0.18447514 0.08955085 -0.0015529623 0.14890632 -0.45090958 -0.07577614
-0.1950439 0.057478517 -0.053896714 -0.02680718 -0.037299987 0.0045213867 -0.07014042 -0.024254961
-0.12636817 -0.23549645 0.13912033 0.025983805 -0.029345779 -0.044111583 0.15319945 0.10318343
0.10347879 -0.25860348 0.14555266 0.015596626 -0.20989874 -0.06468213 0.06306541 -0.114100724
-0.3205929 0.026015919 0.15540308 0.19548553 -0.16751993 0.03884701 0.07415663 0.27928805
-0.073144495 0.17801665 -0.1474212 0.14449105 0.20339598 -0.005382127 0.06032846 -0.009663659
-0.20084767 0.03973732 0.03385354 -0.12240548 -0.08146274 0.05081276 0.078224555 -0.03163508
0.04579915 0.031993456 -0.041365195 0.14196418 0.07014053 -0.2627796 0.059631925 -0.13109213
0.046609487 -0.056234922 0.031224323 -0.07946034 0.00015994778 0.11841475 -0.1093319 0.0804743
0.23410463 0.16578972 0.10243683 0.049753632 -0.10103483 -0.095036626 0.13991301 -0.31272247
0.009008726 0.074697405 -0.15409578 0.12556775 0.17706019 -0.100756586 -0.09444289 -0.19235657
-0.26733327 -0.046446778 0.36115387 -0.12095445 0.06468843 -0.00431151 0.10504277 0.07205301
0.12667164 0.33743286 0.07851861 -0.055556398 0.08755472 -0.41744718 0.116702706 -0.027783621
-0.027945247 -0.07754736 -0.44930133 0.010801745 0.13033424 0.25802726 -0.009810944 0.17837265
0.095084175 -0.08294392 0.09449016 0.12316574 0.08791339 -0.09255336 0.27390236 -0.029382003
0.15298887 0.027630802 0.10410831 -1.4532785 0.029148746 0.015590078 -0.0852365 -0.12923637
-0.0534803 0.028945263 0.09218498 -0.14473464 -0.11244879 0.042022705 0.0020010928 -0.16497381
-0.14309363 0.023886943 0.080646195 0.38808462 -0.22497965 0.25286686 0.30041128 -0.05431267
0.1261222 -0.00170841 -0.08634029 0.0042032385 0.008887778 -0.04967297 -0.22176333 0.041801978
-0.05897282 -0.1996698 -0.16445595 0.025843741 0.1169927 0.038785115 0.022291187 0.07887672
-0.037501894 0.03673804 -0.08502536 -0.24538583 -0.04795312 0.21832727 0.031595416 -0.14892171
-0.049699742 -0.06473858 0.029143551 -0.17582275 0.04474113 0.13502376 -0.03619601 0.022968253
-0.0785369 0.117021665 0.023745596 -0.02675082 0.1272423 0.037483223 -0.14114009 0.09454814
-0.031290825 -0.110597126 0.07714562 -0.08344109 -0.015010168 0.062178753 0.05883747 0.053636115
0.08010789 0.15214446 -0.094832465 -0.127224 0.11816166 0.31274503 -0.21816532 -0.104339615
0.0174724 0.24314454 -0.02474441 -0.28202352 0.110089324 -0.02725261 0.07655868 -0.023003649
0.0052490043 -0.04576214 0.0990532 -0.079126656 0.126674 0.06774326 0.06979065 0.20577483
0.188596 0.26077935 0.06940822 0.2076604 -0.08489723 0.15107019 0.035170875 0.09637291
0.082655035 -0.040247094 0.08534767 0.056535702 0.06875857 0.39115855 -0.23720933 -0.0925318
0.15100022 0.025504597 0.18934032 0.07233788 0.18385564 0.09972098 0.06551869 0.07508548
0.04401279 0.19205222 0.09669894 0.14996281 -0.16506658 0.15956181 -0.022059217 0.25521317
0.05124598 0.02228161 0.027101066 0.15807587 -0.022110663 0.16758232 -0.0895777 0.020735754

fc2.bias f4 [64]
00000000: 5de7 b5bd cf11 f53c 07e4 a83d a4ec 183e
00000010: 125d c43d 09d8 173e 4900 b7bd d426 fb3d
00000020: a8b1 4cbe f81f 1dbe b1ab 8fbe 1b69 423e
00000030: 684e cbbd 4120 c83d c38a 0dbe 06f5 4f3c
00000040: e9e3 403d 524b e6bd c035 eabd e9eb 623c
00000050: 2981 9fbc 379c 253e 4c97 de3d c098 703e
00000060: dbee 143c c587 b4bd 1dcf 653e f0e7 42be
00000070: 7dbc 1c3e 45ed 61be 6f0a 853d b89f 02be
00000080: 4bb2 043e ae9f 84bd 5764 e2bd cfa7 19be
00000090: 07ec 37be 5b2c fe3d 5f48 cabd 7f27 e6bd
000000a0: cf40 13be 53f2 913d 7e2b a83a adf1 923d
000000b0: 273e f139 ed1f 9ebd 4ffd 663e d903 2abd
000000c0: 80d4 dfbc c479 3abc 9f6f c43d 4c06 00bc
000000d0: 0e2d 78bd c4c0 96bc 7c15 c4bd adab 0dbe
000000e0: 9e1e 2d3e ffd6 033e 0c9d 9a3d a77a 2bbd
000000f0: 53ea 47be 06e0 c13d f1c7 223d a219 c9bc
-0.0888202 0.029915718 0.08246618 0.14934021 0.09588064 0.14828505 -0.08935601 0.12263265
-0.19989645 -0.15344226 -0.28060678 0.18985407 -0.09927064 0.09771777 -0.13822465 0.0126926955
0.047092352 -0.11244835 -0.11436033 0.013850191 -0.019470768 0.16172872 0.10868701 0.2349577
0.009090151 -0.088149585 0.22442289 -0.1903379 0.15306278 -0.22063167 0.06496131 -0.1275624
0.12958638 -0.06475769 -0.110542946 -0.1500542 -0.17961131 0.12410804 -0.09877085 -0.11238002
-0.14380191 0.07126298 0.0012830344 0.07175002 0.0004601341 -0.07720933 0.22557567 -0.041507576
-0.027323008 -0.01138157 0.095916025 -0.007814001 -0.060589842 -0.018402465 -0.0957441 -0.1383502
0.16906211 0.12874983 0.075494856 -0.041865017 -0.19522981 0.09466557 0.03974146 -0.024548355

fc3.weight f4 [2, 64]
00000000: 66e4 833e b27d 44bd 159f 93bd 921b d1bc
00000010: 324c 90bd 006f 69be ee9a 633c 6cba b2bd
00000020: c990 6d3e bd59 db3e 9654 463f 952d acbd
00000030: 4813 343f 7ee3 8c3c a6f6 38bd 31e5 1cbe
00000040: 0654 933e 62b4 513e 2a95 b93d 7382 c23d
00000050: 1852 c63e c1fb 28be bfa6 a9bd 3370 84bd
00000060: f3d8 02be d90f d63d c823 d3bc 9afc 143c
00000070: 5a2c aebd 7a6c 1a3e 3682 aebd c0eb be3c
00000080: e986 babd 3654 6c3e 2dc8 133d a250 943e
00000090: 053d 523e 23d6 6dbd e849 be3e 783b 993f
000000a0: 985c 4a3d e07d 80bd d798 d53e 16f1 ea3e
000000b0: f418 193c 127c f33d 3e12 3cbd 8ef2 c13d
000000c0: 2939 333d d846 7b3d be3f e4bd a96d 37bd
000000d0: e1d8 083e 1993 963f de76 013f ab00 b83c
000000e0: 8027 14bd ffd9 903d 3d2c 99bd ea16 db3f
000000f0: 50f5 4c3e 3024 503d 49cd 7a3b 2b5a 0b3d
00000100: 9105 093d e2a6 a4bd 66af ca3d 940d dfbd
00000110: 3cc1 30be f8df c83d 0556 683e 8843 cdbc
00000120: 9d19 a1bd bfe9 a83d b385 07bf 3ef4 e83d
00000130: 0555 bebe 3b19 ad3e d061 c7be 1313 ec3e
00000140: f27d fe3d 821f 10bf 1f51 09bf c8ce e93e
00000150: 2ba0 a0be 7763 c0bc 44c2 cb3d 5b33 02be
00000160: 8d3b 44be d9e4 ffbe 6609 203f d742 85be
00000170: 0451 51bd ceb0 44bf ffa5 9f3d a212 f83c
00000180: 7712 debd 15ba ac3e 79c2 b9be ce0a aabe
00000190: 4505 703d a8ba 393e 2de1 b5bd 3636 edbd
000001a0: 1bc9 cd3d f88a 19bd 482d 15bf 74cc 563e
000001b0: 50a0 8a3d 0baf 35be 677e 063f c7ce 87bd
000001c0: a604 e23d 7a56 9a3c 6372 e1bd ea64 a5be
000001d0: 6ef6 7dbe 9e35 9cbf 8e38 e4bd 81c9 37bf
000001e0: dfd3 6c3f 7830 c93e acc4 e1bd df64 31bf
000001f0: 8bcd 533f 0cba c3bf ef8a cb3e f3af e23e
0.25760192 -0.047971435 -0.07208077 -0.025525842 -0.07045783 -0.2279625 0.013891919 -0.087269634
0.23199762 0.42841902 0.7747282 -0.084071316 0.7034192 0.01719832 -0.045157097 -0.15321805
0.28775042 0.20478967 0.09061654 0.094975375 0.38734508 -0.16502286 -0.082837574 -0.06466713
-0.12778072 0.104522415 -0.025773898 0.009093428 -0.08504553 0.15080443 -0.085209295 0.023305774
-0.09107763 0.23078999 0.036079574 0.28967768 0.2053109 -0.058065545 0.3716576 1.1971273
0.04940471 -0.06274009 0.4171817 0.4588706 0.009344328 0.11888899 -0.045915835 0.09470092
0.043755684 0.06134686 -0.1114497 -0.044782314 0.13363983 1.1763641 0.50572 0.022461256
-0.036170483 0.070728295 -0.07479141 1.7116368 0.20015454 0.05081576 0.0038269332 0.034021538
0.033452574 -0.08039643 0.09896736 -0.10891262 -0.17261213 0.09808344 0.22689064 -0.025056615
-0.078662135 0.082477085 -0.52938384 0.113747105 -0.3717424 0.33808312 -0.38941813 0.46108302
0.12426366 -0.5629808 -0.53639406 0.45665574 -0.31372198 -0.023484929 0.099491626 -0.12714903
-0.19163342 -0.49979284 0.6251434 -0.26027557 -0.051102653 -0.7683228 0.07795333 0.030282322
-0.10843366 0.3373572 -0.36281183 -0.33211368 0.058598775 0.1813761 -0.088808395 -0.115826055
0.100481234 -0.037486047 -0.5827222 0.2097643 0.067688584 -0.17742555 0.52536625 -0.066312365
0.11036043 0.018840063 -0.11008146 -0.32303554 -0.24801037 -1.2203863 -0.111435995 -0.71791846
0.9251079 0.3929479 -0.1102384 -0.6929454 0.8273551 -1.5291152 0.39754435 0.44274864

fc3.bias f4 [2]
00000000: 0bdd d43a 3d88 16bd
0.0016240192 -0.03675102
