checkpoint_actor_0.pth (torch_old, 163777 bytes, 10 tensors)

fc1.weight f4 [256, 24]
000000 7c e3 3e 3d b7 67 3c be 30 9c 9e bc b6 1e 06 bf
       0.046603665 -0.18398939 -0.019361585 -0.5239061
000010 5c 24 85 bd 18 f5 83 3b fe 76 f8 bd 16 f4 e5 be
       -0.065010756 0.00402702 -0.12132071 -0.44912785
000020 2d 33 c6 3d e8 07 56 be 26 64 5f bc 93 0b a3 bc
       0.0967773 -0.20901453 -0.013634717 -0.01990298
000030 b6 56 82 be da 44 04 3e 50 fa 8d bc fa 32 86 bd
       -0.2545678 0.1291689 -0.017331272 -0.06552692
000040 b9 48 b2 3d 13 dc a5 be a5 75 c0 bc 86 69 98 be
       0.08705277 -0.32394466 -0.023493597 -0.29768008
000050 52 a6 b6 be cc 2e 88 3e 22 b0 44 3d 8c f1 7e be
       -0.35673767 0.26598203 0.048019536 -0.2489683
000060 c3 5c cc 3d 09 86 ea bd 93 21 87 bd 5b ca 9c bd
       0.099786304 -0.114513464 -0.06598201 -0.07655784
000070 a6 dd 0c 3f 52 68 0d bf 69 c8 af bc 19 6c 07 be
       0.5502571 -0.55237305 -0.021457868 -0.1322483
000080 63 84 04 3e 0b 33 98 bd 8e cf fc 3c fe 32 30 bd
       0.12941127 -0.07431611 0.030860689 -0.04301738
000090 e0 8b c5 3e bf 44 9b bd fd 0b 7c 3c 08 1d 73 bc
       0.3858328 -0.07581472 0.015383718 -0.014838465
0000a0 22 66 45 3e 27 49 02 be bb 28 ad 3d 2b f2 e0 3d
       0.19277242 -0.12723218 0.08455034 0.1098369
0000b0 79 4e 24 3e 34 6c d8 3e 4e 4f c7 bc 00 ce ee 3d
       0.1604556 0.42270052 -0.024329808 0.11660385
0000c0 6e 9b 8e 3d 1d 5c 31 3e c4 54 22 3d 49 f0 98 be
       0.069632396 0.17320295 0.03963162 -0.29870823
0000d0 79 c9 6d bd 91 9c c4 be 88 30 0c 3d 5b 7a 8a be
       -0.058053467 -0.384007 0.03422597 -0.27046475
0000e0 63 ec 31 3e fe 29 1e 3e d7 8c 1a 3d 6a fb bb be
       0.1737533 0.15445706 0.03773197 -0.3671525
0000f0 c9 41 b1 bd 4e 4e c9 be 33 07 ac 3d a7 6b cd be
       -0.08655126 -0.39317554 0.08399811 -0.40121195
000100 b7 f8 69 3e 68 3f db 3b 45 f7 b0 bc 9b 3b 6a be
       0.22848783 0.006690908 -0.021602282 -0.228743
000110 43 30 a0 3b e8 a0 b5 be 86 0e 1a 3d 4a ad 7f be
       0.0048885657 -0.35474324 0.037611507 -0.24968448
000120 50 d6 29 be 09 46 8c 3d 49 26 4f bd 82 8b c4 3d
       -0.1658566 0.06849296 -0.05057362 0.095969215
000130 13 7f 41 be 69 a0 d7 be 66 7e 2c bb e0 3c ba bb
       -0.18896131 -0.4211457 -0.0026320457 -0.0056835264
000140 81 56 65 bd 4b 69 69 3d c4 4a 72 3d c3 30 5a 3d
       -0.0559907 0.05698518 0.059153333 0.05326916
000150 64 74 a1 bd 62 aa 24 bf 03 14 45 3d cb a6 4f 3d
       -0.07883528 -0.64322484 0.048114788 0.050696176
000160 e3 45 9c bd 92 67 bc 3c 44 6f d4 bc 38 a8 3e bd
       -0.07630517 0.022998605 -0.025931962 -0.046547145
000170 75 32 50 3d ac 27 7e bf 08 68 04 bd 6b 78 96 3c
       0.05082937 -0.99279284 -0.032325774 0.018367967
000180 cf fc 5b 3d 60 e6 9c 3e 2e 22 d2 bd fd ab 16 be
       0.053707894 0.30644512 -0.102604255 -0.14714046
000190 9a e9 83 3d 0a c0 b0 be f2 5a 22 3c 50 ac f2 bd
       0.0644104 -0.34521514 0.009909378 -0.11849272
0001a0 4e 92 cd bd 2f d4 1b 3e df be aa bd 11 f5 9b bc
       -0.10037671 0.1521766 -0.08337187 -0.019037755
0001b0 3f bd 54 3e c4 5c b5 bd 10 f9 cd bd 87 64 cc bd
       0.20775317 -0.08855584 -0.100572705 -0.099801116
0001c0 5d ba 29 bd 2e 69 ef 3d 32 1c 0e be 12 23 cd be
       -0.041437495 0.11689983 -0.13877943 -0.4006582
0001d0 bf 15 01 3e 92 6b 8c 3d 72 46 11 be 08 35 db be
       0.12605952 0.06856455 -0.14187029 -0.42813897
0001e0 c8 b7 10 3d 8c aa 6f 3e e9 fa 75 bd 9e 1d 57 bd
       0.035331517 0.23404902 -0.06005374 -0.05251848
0001f0 28 d4 37 be ad 8e f2 be 0f e1 64 3b 5e c3 e2 bb
       -0.17952025 -0.47374478 0.0034924184 -0.0069202622
000200 03 08 37 3e 5a 62 6d 3e ae e7 1f 3a e7 5b 5f bc
       0.1787415 0.2318205 0.00060998916 -0.013632751
000210 8b d7 89 be da 7a 0a bf 6b 8c 96 bb ae 38 d7 bb
       -0.2692226 -0.54093707 -0.004594376 -0.006568036
000220 8b 3c 9e 3e e4 df 06 3e 47 68 8f bd 36 e7 c8 bd
       0.30905566 0.13171345 -0.07002311 -0.09809725
000230 a4 af c0 be cf c2 0b bf 88 d2 45 3c 17 8b d2 bd
       -0.37634003 -0.5459413 0.01207412 -0.102804355
000240 c5 29 02 3d 41 99 37 3e 64 0f 04 bd ce ce 3e 3d
       0.031778116 0.17929555 -0.03224124 0.046583943
000250 b4 c1 4c be c2 0e d5 be 1f e0 1e bd a5 63 c5 ba
       -0.19995767 -0.41612822 -0.038787957 -0.0015059604
000260 47 f2 42 3d 0f cc 5b 3e 27 66 a6 bd 32 c7 d8 bc
       0.047594335 0.21464561 -0.08124953 -0.026462171
000270 0f 7e 0c be 73 b4 3b bf 1f 14 b6 bc 68 fb 5c 3d
       -0.13719963 -0.7332222 -0.022226391 0.053950697
000280 8d 9f d6 3d 01 37 a1 3d 85 c4 f0 3d b1 41 aa be
       0.10479651 0.07871819 0.11756233 -0.33253244
000290 4a e4 88 3c 11 a9 3c bf 90 1a 05 3e f5 e4 cf be
       0.01671042 -0.73695475 0.12998414 -0.40604368
0002a0 bc 32 7f 3d 82 a8 f6 3d 16 f9 23 3c ab c0 8d 3d
       0.062304243 0.12043859 0.010008117 0.06921514
0002b0 de 34 fd 3e 12 33 8e be f0 5d de 3c 91 82 c0 3c
       0.49454397 -0.2777334 0.027144402 0.023499759
0002c0 d0 f7 b3 3d 5e ce 87 3c 69 d7 1e bc da a2 40 3d
       0.08787501 0.016577896 -0.0096949125 0.047030307
0002d0 fd b9 61 3f c7 1e 09 be 2a 71 8a bc 0f 7c 35 3c
       0.8817442 -0.13390647 -0.016899664 0.011076941
0002e0 47 a9 ef 3d cb 19 12 3d 3f 65 a3 bc 18 16 d1 3d
       0.11702209 0.03566913 -0.019945739 0.10209292
0002f0 5f fa 57 3f c1 b4 3f 3c f8 00 4e 3c 57 43 08 3e
       0.8436641 0.01170081 0.012573473 0.13306938
000300 24 e0 17 3f 90 11 a6 3e 39 27 6f 3d 53 cf 37 3e
       0.59326386 0.32435274 0.058387015 0.17950182
000310 64 74 14 be ec 7d d8 be a5 38 83 bd b1 ba 35 3e
       -0.14497524 -0.4228357 -0.064072885 0.17746998
000320 2e 53 07 3f c0 ee 8f 3e f4 8c 73 3c 0a 45 c3 3c
       0.528613 0.2811184 0.014865149 0.023836631
000330 21 80 fd bd d8 64 ab be 5d c0 c5 bb 25 fe 99 3c
       -0.12377954 -0.33475375 -0.0060348944 0.018797943
000340 e6 9c 00 3e 35 9f 84 3d 56 7c b4 bc 76 2e 1b 3d
       0.12559852 0.06475679 -0.022031944 0.037886105
000350 a4 f3 b4 bd 23 ec 1c 3c 12 95 6c bd cf b5 ac 3d
       -0.08835533 0.009577784 -0.057759352 0.08433115
000360 56 78 0d 3e 4d ae 0f 3d 1e 14 1e 3d 88 68 2d 3d
       0.13815436 0.035078336 0.038593404 0.042336017
000370 b4 89 f2 3a 82 c1 e2 bd 86 69 4f bd 77 3c 41 3b
       0.0018504173 -0.11072065 -0.050637744 0.0029485503
000380 26 03 3f 3e 19 4e e0 3d ab b4 68 bc 2e 59 4c ba
       0.18653545 0.10952396 -0.014203231 -0.0007795271
000390 a6 d0 81 bd f1 9e 10 be c9 42 5c bb 9d 99 78 3c
       -0.06338625 -0.14123131 -0.0033609143 0.015173343
0003a0 b1 a9 01 3e 06 8a eb 3d 98 90 4c 3d e6 76 14 bd
       0.12662388 0.11500935 0.049942583 -0.036246203
0003b0 84 61 a2 3c 75 66 93 bd 57 0e 80 bd 93 ec 01 3d
       0.01982189 -0.071972765 -0.06252735 0.031719755
0003c0 10 7c 8f 3e bd 42 1d 3e 00 f8 aa 3c d8 53 c1 3d
       0.2802434 0.1535749 0.020870209 0.0943982
0003d0 f2 a0 30 be b9 8e b1 be 78 19 88 3b d1 79 6a 3d
       -0.17248896 -0.346792 0.0041534267 0.05724508
0003e0 a2 cd c5 3e 39 a9 11 3e d7 6b 72 bb ef 5e 49 3d
       0.38633448 0.1422471 -0.0036990547 0.0491628
0003f0 f3 8e dc be d5 bb 02 be 12 d3 bd 3c 6b fe c4 3d
       -0.43077812 -0.12766965 0.023171935 0.09618839

fc1.bias f4 [256]
000000 fd 1d 83 3d ca 30 92 be d8 8f 8b be e9 57 a2 3c
       0.06402204 -0.28552848 -0.27258182 0.01981731
000010 25 19 8d be 53 e8 64 be fb 16 c0 bd 0d 3f b9 bd
       -0.27558246 -0.2235425 -0.09379383 -0.09045229
000020 5e bb 17 bd ef 90 ab be 8b e0 b0 be 04 87 b3 bc
       -0.03704392 -0.33509013 -0.34546313 -0.021914966
000030 a8 92 e8 bd a1 85 89 3e db 84 83 be 31 85 0b be
       -0.113560975 0.26859763 -0.25687298 -0.13625027
000040 fc 0b b0 be 2b b9 d1 bd f7 17 33 be 1d 28 b2 bd
       -0.34384143 -0.10240396 -0.1748961 -0.08699057
000050 21 17 39 be d4 bb 85 be d3 e5 96 be 80 39 32 be
       -0.18075229 -0.26119864 -0.29472217 -0.17404747
000060 30 e2 91 bd e9 14 16 bf 21 91 86 be 87 69 ad be
       -0.0712322 -0.58625656 -0.262826 -0.33869573
000070 b8 b1 64 be 18 f1 81 b9 5a 39 ce be fe 8f 1c be
       -0.2233342 -0.00024784426 -0.4027813 -0.15289304
000080 ea 7c 47 be e7 8b f1 bc 23 6f bc be fc 11 a7 3d
       -0.19481245 -0.029485656 -0.3680354 0.08157727
000090 d0 45 a1 be 83 40 61 bd 7c 9b 97 be 7d 4d 1b 3e
       -0.31498575 -0.054993164 -0.29610813 0.15166278
0000a0 7c 0f f6 bd 83 ae 02 bf ce e6 4c be 08 f7 cc be
       -0.12014672 -0.51047534 -0.2000992 -0.4003222
0000b0 c4 d1 30 bd 28 ac cb be c3 2e 63 bd 6e 95 2b be
       -0.043168798 -0.39779782 -0.055464517 -0.16756222
0000c0 58 1c fc 3b ca f5 d7 be bd 8f c8 be b4 f4 4e be
       0.0076938085 -0.4217971 -0.39172164 -0.20210534
0000d0 95 83 ec bb 96 cb 0f bf bd 48 b1 be 87 3c 9c be
       -0.0072178342 -0.5617002 -0.34625807 -0.3051493
0000e0 a6 8a 93 be d6 ec f5 3d e9 53 63 be be 03 99 bc
       -0.28816718 0.120080635 -0.22199978 -0.018678542
0000f0 7e 72 34 be 4e a6 0e bf 12 b7 d3 be 9c 82 65 be
       -0.176218 -0.5572251 -0.4135061 -0.22413105
000100 63 62 a6 be 72 01 45 bd f5 f3 a1 3d f6 ff d1 be
       -0.32496938 -0.04809708 0.07907859 -0.41015595
000110 a5 90 df bd 85 e4 c0 bd e3 0b 4d be 25 c2 bc 3b
       -0.10916261 -0.09418587 -0.20024066 0.0057604485
000120 14 15 b5 bb 0a ad a2 bd 10 6a 14 bf 3b 16 da 3d
       -0.0055261943 -0.07943161 -0.5797434 0.106487714
000130 c7 64 b2 3d 8d 5f ca be f4 ac a1 3c 61 fb 67 be
       0.08710628 -0.39526024 0.01973579 -0.22654487
000140 1c 82 08 bd b3 b5 e0 3d 8b d4 87 3d 49 77 0f be
       -0.033327207 0.109721564 0.06632336 -0.14010347
000150 cb 79 e8 bd b8 5e 57 be da f0 b9 be f1 bf e2 be
       -0.11351355 -0.21032226 -0.36316568 -0.44287065
000160 51 9d c0 be 1d c1 00 bf aa 4c 46 be 5a a3 b2 3e
       -0.37620023 -0.5029467 -0.19365183 0.34890252
000170 31 2d 32 bd 70 37 73 be 9d df 01 3e ed 6b d9 be
       -0.04350013 -0.23751616 0.12682958 -0.42465153
000180 8a 6f 40 3b 30 5c 7d be 9b da ae be 2e 42 fa bd
       0.0029363357 -0.24742198 -0.34151158 -0.12219654
000190 cf 5f 97 be 93 9a 41 be 81 a5 8e be 6a 53 29 be
       -0.29565284 -0.18906622 -0.27860644 -0.16535726
0001a0 f1 71 b0 3d d4 f0 30 3d ce 08 ac be ba 2d e2 be
       0.086154826 0.04319842 -0.33600467 -0.44175512
0001b0 ad 56 b2 bd 42 bd 6c be cc 73 fc be 03 1d e2 3d
       -0.08707938 -0.23119071 -0.49307096 0.1104069
0001c0 63 20 93 be 79 01 14 3d 1a 46 f2 bd c8 b7 e7 be
       -0.28735647 0.036134217 -0.11829777 -0.452574
0001d0 c3 74 e8 bd 87 98 a8 3d 5b b0 92 be e1 b9 76 be
       -0.113503955 0.08232217 -0.28650174 -0.24094345
0001e0 60 5d 76 3e 8a 97 2b bd 9d 90 b9 be e0 ea e6 bd
       0.24059057 -0.041892566 -0.36243144 -0.112752676
0001f0 b3 40 9d be e4 34 0d be 61 4d 46 bf 8c e7 fb bc
       -0.30713424 -0.13789707 -0.7746182 -0.030750059
000200 a2 ce bf be 05 38 e7 3b 68 0e ac 3e dc 08 9f be
       -0.37462336 0.0070562386 0.3360474 -0.31061447
000210 c7 f7 07 3e df 9d 61 be fb 37 6c be ec 52 41 bf
       0.13278113 -0.2203288 -0.2306823 -0.75517154
000220 4c 47 fb bd ab 03 41 3e 69 85 f5 3c 16 1a 5a 3e
       -0.12269458 0.18849055 0.029970841 0.21299013
000230 39 ce cc be e8 a8 b5 be 65 47 8f be b6 d0 8b be
       -0.40001085 -0.35480428 -0.27984157 -0.2730767
000240 93 c9 95 be ca 56 18 be a3 b5 a7 be 22 ef a7 be
       -0.2925535 -0.14876857 -0.32755765 -0.3279963
000250 1b de 12 be a9 4c 0a 3d c0 cd bf be f7 b9 23 be
       -0.14342539 0.033764515 -0.37461662 -0.15988909
000260 9d fc 20 be 4d 9b 9e bd c0 b8 44 3b 3e ec 1d bd
       -0.15721364 -0.07744465 0.0030017346 -0.038555376
000270 46 bb 21 be 6a e9 5d be 81 b8 07 3e 3c 93 6f be
       -0.15794095 -0.21671072 0.13253976 -0.23396009
000280 5e 61 f2 bd 5f 23 b5 be f0 71 b4 bc c6 0c 6d 3e
       -0.118349776 -0.35378549 -0.022026986 0.23149404
000290 5d 5f 98 be 06 87 28 be b9 fc 62 be 9d c7 69 be
       -0.29760256 -0.16457757 -0.22166719 -0.22830053
0002a0 b1 b3 89 be 17 46 1b be 77 17 70 bc 82 c3 f5 bc
       -0.26894906 -0.15163456 -0.014654032 -0.030000452
0002b0 b0 58 f2 bc f0 b9 48 be b8 68 de 3c 29 38 55 3d
       -0.029583305 -0.1960218 0.027149543 0.05205551
0002c0 84 d1 ae be fc 4d 3e be 5b 07 8c be 8a b0 22 be
       -0.34144223 -0.18584436 -0.27349362 -0.15887657
0002d0 d7 b4 5b be 0d 7f a7 be dc b3 b0 bd be b6 dc bd
       -0.21455704 -0.3271412 -0.086280555 -0.10777043
0002e0 6b 7f 1b be c0 6a b5 be 2a 9c bf bd 73 96 c9 bd
       -0.15185325 -0.35433006 -0.09355958 -0.09843149
0002f0 19 5c 39 be 76 37 6b 3e ba 98 39 be a6 5c 61 be
       -0.18101539 0.22970375 -0.18124667 -0.22007999
000300 79 1f 56 3d d9 1b 61 be 91 40 c6 be e7 aa 1c bd
       0.05227611 -0.2198328 -0.38721135 -0.038248923
000310 ff c6 00 be 4c 69 da be 79 d0 94 be 78 8e e3 bd
       -0.12575911 -0.4265846 -0.29065302 -0.11111158
000320 39 db f0 be 44 5f 83 39 c7 c7 00 bd fb af a2 be
       -0.47042254 0.00025057246 -0.031440523 -0.31774887
000330 e1 94 a7 bd 9e 1b c2 be 2b f9 31 be 84 67 62 be
       -0.08182693 -0.37911695 -0.17380206 -0.221098
000340 05 ce ba 3d dd 34 19 bf 82 d3 bd be f3 00 76 bc
       0.09121326 -0.5984629 -0.3707543 -0.015014875
000350 63 a7 e6 3e 99 e8 35 bf 05 cb 25 be c1 e1 76 be
       0.4504958 -0.7105804 -0.16190727 -0.24109556
000360 19 9a ca bd 20 c6 3c be 80 16 28 be 08 07 8f be
       -0.09892673 -0.18434954 -0.16414833 -0.27935052
000370 79 a0 67 be ca 4c 8b bd 33 43 17 be d2 cf 00 be
       -0.22619809 -0.06801756 -0.14771728 -0.12579277
000380 43 db 6e bd d0 a3 cb bd 6a 00 27 be ff c7 48 bd
       -0.058314573 -0.09943354 -0.16308752 -0.049018856
000390 11 d7 c3 bd 85 d4 85 be be 5b 1a be b6 3e b7 3d
       -0.09562505 -0.26138702 -0.1507406 0.08947508
0003a0 9b 46 4e bf 22 d5 0a be 9d c2 d6 bc 6d c1 11 be
       -0.80576485 -0.13557866 -0.026215846 -0.14233942
0003b0 45 07 30 bd f1 22 b2 3d 09 8c 16 3d 36 ae 62 be
       -0.042975683 0.08698071 0.03675464 -0.22136769
0003c0 91 40 1e 3d 8c 16 3c bc 14 c7 21 be 96 54 b8 be
       0.038635794 -0.011479985 -0.15798599 -0.36002034
0003d0 8d d4 75 be fe 48 b7 bd ce eb 14 be 68 8f 6b be
       -0.24006863 -0.08949469 -0.14543077 -0.23003924
0003e0 11 02 4c be df 4a f0 bd e0 90 b6 bc c9 c0 b6 bd
       -0.19922663 -0.117330305 -0.022285879 -0.089234896
0003f0 9e 36 d9 bd 85 fd 4a 3e c1 60 dc 3c 99 3b 3d be
       -0.106061205 0.19823273 0.026901605 -0.18479766

batchnorm.weight f4 [256]
000000 81 dc bd 3e 2a 9d bf 3e ce 72 28 3f 81 ba 8c 3f
       0.37082294 0.37424594 0.6580018 1.0994416
000010 e2 75 c7 3e 06 2f 03 3f e6 f9 87 3f 4b 56 11 3f
       0.38957125 0.5124363 1.0623138 0.567723
000020 90 2d 3d 3f 67 a7 38 3f 6a bc 42 3f 04 38 90 3f
       0.7389765 0.72130436 0.7606875 1.1267095
000030 32 94 eb 3e 1e 02 b6 3d a2 35 4c 3d 4a 07 f5 3d
       0.46011502 0.088871226 0.049855836 0.11964281
000040 35 84 6b 3e dd 80 1b 3f 15 2d ab 3e 75 33 5a 3d
       0.22999652 0.60743505 0.33432832 0.05327173
000050 f1 5a 9e 3e 7f 57 99 3e 33 bf 3e 3f 6d e6 01 3e
       0.30928758 0.29949567 0.74510497 0.12685557
000060 8f 0d 86 3f a6 d4 90 3e f1 1e 5e 3f 38 73 01 bf
       1.0472888 0.28287238 0.8676596 -0.50566435
000070 1a 03 18 3f eb aa 0f 3f 9c 46 0c 3f c8 04 13 3f
       0.5937973 0.56120175 0.5479524 0.5742917
000080 e2 fe ef 3b aa 41 99 3e 0f c3 1a 3f 1e 6a 1c 3e
       0.0073240856 0.2993291 0.60453886 0.15274855
000090 7f eb e1 3f 06 41 52 3f cf 71 d8 3e 60 82 89 3f
       1.7649993 0.8213047 0.4227433 1.0742912
0000a0 9e 5a 66 3f 5a e3 d5 3f 37 1f 81 3f 99 27 e6 3e
       0.8998202 1.6710007 1.0087651 0.44952086
0000b0 81 f8 86 3f a4 8a c1 bd 47 d1 a6 3f 6a 49 4d 3e
       1.0544587 -0.09450272 1.3032616 0.20047536
0000c0 26 35 24 3f 4f d5 69 3e 51 25 1c 3f 22 cb b1 3e
       0.641436 0.22835277 0.6099444 0.3472529
0000d0 22 10 83 3e 3a 3e a7 3e 6e c5 88 3f 61 82 18 3f
       0.25598246 0.32664663 1.0685251 0.5957394
0000e0 da 9d 9c 3f 96 87 d3 3e 19 58 44 3f 5c 14 68 3f
       1.2235672 0.4131438 0.76696926 0.90656066
0000f0 7a e4 08 3f 18 0d 01 3f 1d 0c 81 3f 9c 9b 5a 3f
       0.5347363 0.50410604 1.0081822 0.8539369
000100 b3 a7 f1 3e 81 b0 0e 3f 38 bf a6 3f b8 97 57 3f
       0.47198257 0.55738074 1.3027105 0.8421588
000110 82 fb 87 3f ec 67 1b 3f 1b d8 9b 3e 54 e5 e6 3f
       1.0623629 0.6070545 0.30438313 1.8038735
000120 21 72 36 3f 85 ce 5f 3e ef 4b 33 3f 9b c2 8e 3f
       0.71267897 0.21856125 0.7003774 1.1153139
000130 59 f0 65 3f 45 4f c7 3f ee f4 81 3f ae 42 12 3f
       0.89819866 1.5571066 1.0152872 0.57132995
000140 3b 86 5b 3f bf 2d b8 3d b8 77 0e 3f ed fd 7a 3e
       0.85751694 0.089931004 0.55651426 0.24510927
000150 c9 64 0b 3e 92 46 92 3f d1 2a 8e 3f 1f 46 b7 3e
       0.13612665 1.1427786 1.1106817 0.35795686
000160 25 dc 0c 3f 9c 4c 2c 3f 5b c2 8c 3e 14 8e 78 3f
       0.55023414 0.67304397 0.2749203 0.97091794
000170 42 d5 36 3f 11 30 c3 3e c8 c4 21 3d 9c 61 dd 3e
       0.71419156 0.3812261 0.039494306 0.43238533
000180 5f 06 5a 3f 28 d0 1f 3f a3 8b a5 3e f2 48 fd 3e
       0.8516597 0.62426996 0.32333097 0.49469715
000190 0d 8e 09 3f e5 48 c1 3e 17 c2 f6 3e fd 70 d6 3e
       0.5373238 0.37750927 0.48194954 0.41883078
0001a0 2d e0 c9 3e 83 eb 62 3e 1a 05 6d 3f 15 8d 3a 3f
       0.39428845 0.22160153 0.9258591 0.72871524
0001b0 1d ab a3 3f e6 47 1b 3f cf 83 33 3f 3e 3c 1e 3f
       1.2786595 0.60656583 0.70123 0.6181067
0001c0 4c 6e 83 3e 55 7b 23 3f ce 14 f3 3e c4 21 fb 3e
       0.25670087 0.63860065 0.4747681 0.490492
0001d0 77 d5 38 3f e0 a0 0d 3f 5d 51 2d 3b 03 65 b7 3e
       0.7220072 0.553236 0.0026446201 0.35819253
0001e0 c2 d2 19 3f cd 47 d6 3e 14 7a 3e 3f b5 64 71 3f
       0.60087216 0.41851655 0.74405026 0.9429429
0001f0 50 c0 21 3f 41 62 24 3f 78 13 bb 3f e4 15 46 3f
       0.6318407 0.64212424 1.4615316 0.7737715
000200 d7 a3 99 3f 56 64 66 3f 9f 3a 25 3f 91 1d 48 3f
       1.2003125 0.8999685 0.64542574 0.78170115
000210 a9 45 ae 3e a0 63 a2 3e 1f e0 9e 3e 7a 41 4c 3f
       0.3403752 0.31716633 0.31030366 0.7978741
000220 2c a5 db 3e 5e cd 79 3f 37 1c bf 3b a6 b6 91 3e
       0.42899454 0.9757899 0.005832221 0.28459662
000230 89 69 03 3f 94 b8 9e 3f 10 c3 81 3e e7 87 03 3f
       0.5133291 1.2400079 0.25344133 0.51379246
000240 06 bc 1e 3f 00 e4 f2 3c af 0b 00 3f b6 f0 b3 3e
       0.6200565 0.029649734 0.5001783 0.35144585
000250 e6 da 22 3f 5c 62 25 3f 62 79 3d 3c bf 1d 73 3e
       0.6361526 0.6460321 0.011564584 0.23741816
000260 34 be 26 3e 8c 30 10 3f 5d 04 e2 3e 39 81 d2 3d
       0.16283494 0.56324077 0.44143954 0.102785535
000270 0d da 3e 3f 7c 9c 5a 3f fa 18 7f 3e 12 cc ab 3e
       0.7455147 0.85395026 0.24911872 0.3355413
000280 53 b3 69 3f d9 dd 8b 3f 7d da 8e 3f d3 3c ea 3f
       0.9128925 1.0927078 1.1160427 1.8299812
000290 c1 47 e8 3e ed cd e8 3e b2 f3 a2 3f 71 d7 5d 3f
       0.45367244 0.4546961 1.273062 0.8665686
0002a0 0f 4d a5 3f 60 d6 00 3d 2d b6 bc 3e 28 2d d1 3e
       1.2914141 0.031454444 0.3685774 0.40854764
0002b0 07 2c 08 3f 8a dd d4 3e 4d fd 8d 3f b2 8c ef 3e
       0.5319218 0.4157527 1.1092926 0.4678703
0002c0 3c 15 67 3f 68 31 29 3f 29 69 0a 3c eb 5f 36 3f
       0.90266776 0.6609101 0.008447924 0.7124011
0002d0 c3 49 cc 3e ca e3 db 3e 34 f6 64 3f 24 63 5a 3f
       0.39900026 0.42947227 0.89438176 0.85307527
0002e0 36 c2 52 3f db e9 0f 3f b4 88 c6 3e 6c 8f 40 3f
       0.8232759 0.5621621 0.3877617 0.75218844
0002f0 a4 96 7e 3f ba 7c b6 3e 3e a1 99 3f f5 6e 05 3f
       0.9944861 0.35642034 1.2002332 0.5212243
000300 6f c2 1a 3c 1e 41 13 bf f3 c8 6e 3f cc 4d 88 3f
       0.009445771 -0.57521236 0.93275374 1.0648742
000310 98 0d 48 3f a9 3f 56 3f 24 33 96 3e 8e 67 4b 3f
       0.7814574 0.8369089 0.29335892 0.79454887
000320 bf 7b 91 3e 8f 84 e3 3e eb 7f 93 3e ce 99 4f 3f
       0.28414723 0.44437072 0.2880853 0.8109406
000330 16 84 73 3f 27 95 10 3f 5a b2 f4 3e ef c1 04 3e
       0.9512342 0.5647759 0.4779232 0.12964605
000340 44 8e b9 3d 4c 7e ae 3f 13 f7 4e 3f 1c b7 1e 3f
       0.09060338 1.3632293 0.80845755 0.6199815
000350 24 a4 63 3f 95 01 9e 3f e3 ad 27 3f d1 df 76 3f
       0.88922334 1.2344233 0.65499705 0.96435267
000360 b3 82 14 3e fa c2 37 3f 42 6c 0a 3f b8 00 22 3f
       0.14502983 0.71781886 0.5407144 0.63282347
000370 b0 9a 2e 3f e0 cf 03 3e 09 81 1b 3f 65 d2 80 3f
       0.68204784 0.12872267 0.6074377 1.0064207
000380 47 f5 0a 3f 05 99 58 3d 0b e7 5f 3f 9b 4c 3f 3e
       0.54280514 0.052880306 0.8746192 0.18681566
000390 33 ef 3d 3f 28 94 f1 3e f0 fc 43 3e da b6 2e 3e
       0.74193114 0.47183347 0.19139457 0.1706194
0003a0 7d d1 91 3f 58 f0 f6 3e 0e a8 ac 3e 06 33 89 3f
       1.1392056 0.48230243 0.33721966 1.0718696
0003b0 ce 13 5f 3f f6 05 00 3f 62 f9 96 3f 72 21 a0 3e
       0.87139595 0.50009096 1.1794856 0.31275517
0003c0 14 69 2e 3f 68 5a 8d 3e c4 2c 3c 3e 0b 65 8d 3d
       0.68129086 0.27608037 0.18376452 0.06904038
0003d0 44 2d 1b 3f 4b 8d 81 3e b4 92 05 3f cd e1 10 3f
       0.60615945 0.2530311 0.52176976 0.56594545
0003e0 99 18 49 3f 69 4f db 3e 94 ae 4b 3f 1d 69 bd 3f
       0.7855316 0.42834023 0.7956326 1.4797703
0003f0 6a 90 95 3f a1 2b c1 3f b2 e4 4c 3f 02 d8 02 3f
       1.1684697 1.509144 0.8003646 0.5111085

batchnorm.bias f4 [256]
000000 9b 63 d8 3c 19 e8 f1 bc 70 12 1d 3e 2f 1b f1 bd
       0.026414683 -0.029529618 0.15339065 -0.11772763
000010 9d 79 c7 bd e3 36 1a 3e cb e0 f9 3d 62 f1 09 3c
       -0.09739993 0.1506 0.12201079 0.008419367
000020 4d 9f 38 3e 99 a2 05 bc 2f 92 9c 3b 0e e9 5a 3e
       0.18029518 -0.008156442 0.0047781686 0.21377966
000030 3f a1 bf 3c 69 43 c0 3d 07 17 1f 3c 38 60 25 3d
       0.023392318 0.093878575 0.00971008 0.040374964
000040 d9 21 3b bd e6 d3 ed 3d 94 d1 6b bd 59 65 cb 3d
       -0.045686577 0.11612682 -0.057572916 0.0993144
000050 be 82 5e 3e 5d 17 b1 bb 91 9a 14 3d 7e ad b6 3c
       0.21729562 -0.0054043964 0.03628022 0.022299524
000060 0d b7 21 3e 5e d7 b1 bb b8 86 1a bd 63 a4 43 be
       0.15792485 -0.005427285 -0.037726134 -0.19105677
000070 e5 66 f1 3d f7 80 37 3e f2 00 1f 3e 30 94 93 3d
       0.11787204 0.1792029 0.15527704 0.07205999
000080 bd 19 4c bc 8f 8e b5 bd 21 f7 28 bd de 73 2a 3d
       -0.012457308 -0.088650815 -0.041251305 0.041614406
000090 20 87 8f bd 64 fe 76 bd 62 fd 04 be 54 f4 60 3b
       -0.07008195 -0.0603012 -0.12987283 0.0034325318
0000a0 c0 0c c6 3d ce 75 ac 3d a7 2a d0 3d de 36 25 3e
       0.096704006 0.08420907 0.10164385 0.16134211
0000b0 87 05 42 bd e4 5e 83 3c 10 be 79 bd 5e fb 9d 3d
       -0.047368553 0.016036458 -0.060972273 0.0771396
0000c0 a2 50 1f 3e c8 04 62 bc 2c 09 1f be df 9d 9c 3c
       0.15558103 -0.013795085 -0.15530843 0.019118248
0000d0 6e d7 b2 3c 60 af 11 3d f5 5d 1d 3e 0b 9a e3 3c
       0.02183124 0.03556764 0.15367873 0.027783414
0000e0 49 1f b5 3d 9f 70 40 bd d0 f7 15 3d cc 60 17 be
       0.08843858 -0.046982404 0.036613286 -0.14783019
0000f0 38 d7 80 3d 28 3a 6a 3d ff 73 bd 3d cf f1 70 bc
       0.0629105 0.05718437 0.0925064 -0.014706089
000100 c8 1f a2 3d a3 cf fe 3d f6 e5 54 3e 7c 04 48 3c
       0.07916218 0.12441947 0.20790848 0.0122081
000110 8d 51 d1 bd 4b 51 34 3e 5d ea 16 3e bf 4c d7 3d
       -0.10220633 0.17609136 0.1473784 0.10512685
000120 16 97 02 3e 32 63 02 3e 9c 55 22 3e 41 e6 95 3d
       0.12752947 0.12733153 0.1585297 0.07319308
000130 a3 ab 89 3d d7 2d ef 3d 51 c9 c2 bc 8e dd c7 3c
       0.0672219 0.11678665 -0.023777636 0.024397638
000140 57 ae 8d bd 5a 58 54 3e 3a 82 cb bc 19 63 77 3e
       -0.06918018 0.20736828 -0.02484237 0.24158897
000150 1d 25 b5 bd 37 f6 03 3e a3 f8 8e bd 14 49 84 3d
       -0.088449694 0.12886892 -0.069810174 0.06459251
000160 fb 3a 0a 3e 83 67 8b 3d 56 93 d4 3d 00 98 69 3c
       0.13499062 0.06806853 0.103796646 0.014257431
000170 e0 56 ae bc 8b b0 98 bd 37 32 98 3d 5c 51 0e 3d
       -0.02128166 -0.07455548 0.07431453 0.03474556
000180 bd 8d a0 3d dc e9 cc bc 91 62 1a 3d bd eb 30 3e
       0.078395344 -0.025013857 0.037691657 0.17277427
000190 ae 48 43 bd 2f 6d 1a 3d 83 23 6b bd e0 30 a7 3d
       -0.047676735 0.03770178 -0.057406913 0.08163619
0001a0 5f 1f 33 3d 45 56 79 bd aa 94 b0 3d 6a 5b 4d bd
       0.04373109 -0.06087329 0.086221054 -0.050136007
0001b0 bd 17 05 bd 47 df f0 3b 9e 76 2a bd 33 0e 1a 3e
       -0.03249334 0.0073508355 -0.04161703 0.15044479
0001c0 44 46 3d 3e 10 f7 24 3e d3 de 19 3e ae 2d ab 3d
       0.18483835 0.16109872 0.15026407 0.08358322
0001d0 28 79 b3 3d b4 cd 7a 3d 6b 64 1f bd df 01 1b 3d
       0.08763343 0.06123133 -0.038914125 0.03784358
0001e0 b2 29 6b 3e cc 65 66 3d 96 66 6d bd df 82 de bc
       0.22965124 0.056249425 -0.05795916 -0.027162014
0001f0 f0 8d 8d 3d 9c 1c d4 3d 7d 68 b9 3c 07 62 98 3d
       0.06911838 0.10357019 0.022632832 0.07440572
000200 87 83 83 bd 79 85 73 bc ca 59 81 bd db 76 fa 3c
       -0.06421571 -0.014863365 -0.06315954 0.030574253
000210 c0 71 1c 3e 04 23 38 3d b2 8e 12 3e 00 bb 9a 3b
       0.15277767 0.04495527 0.14312246 0.004721999
000220 05 df 2e 3e ce e5 d4 bd b1 a2 b4 3a 5e 3c 0b 3d
       0.17077263 -0.10395394 0.0013781396 0.033993118
000230 6a f2 5a 3d 2c 5b 17 be 2b 26 de 3d 4b 05 25 bd
       0.05345384 -0.14780873 0.10847124 -0.04028825
000240 98 2b 61 3d 40 a4 3a 3d e1 1a 25 3c ac 28 ad 3d
       0.054973215 0.045566797 0.010077209 0.08455023
000250 3a 47 45 3d a8 13 24 bc 15 4c b7 3b e9 b6 60 bd
       0.04816363 -0.010014452 0.0055937865 -0.054861937
000260 d3 a2 4a bd 8e 18 b8 3d de 5d 8e 3e 97 09 9c 3c
       -0.049471688 0.089890584 0.2780599 0.019047542
000270 5a 68 32 3e 97 67 a7 3d 4b bf 20 3e 4e 5b 06 3e
       0.1742262 0.08174055 0.15697972 0.13120767
000280 c6 e4 6d 3e 72 17 85 bd 28 fa 21 3b aa 7c 0d 3e
       0.23231801 -0.064986125 0.0024715755 0.13817087
000290 a2 9c 21 3c b2 2b 0b 3c 14 f1 ea bd 9f 3e 43 3d
       0.009864004 0.0084943045 -0.11471763 0.047667142
0002a0 11 26 e7 bd 1e 1d 4d bb 1b 8d 11 be a1 41 0e 3e
       -0.112865575 -0.0031297873 -0.14213984 0.13892223
0002b0 71 f8 d6 3d 64 9f 1a 3e 6e 35 21 3e 8d 3e 92 bd
       0.10496605 0.15099865 0.15743038 -0.07140837
0002c0 ec 3e b6 3c 8c 96 9a 3d 31 44 e0 3d 10 cf db 3c
       0.0222468 0.07548246 0.109505065 0.026832134
0002d0 07 73 e0 bc 8c df 61 bd 54 df 1c be e7 e4 f8 3d
       -0.0273986 -0.05514483 -0.15319568 0.12153035
0002e0 38 52 5c 3e 48 4e 84 bd c4 ed a1 bb db 34 26 bd
       0.21515739 -0.064602435 -0.004941674 -0.04057775
0002f0 4c 5c 33 3e 88 97 f6 3d a4 48 0c 3e 50 57 b1 3c
       0.17515677 0.12040621 0.13699585 0.02164808
000300 f6 f9 43 3b 4f 73 55 3d e6 1a 2f 3e 77 97 07 3e
       0.0029903627 0.05211192 0.17100105 0.13241373
000310 34 67 c4 3d 73 f0 5d 3b 62 82 e1 3d b1 71 08 3e
       0.09589997 0.0033865243 0.11011197 0.1332462
000320 b6 42 b8 3d c9 ea 58 3c 7b 5f 95 bd c0 a8 d7 bc
       0.08997099 0.013239571 -0.07293602 -0.026325583
000330 e4 f5 bf 3d 71 c4 89 bd 34 b4 97 bd 64 94 da bd
       0.09373072 -0.06726921 -0.07407418 -0.106728345
000340 9f be 91 3d ba ad fa 3d 32 5e 80 bd 94 c1 1a ba
       0.07116436 0.12240167 -0.06267966 -0.0005903479
000350 cd 3a 16 bc 5f 21 9d 3d 11 b8 46 bd 63 22 3d 3e
       -0.009169293 0.07672381 -0.048515383 0.18470149
000360 d9 01 c6 3d 8a e1 4e bc d1 09 cb 3d 86 d7 20 3e
       0.09668321 -0.012627015 0.09913982 0.15707216
000370 ac 59 b5 3d d6 85 89 3d 74 2c 26 3e 76 32 aa bd
       0.08854994 0.0671498 0.16227895 -0.08310406
000380 3d ff 7a be 92 b3 2b 3d 01 b0 b5 3d 46 67 50 3d
       -0.24511428 0.0419193 0.08871461 0.05087974
000390 83 80 63 3e 03 c9 7b 3c f2 c4 69 bd 38 7b bc 3c
       0.22216992 0.015367749 -0.057072587 0.023007974
0003a0 23 10 40 3e b0 17 3f 3e 02 43 33 3e d1 51 49 bd
       0.18756156 0.1866138 0.1750603 -0.04915029
0003b0 84 2e 71 3e c5 a1 b3 3d dc 63 e4 3d b0 75 e1 bc
       0.235529 0.087710895 0.11151859 -0.027521938
0003c0 8f 33 53 3b 4a af 29 3e 4f df f8 bb 41 c5 29 3d
       0.0032226776 0.16570774 -0.00759498 0.04144788
0003d0 0f c3 e1 3d 73 b1 83 3d e8 43 f8 3d 57 da 25 be
       0.110235326 0.0643033 0.12122327 -0.16196571
0003e0 92 ea 68 3e 8d 5f 13 3b 66 94 46 3d a7 c5 e8 bc
       0.22745731 0.0022487373 0.048481368 -0.02841456
0003f0 e5 ff 35 bd 53 64 ed 3d 53 70 0f 3d 7b 4f 0f bd
       -0.044433493 0.11591401 0.03501923 -0.034987908

batchnorm.running_mean f4 [256]
000000 d6 85 13 40 bb 30 08 40 0b 31 d9 3f 59 8f 7c 3e
       2.3050437 2.1279743 1.6968092 0.24664058
000010 88 3f db 3f 43 57 e9 3d 5e 45 2e 3f d7 3f 9f 40
       1.7128763 0.11393597 0.68074596 4.976543
000020 13 9e 9b 3c 04 00 00 00 64 5f 5f 3f 12 a3 29 3f
       0.018996274 6e-45 0.8725493 0.6626445
000030 47 b9 2f 40 b9 0f 57 3f 89 1c c0 3f 33 0b 7e 3e
       2.7456834 0.84008366 1.5008708 0.2480896
000040 a4 a0 90 3e 17 22 84 3f 6b bd 49 3f c0 b2 b4 40
       0.2824756 1.0322903 0.78804654 5.64682
000050 c2 29 58 40 6a df c8 3f 39 a1 1b 3f 35 e8 0a 41
       3.3775487 1.569318 0.6079288 8.681691
000060 73 15 28 3e 35 0d 1a 41 27 0c 01 40 16 12 b1 3f
       0.16414432 9.628224 2.0163667 1.3833644
000070 0e 88 17 41 be 3b 0c 40 c4 10 33 3f 60 d4 67 40
       9.470716 2.1911464 0.6994746 3.6223373
000080 92 ee 01 3f d9 8f a2 40 0c e3 3a 3f 54 f9 89 3f
       0.50754654 5.0800595 0.73002696 1.0779214
000090 23 4a 94 40 21 a8 b1 40 eb 02 2e 3f b5 1a 99 3e
       4.63405 5.5517735 0.679732 0.29903188
0000a0 fe 67 54 3f 72 9d 47 3e 44 18 e2 3f f2 3b 58 3f
       0.8297118 0.19493654 1.7663655 0.8446647
0000b0 7a ab fd 40 04 9d 73 3e 24 72 d1 3e 17 e5 72 40
       7.927182 0.23790365 0.40907395 3.7952325
0000c0 3f 47 11 41 36 81 4a 3a 90 53 b7 3f de 56 b1 3f
       9.079894 0.00077249424 1.4322376 1.3854635
0000d0 18 23 8a 3e b8 64 44 3f a4 0f 88 3e 20 a0 8c 3f
       0.269799 0.76716185 0.26574433 1.0986366
0000e0 6c 05 ed 3e 76 71 bb 40 4f 32 52 3f 88 0e 67 40
       0.462932 5.8576 0.82108015 3.610262
0000f0 d8 5f 11 3e 2f d1 6a 3c 5f 6d a4 3e ac 1e 88 3f
       0.14196718 0.0143321 0.32114694 1.063436
000100 8a 50 eb 3e 5d bb 6d 3f de 0b 2b 3f ff f8 c7 3e
       0.45959884 0.9286402 0.6681498 0.39057156
000110 8d 67 67 3f 04 5c 10 41 3e fa 8a 3f 8b b2 b0 3d
       0.9039238 9.022465 1.0857618 0.08627804
000120 cc 4e 73 3f 25 2b 43 40 8c 4b a9 3e 50 60 f6 3f
       0.9504211 3.0495083 0.3306545 1.9248142
000130 00 ec ee 40 7d 9b 2a 3d 9a 76 b3 3f fd 4c 84 40
       7.4663086 0.04165219 1.4020569 4.134398
000140 32 87 c1 40 cc 60 23 41 93 0b fe 3f d1 03 53 3f
       6.0477533 10.211132 1.9847282 0.824277
000150 c9 a9 18 40 c3 2f 34 3f c6 c6 db 3e d1 ee a5 3d
       2.3853629 0.7038538 0.4292509 0.08102191
000160 22 78 71 3f e3 82 e6 40 e4 5a 0d 3e c1 28 a6 3f
       0.94323933 7.2034774 0.13804203 1.2981187
000170 ff d7 b0 3f 48 87 59 40 97 4d 96 40 9b 7a 3f 3b
       1.3815917 3.398882 4.6969714 0.0029217366
000180 1a d7 f0 3f 03 43 11 3f 9a 4c fd 3f dc 0d e7 3f
       1.8815644 0.56742877 1.9789002 1.8051105
000190 55 77 c5 3d 9a 75 9c 40 eb 4b 78 3e 94 03 80 40
       0.096419014 4.8893557 0.2424771 4.000437
0001a0 56 9a 54 40 6e b1 10 40 eb ba 90 3e 22 97 6d 40
       3.32192 2.2608294 0.28267607 3.7123494
0001b0 d6 96 b5 3e 38 d7 89 40 46 7e 8e 40 38 36 7c 40
       0.3546664 4.307522 4.452914 3.9408092
0001c0 2d 03 e6 40 00 c9 cb 40 3b 21 23 3f a8 bb 00 41
       7.1878877 6.368286 0.6372258 8.0458145
0001d0 37 af ca 3d 2c ec 01 41 01 94 77 3f c4 5c 02 3e
       0.09896701 8.120159 0.9671021 0.127307
0001e0 c2 a6 c7 40 5a 91 c6 3f f8 e1 8f 40 9a 6c 5e 3e
       6.239106 1.5513108 4.496334 0.21721116
0001f0 a3 45 2a 40 30 d3 10 3f 01 81 d2 3f 8f b1 5d 40
       2.6605003 0.56572247 1.6445619 3.4639623
000200 d9 1c 98 40 c8 d9 14 40 89 51 d0 40 bd 47 df 3e
       4.7535214 2.3257923 6.509953 0.4360942
000210 5e 90 55 40 38 d3 b8 3e 10 25 14 3e 69 3a 38 3e
       3.3369365 0.36098647 0.14467263 0.17991032
000220 51 44 20 40 8a 00 81 3f 6b a1 be 40 93 b2 7f 40
       2.5041697 1.007829 5.9572043 3.9952743
000230 62 91 5c 40 8a 43 de 3f 77 2c 69 3a 9e 88 f9 40
       3.4463735 1.7364361 0.00088948704 7.797927
000240 4b 69 cb 3d ea 03 05 41 7c b6 bd 3e 6e b1 96 40
       0.099321924 8.313456 0.37053287 4.709159
000250 70 11 03 3e fd c4 18 3f fd e9 92 3e 23 d1 80 40
       0.1279962 0.5967558 0.28694144 4.0255294
000260 02 cf ba 40 21 2e cb 3d ff e9 9d 40 77 27 ad 40
       5.8377695 0.09920908 4.934814 5.4110675
000270 a7 03 0d 3e 55 cd 1b 3d 94 28 ae 40 ad 2c 07 40
       0.13770925 0.038037617 5.4424534 2.1121018
000280 42 e6 6e 3f ce 56 b2 3f ba 83 60 3f 91 57 41 3e
       0.93320096 1.3932741 0.87701 0.1888106
000290 bd 21 0c 41 cd ee d5 3e c2 9d 4a 40 98 fa da 3d
       8.758237 0.41783753 3.1658788 0.10692328
0002a0 4f 93 55 3f 88 06 8b 3f 03 f5 1d 40 eb 22 e6 3f
       0.834279 1.0861368 2.4680793 1.7979406
0002b0 6e 23 7a 3f 88 6e 45 40 c8 50 25 40 26 ed 44 3f
       0.9771031 3.0848713 2.5830555 0.7692436
0002c0 05 bb fd 3e ab f3 1e 3f 4d 1e 0f 40 d4 10 3a 40
       0.49556747 0.6209056 2.2362244 2.907277
0002d0 f2 0d 85 40 65 00 29 3f 2b 02 44 40 f9 fc 3d 40
       4.1579523 0.66016227 3.0626323 2.9685652
0002e0 fa b1 79 3e 9d d3 0d 3e d6 72 d0 3e a3 ee 20 40
       0.24384299 0.13850255 0.40712613 2.5145652
0002f0 80 db 95 40 6b bd 18 41 27 71 2b 3e 05 02 eb 3e
       4.6830444 9.546245 0.16742383 0.45899978
000300 10 a0 ba 3e cc 48 b7 40 2b 33 bc 3e fe 2a b0 40
       0.36450243 5.7276363 0.36757788 5.505248
000310 49 e9 3f 40 09 81 4c 2c 1d e7 bb 3e 55 45 77 40
       2.9986136 2.9061773e-12 0.36699763 3.8636067
000320 f3 5c d8 3d 22 a3 32 40 87 be cf 40 ce 19 1f 40
       0.10564604 2.7912068 6.4920077 2.48595
000330 5d 58 09 3f e4 27 29 3f eb 5a 43 3f dc 70 de 3f
       0.53650457 0.66076493 0.76310605 1.7378192
000340 02 09 97 3f fe b8 1b 3d 0f b3 e6 3f c1 67 cf 3f
       1.1799624 0.03801822 1.8023394 1.6203538
000350 0e 62 f2 3f d7 af 88 3f 74 f8 4b 3f 1c 4d 9b 3f
       1.8936174 1.0678662 0.79675984 1.2132907
000360 d5 25 8f 3f b5 0e 31 3f 0a f0 e3 3f ff 5c 00 40
       1.118342 0.69163066 1.7807629 2.005676
000370 75 31 98 3e 88 67 df 3f 4d 94 a4 3e d9 ec 9c 40
       0.29725233 1.745347 0.32144395 4.903912
000380 7d f4 7e 40 c0 ea 0e 40 14 8d 4a 40 e4 63 50 40
       3.9836724 2.233078 3.1648607 3.2560968
000390 13 79 86 40 72 83 2e 40 b3 4a 17 3f 5d 88 c6 3f
       4.2022796 2.7267728 0.59098357 1.5510365
0003a0 fe c8 d6 3e 45 f3 ea 3f 5a 3b 6a 3f 7b 28 41 40
       0.4195022 1.835549 0.91496813 3.0180957
0003b0 c8 7f 09 40 0f b3 88 40 84 fc 18 3f 5f e7 73 3e
       2.1484241 4.2718577 0.5976031 0.2381873
0003c0 03 eb 3d 3f 1d c1 c4 40 2b 44 3b 41 a8 9f 11 3f
       0.74186724 6.1485734 11.704143 0.5688424
0003d0 65 d6 7d 40 33 12 ef 3e 65 9d 6a 3f 55 bc 16 40
       3.9662106 0.46693572 0.91646415 2.3552449
0003e0 f9 51 88 40 78 6a 97 3f 0b ff a1 3f 6f ee f9 3e
       4.2600064 1.1829367 1.2655958 0.48814723
0003f0 d5 0a 98 3e 85 97 0c 40 c1 08 4b 40 9a 91 5f 3f
       0.29695764 2.196748 3.1724093 0.87331545

batchnorm.running_var f4 [256]
000000 2e 0d 68 41 fb 10 25 41 f7 23 4e 41 8f 57 86 3f
       14.503218 10.316646 12.8837805 1.0495471
000010 03 ed 7c 41 3f 81 00 3f 5d 84 90 40 4b ea 2e 42
       15.807864 0.50197214 4.5161576 43.7288
000020 c8 bd 5c 3d 04 00 00 00 14 e8 51 40 cf 66 58 40
       0.053891927 6e-45 3.27979 3.381275
000030 71 6b 9f 41 74 ec ab 40 3d 18 3a 41 7d 16 5a 3f
       19.927462 5.372614 11.630918 0.85190564
000040 55 1c 9e 3f d1 a8 ff 40 9d 22 99 40 f1 a6 28 42
       1.2352396 7.9893575 4.7854753 42.16303
000050 29 29 8b 41 85 21 fe 40 b7 72 8b 40 b7 67 cc 41
       17.395098 7.9415917 4.3577533 25.550642
000060 dc df 51 3f 1f b8 ea 41 c7 d2 29 41 03 31 0d 41
       0.8198221 29.339903 10.613959 8.824466
000070 9d c7 84 42 34 8c 18 41 e0 9d d1 3f 2b 13 08 42
       66.38987 9.534229 1.6376305 34.01872
000080 33 d7 06 40 53 08 10 42 64 17 ac 40 f8 e8 f1 40
       2.1068847 36.00813 5.3778553 7.5596886
000090 40 95 84 41 6c 56 04 42 92 53 49 40 fa 79 98 3f
       16.572876 33.084396 3.1457257 1.1912224
0000a0 99 28 af 40 f3 0b 57 3f 79 da 81 40 9c 73 b8 40
       5.473706 0.8400261 4.057919 5.7641125
0000b0 26 78 d5 41 d5 97 85 3f 74 ca e9 3f be 92 b5 41
       26.683666 1.043696 1.8264909 22.696651
0000c0 de c0 9d 42 78 7f 62 3a 7d ba c1 40 50 7c 46 41
       78.87669 0.000864021 6.0540147 12.40535
0000d0 81 45 b8 3f 0a 49 6f 40 0c a3 44 3f 77 98 03 41
       1.4396211 3.738833 0.7681129 8.224723
0000e0 50 42 39 40 ba 28 2c 42 2c b1 44 40 9a ed 71 41
       2.8946724 43.039772 3.0733137 15.120508
0000f0 3f 84 13 3f 85 2f 0c 3d 43 a9 18 3f 3b f8 50 40
       0.57623667 0.034225006 0.5963327 3.2651508
000100 77 34 2d 40 a1 54 b1 40 35 8a 55 40 2d 4e 1c 40
       2.7063272 5.5415807 3.3365605 2.4422715
000110 a9 a1 5f 40 d0 82 90 42 5f d4 dd 40 cd 54 e5 3e
       3.494242 72.25549 6.932174 0.4479126
000120 14 66 9b 40 1f 79 83 41 f1 53 db 3f 3c fa 38 41
       4.8562107 16.434141 1.7134992 11.561092
000130 57 fd 27 42 cc 58 15 3e 55 41 03 41 8b 68 98 41
       41.997402 0.14584655 8.20345 19.051046
000140 12 db ed 41 6d e7 b0 42 f7 b8 8c 41 fe 63 9c 40
       29.731968 88.452 17.590315 4.887206
000150 6c 46 94 41 ad 73 65 40 28 81 d1 3f d7 8e 7f 3e
       18.534386 3.5851853 1.636754 0.24956833
000160 a5 9b a9 40 2f 14 99 41 b6 96 3d 3f a1 46 0e 41
       5.3002496 19.134855 0.7405809 8.892243
000170 81 cd ed 40 71 de b8 41 2d 39 0a 42 5d 78 a2 3b
       7.431336 23.108614 34.555836 0.004958196
000180 55 f3 6b 41 0f 3e 50 40 bf 7b 52 41 32 f3 23 41
       14.746907 3.2537878 13.155211 10.246874
000190 32 b4 86 3e 0b 12 c2 41 b4 2f 8e 3f 6c 8e b1 41
       0.26309353 24.25881 1.1108308 22.194542
0001a0 0e 97 be 41 51 14 97 41 42 0c 9b 3f 2c 68 a7 41
       23.823757 18.88492 1.2113116 20.925865
0001b0 e0 5e c3 3f 66 d5 a0 41 d8 bb b6 41 ef 9e c2 41
       1.5263329 20.104198 22.84172 24.327604
0001c0 81 0d 6a 42 30 e7 58 42 40 be 40 40 ad 36 13 42
       58.513187 54.22577 3.011612 36.803394
0001d0 74 81 fe 3e b4 62 36 42 75 b7 d0 40 ca 13 fd 3e
       0.4970814 45.59639 6.5223947 0.4942916
0001e0 76 39 2b 42 c3 14 de 40 ad 88 c5 41 ee fe 66 3f
       42.806114 6.9400344 24.691736 0.9023274
0001f0 66 51 9f 41 1d ec 45 40 58 f4 44 40 8d 65 b6 41
       19.914745 3.0925362 3.0774136 22.799585
000200 22 cf bc 41 05 4d b8 41 60 2a c7 41 10 5b 3f 40
       23.60114 23.037607 24.89569 2.989933
000210 8b fe 9f 41 f1 c3 f7 3f e2 20 0c 3f 2c 86 22 3f
       19.999289 1.9356672 0.54737675 0.6348598
000220 76 d9 5f 41 6d 9b db 40 27 41 0a 42 9a f9 87 41
       13.990591 6.862723 34.563625 16.996876
000230 fa f8 a3 41 97 d4 11 41 14 36 39 3a bf 40 e7 41
       20.49657 9.114402 0.0007065248 28.906614
000240 bd 4c eb 3e a0 e2 90 42 14 1b 08 40 48 cb 09 42
       0.45956984 72.44263 2.1266527 34.448517
000250 af 88 b1 3e 10 1f 83 40 af 8d c8 3f ca 7f 16 42
       0.34674594 4.097542 1.5668238 37.624794
000260 4b 42 0b 42 30 31 c5 3e 13 46 18 42 ab 2a f3 41
       34.81474 0.3851409 38.06843 30.395834
000270 cc 8d 14 3f 4b ee c7 3d cb 02 24 42 46 79 0d 41
       0.58028865 0.09762248 41.002728 8.842108
000280 24 73 6a 40 38 ef 01 41 f8 6d ed 40 c8 4e 5f 3f
       3.6632776 8.120903 7.419674 0.87229586
000290 a9 12 0b 42 28 cb f1 3f 63 d2 37 41 c6 4a d4 3e
       34.768223 1.8890123 11.488864 0.41463298
0002a0 0c 67 e8 3f e7 3a 78 40 1c 15 4b 41 48 0b 7b 41
       1.8156447 3.878595 12.692654 15.690254
0002b0 63 02 b9 40 c4 41 76 41 03 ad d4 41 25 12 04 40
       5.7815413 15.391056 26.584478 2.0636075
0002c0 b6 87 2c 40 91 cd 87 40 26 76 f5 40 2b b1 8c 41
       2.6957831 4.2438436 7.6706724 17.586508
0002d0 d1 5f be 41 23 56 15 40 65 72 b3 41 db 86 4e 41
       23.796785 2.3333824 22.430857 12.907924
0002e0 7d 40 94 3f d5 3c e7 3e f5 a7 95 3f e0 08 a2 41
       1.158218 0.451636 1.1691881 20.254333
0002f0 9b 20 b3 41 9e a1 61 41 84 83 12 3f 50 57 24 40
       22.39092 14.101957 0.57231927 2.5678291
000300 6d 84 d3 3f 85 7f 23 42 79 61 d9 3f 16 77 19 42
       1.6524788 40.87453 1.6982871 38.366295
000310 0d c9 c3 41 8c d5 a8 2a 1a 23 17 40 b9 21 de 41
       24.47317 2.9990973e-13 2.3615174 27.766466
000320 58 d0 cd 3e bd 0b 8b 41 a4 79 13 42 e8 1b fa 41
       0.40198016 17.380732 36.86879 31.263626
000330 2a 3f 10 40 02 42 35 40 53 5b 70 40 59 57 3b 41
       2.2538552 2.8321538 3.755574 11.708825
000340 ad ed ea 40 dd d8 03 3e 36 00 44 41 5f f4 b2 40
       7.341513 0.12875696 12.2500515 5.5923305
000350 18 27 2e 41 55 8c 8f 40 46 b4 8f 40 49 08 41 40
       10.884544 4.4858804 4.490756 3.0161307
000360 6b 4f 10 41 57 97 9f 40 44 be 94 41 82 64 f5 40
       9.019389 4.987224 18.592903 7.668519
000370 c7 93 d8 3f 89 4e 5e 41 fb 58 dd 3f 70 73 16 42
       1.6920098 13.894174 1.729278 37.612732
000380 74 52 d7 41 10 d8 ce 41 8a 78 a1 41 eb 3a 7e 41
       26.91526 25.8555 20.183857 15.889384
000390 f8 0e cd 41 74 73 5a 41 e2 1a 54 40 db 63 3d 41
       25.632309 13.653187 3.3141408 11.836879
0003a0 38 60 60 3f e6 59 2f 41 e2 67 b0 40 fd ca 9c 41
       0.8764682 10.959448 5.512681 19.599115
0003b0 69 86 7a 41 d2 bc be 41 7f 58 30 40 3a 66 c9 3f
       15.657815 23.842197 2.7554014 1.5734322
0003c0 7b c4 30 40 5a 79 37 42 73 2e d4 42 2c a5 45 40
       2.7619922 45.868507 106.09072 3.0882063
0003d0 df ed 9a 41 0b 3f 5a 40 1c 1b ca 40 aa 1d 7d 41
       19.366148 3.4100978 6.3158092 15.819742
0003e0 c2 41 ef 41 8f 7c 54 40 03 bd 35 41 4a 42 05 40
       29.907108 3.3201025 11.358645 2.082171
0003f0 c2 22 95 3f 37 6d 4f 41 58 df 88 41 87 4e db 40
       1.1651232 12.964164 17.109055 6.853336

fc2.weight f4 [128, 256]
000000 4f 22 87 3b fa e1 cb 3c fd 70 f8 3d 70 8d 1b 3e
       0.004123963 0.024888027 0.12130926 0.15190673
000010 4d cb ed 3d bf 2d 50 bd 30 46 3c bc 7c bb 5b 3d
       0.11611042 -0.050824877 -0.011491343 0.053645596
000020 ed 92 d2 3d 47 ea 18 3d a8 6f 98 be fa 4f 51 3e
       0.1028193 0.0373328 -0.29772687 0.20440665
000030 ea 2d 3c be 59 06 17 3e 23 18 ac bd 2c c0 3e bd
       -0.1837689 0.14748515 -0.08403041 -0.046569988
000040 c4 2e d6 3d 4c 60 8a 3e f5 80 dc bd b2 7f 90 bd
       0.104581386 0.27026594 -0.10766784 -0.07055606
000050 54 e9 1a 3e 67 89 77 bd 4b 18 cd 3d 09 73 7d 3d
       0.1512807 -0.06043377 0.10014399 0.061877284
000060 56 bf b2 be 3a 78 de bd 80 69 92 3c 55 92 79 bd
       -0.34911603 -0.10862775 0.017872572 -0.06093057
000070 a5 63 a2 3d 07 a2 94 bd 06 82 5e be 94 d6 18 3e
       0.07929162 -0.07257467 -0.21729288 0.14925605
000080 ba 0b ee bc 3e 6c 1e be 33 7b 83 bd c7 35 22 3e
       -0.029058326 -0.15470979 -0.06419983 0.15840827
000090 7f fd 14 bf f1 6b 50 bc 4f 66 33 be 64 5b 98 bb
       -0.58199304 -0.012721048 -0.17519496 -0.0046495665
0000a0 58 d4 27 be 17 0c 81 be 7b 47 45 be 65 39 0b bf
       -0.16389596 -0.25204536 -0.19265549 -0.5438445
0000b0 7e 35 92 bd 77 15 96 3d 9e 79 6d be 0f 90 95 3b
       -0.07139109 0.07328313 -0.23190925 0.0045642923
0000c0 20 50 a8 3d b3 af a0 3d 61 e5 8b bd 4a c3 b4 3d
       0.08218408 0.07846012 -0.0683086 0.08826311
0000d0 39 83 0a be f6 a2 0d bb df 04 62 bd 2a 7f 86 bb
       -0.1352662 -0.0021612025 -0.055180427 -0.0041045146
0000e0 68 c1 c1 bc 0d b4 c5 bc ca 75 fb bc fa 93 52 be
       -0.023651794 -0.024133706 -0.030695815 -0.20564261
0000f0 37 33 99 bd f1 3f dd bc 1f 01 79 be 6f 39 4b 3d
       -0.074804716 -0.027008029 -0.24316834 0.04961532
000100 2a da 68 bd a6 d2 9f 3e 1c 27 d9 3c 31 3e a4 3c
       -0.056848682 0.312154 0.026507907 0.020049186
000110 da cf 69 be b9 ee ab bd f0 f9 01 be f4 13 36 be
       -0.22833195 -0.08395142 -0.12693 -0.17781049
000120 ef e6 10 bd fc 3a 95 bd 5a b1 f0 3d c6 91 c3 3d
       -0.035376485 -0.07286641 0.11752577 0.095492885
000130 c0 c8 9c bc 4a 8d c4 3e f9 6d a4 3c ed 80 f9 3d
       -0.019138694 0.38389045 0.02007197 0.12182794
000140 ce b1 3c be e9 14 83 bd 6f 6f b5 3d 79 b3 e6 3c
       -0.18427202 -0.06400473 0.08859145 0.028161751
000150 1a ad 0b 3e 8f 90 86 3c 49 50 2e be 2c 97 50 be
       0.13640252 0.016426353 -0.17022814 -0.20370167
000160 bc d3 bf 3d 8a dd d5 be bd cc 01 3d e2 bd 82 3d
       0.09366557 -0.41770583 0.031689394 0.063838735
000170 a8 8d 5b 3e 75 6a 9e 3c ac 06 4b bd fb b6 1b be
       0.21440756 0.019337872 -0.04956691 -0.1520652
000180 5f 95 91 bd ba f2 da 3d da ed 87 3d 8d f6 38 3e
       -0.071085684 0.10690828 0.066371635 0.18062802
000190 46 a9 13 3e 29 6c 9e bd cb e3 97 bd 67 de 02 3d
       0.14420041 -0.07735474 -0.07416495 0.03195038
0001a0 e3 83 ac bc 30 e9 38 3d 54 63 1f 3d 36 12 a9 bc
       -0.021058982 0.04514426 0.038913086 -0.020638566
0001b0 b1 b4 c3 3d 74 cc fb 3c 8b a9 88 be a7 98 9c 3d
       0.095559485 0.03073714 -0.2669185 0.076463036
0001c0 b6 75 f6 bb ad 95 6f bc 2f 66 8e be 25 27 3b bd
       -0.0075213565 -0.014623088 -0.27812335 -0.045691628
0001d0 42 72 a8 bc 87 db d0 3b 9b 75 ca 3d a8 4b 3e be
       -0.020562295 0.006373826 0.09885713 -0.18583548
0001e0 c6 f1 63 3e b0 5c a2 be 8e c2 c0 be 2b 2d 89 3d
       0.22260198 -0.3171134 -0.37648433 0.06698068
0001f0 04 f2 8b bd d8 0d 7c be aa a7 b1 be db 65 c8 bb
       -0.0683327 -0.24614656 -0.3469823 -0.0061156577
000200 f9 28 0e be 48 92 63 be 33 35 5e 3d 34 48 9d 3d
       -0.13882817 -0.2222377 0.054249953 0.07679787
000210 dd 34 46 3d 47 4d a7 bd 26 dc 12 be 29 da 1a bd
       0.048390258 -0.08169036 -0.14341792 -0.03780571
000220 61 0a 28 3e 21 5d c8 3e 3e ea 00 be aa a2 95 bd
       0.16410209 0.39133552 -0.12589356 -0.07306416
000230 62 3b 81 bd a7 8b 63 be 1e 79 d5 3c bf cf 96 bc
       -0.063101545 -0.22221242 0.02605873 -0.018409608
000240 74 df 12 be 79 62 27 bd a1 bc 12 3d c1 3e e4 3d
       -0.14343053 -0.040865395 0.03582442 0.11144782
000250 f8 a0 78 3d eb e7 e6 3d 14 5a 84 bd d3 55 c5 3d
       0.060700387 0.112747036 -0.064624935 0.0963551
000260 06 a3 54 3e 47 45 0a 3e fd 52 2b 3e 3f 6b 85 bb
       0.20765314 0.1350299 0.16730876 -0.0040716226
000270 41 d8 74 bd e3 83 2c bd c4 79 ad 3d 62 fb 36 3a
       -0.05977655 -0.042117964 0.084704906 0.0006980208
000280 28 27 e2 bc aa a4 2b be 11 2c 8a bd c7 9c 87 be
       -0.027606562 -0.16762033 -0.06746686 -0.264868
000290 87 fa 31 be ca 95 05 be b4 ac 8f 3c 8f 97 48 be
       -0.17380725 -0.13045421 0.017538406 -0.19589065
0002a0 7f d8 cd bd 7c 63 50 be bd 23 39 bd 73 c4 ef bd
       -0.10051059 -0.2035045 -0.0452001 -0.117073916
0002b0 c2 42 8a 3c 3b cb 5e bd 79 5d 01 ba 7c 9a 24 bd
       0.016877536 -0.054393034 -0.0004934888 -0.04018639
0002c0 98 d0 8d bd 5c 82 a0 bd e8 eb 20 3c a7 b4 05 be
       -0.06924552 -0.07837364 0.009821869 -0.13057195
0002d0 ab a7 32 3d cf c1 f6 bd 6e ab 3f bc 84 9a 0f 3d
       0.043616932 -0.12048685 -0.011698587 0.035059467
0002e0 87 26 b4 bd 7d 6d 43 be 34 43 59 bd c1 f0 4d 3c
       -0.08796411 -0.19084735 -0.053042606 0.012569607
0002f0 1e 61 41 3d ca 0d 3d be ac c5 12 3d 14 85 53 be
       0.04721176 -0.18462291 0.035833046 -0.20656234
000300 8a b4 16 3d 86 07 c5 bd f4 38 39 be 0a e5 6b bd
       0.03679327 -0.096205756 -0.18088132 -0.057591476
000310 9c e0 82 3c 09 84 45 bd 93 6f ab bd cb 6a d7 3c
       0.015976243 -0.04822162 -0.083708905 0.02629604
000320 23 cd 49 3d a7 a4 f1 3c d4 a6 62 be 81 6e 3c 3e
       0.0492679 0.029497458 -0.22133952 0.18401529
000330 12 49 ac 3e 20 66 db bc 04 90 35 bd 9f 27 76 bd
       0.33649498 -0.026782095 -0.044326797 -0.06009638
000340 74 3b a2 3d 16 60 e8 3e 70 aa 4a 3e a7 86 dc 3c
       0.07921496 0.45385808 0.19791579 0.026919676
000350 dd 37 09 3e 6d 73 65 be 19 bb d2 bd f0 09 28 be
       0.13400216 -0.22407313 -0.10289592 -0.16410041
000360 49 42 a1 3d e3 b5 99 3c 85 4f 8b be 23 67 7d 3c
       0.07873971 0.018763488 -0.27209106 0.015466484
000370 75 83 de ba 63 a3 83 3d d5 c0 5f be 03 6b 18 be
       -0.0016976433 0.06427648 -0.21850903 -0.14884572
000380 de a9 97 bc 04 8b 06 3e 6b 52 d5 bd d1 ce c0 3d
       -0.018513616 0.13138968 -0.104161106 0.09414447
000390 81 fa b9 3c a9 34 af be c9 1b 9d bc 7b cf 1a 3e
       0.022702457 -0.34219864 -0.019178288 0.1511821
0003a0 c9 cb d1 bd c8 86 db 3c 1e c3 c5 3d 0c bf ea 3d
       -0.10243947 0.026797667 0.09656356 0.114622205
0003b0 1f 27 65 be bf e8 70 3d 63 ff 68 3e 4b 2e 0d 3e
       -0.22378205 0.058815714 0.22753672 0.1378719
0003c0 47 56 d1 bd a7 39 2e bd e1 63 ef 3c b4 24 e0 3d
       -0.10221534 -0.04253545 0.02922243 0.109445006
0003d0 44 e5 32 3d 1e c1 40 be cc 11 7c 3d cc bd 05 3d
       0.043675676 -0.18823668 0.06154041 0.032651708
0003e0 62 10 f0 3c a6 07 5d 3e 66 82 83 3c 82 72 7f be
       0.029304687 0.21584949 0.01605339 -0.24946025
0003f0 4b dc 9a bd 15 39 95 bd b2 9c 49 be 42 36 97 bd
       -0.07561549 -0.07286278 -0.19688681 -0.07383396
