checkpoint_critic_0.pth (torch_old, 191952 bytes, 9 tensors)

fc1.weight f4 [256, 52]
0	0x3ea6c53f	0.32572362
1	0x408ca4b9	4.3951077
2	0x3d08b2f0	0.033373773
3	0x3f07ae57	0.53000396
4	0x3e89dd43	0.26926622
5	0xbfb8a6aa	-1.4425862
6	0xbd8d804a	-0.06909235
7	0x3f1d0053	0.6132862
8	0x3f327dd7	0.69723266
9	0x40aa1253	5.314737
10	0xbd8fe63c	-0.070263356
11	0x3f35946d	0.70929605
12	0x3e87540b	0.26431307
13	0x3f32813d	0.6972845
14	0xbd337803	-0.043815624
15	0x3f27ca2d	0.6554287
16	0x3f9b4494	1.2130303
17	0x40bcf4f4	5.9049015
18	0xbdd440ef	-0.103639476
19	0x3bb9d370	0.0056709573
20	0x3f288ce7	0.6584
21	0x4011ba14	2.2769823
22	0xbceab7a2	-0.028652016
23	0xbdc58e20	-0.09646249
24	0xbf548f6e	-0.83031356
25	0x403f364e	2.9876895
26	0x3da7949a	0.081826404
27	0xbf084a8e	-0.5323876
28	0xbe78e2e0	-0.24305296
29	0xbfb2a449	-1.3956386
30	0x3da14b07	0.078756385
31	0xbf0077ee	-0.50183
32	0x3edba4a6	0.42899054
33	0x404e2c9d	3.221473
34	0xbd0ee8a0	-0.034889817
35	0x3f777b28	0.96672297
36	0xbe410d2f	-0.18852685
37	0x3f25a410	0.64703465
38	0x3c355ff5	0.011070241
39	0x3f639ed3	0.8891422
40	0x3f95a680	1.1691437
41	0x4085ba5d	4.1789994
42	0xbe7115be	-0.2354345
43	0x3fe5778e	1.792711
44	0xbf0fa1f6	-0.5610651
45	0x4012c9bb	2.2935627
46	0xbe0c06ad	-0.13674422
47	0x3fe802f3	1.81259
48	0xbf7e57fa	-0.9935299
49	0xbe9095cb	-0.28239283
50	0xbfb9edcb	-1.4525694
51	0x3f0bbfc3	0.5458948
52	0xbdd661aa	-0.10467847
53	0x3fcf5860	1.6198845
54	0xbe0ba732	-0.13637999
55	0xbeb6cec2	-0.3570462
56	0x3e43bcb5	0.19114955
57	0x3fcd8d51	1.6058751
58	0xbdd0f03d	-0.10202072
59	0xbebb37e7	-0.36566088
60	0xbdf71bd0	-0.12065852
61	0x3fbfdba6	1.4988906
62	0xbda371be	-0.07980679
63	0xbf375be4	-0.7162459
64	0x3e1053b4	0.1409443
65	0xbf1bffa6	-0.60936964
66	0xbdd14c46	-0.10219626
67	0xbf4befd8	-0.7966285
68	0xc06d171a	-3.704535
69	0x3eeed2b3	0.46645126
70	0xbe02e657	-0.1278318
71	0x403810d2	2.8760266
72	0xbf8a6701	-1.0812684
73	0xbf1a9c9b	-0.6039521
74	0xbdb45845	-0.088058986
75	0x403c7eef	2.9452474
76	0x3ed893da	0.42300302
77	0xbf32a012	-0.697755
78	0xbda83886	-0.08213906
79	0x3f24cd89	0.6437612
80	0xbe7e9e61	-0.24865104
81	0x3fc8c79b	1.5685915
82	0xbd23442a	-0.03985993
83	0x3f13d618	0.57748556
84	0x3faff97a	1.3748009
85	0x3e2239e2	0.15842393
86	0xbd055158	-0.03254828
87	0x3e28969b	0.16463701
88	0xbda07bc7	-0.07836109
89	0xbf182ea4	-0.5944617
90	0x3c9dea9e	0.019276913
91	0x3e72d2b2	0.23713186
92	0x3eeaeabe	0.4588222
93	0xbf78620b	-0.970246
94	0x3ba38a41	0.0049908464
95	0x3f30ef0b	0.6911475
96	0x3f88e9f5	1.0696398
97	0xbf1e1d15	-0.61763126
98	0xbd1561e7	-0.03647032
99	0x3f4056a5	0.7513221
100	0xc137e73e	-11.493956
101	0x3ca12081	0.01966882
102	0x3f58fe47	0.84762996
103	0xbeea9d30	-0.4582305
104	0x3fa0ca42	1.2561724
105	0xbf826483	-1.0186924
106	0xbec18e85	-0.37804046
107	0xbf654ac7	-0.89567226
108	0x3df117ef	0.11772143
109	0xc0593069	-3.3935797
110	0xbeb260f1	-0.34839585
111	0xbf688700	-0.90830994
112	0x3ee0b736	0.4388978
113	0xc02d6e89	-2.7098715
114	0xbe3d6d93	-0.1849883
115	0xbe91e50d	-0.28495064
116	0x3e527b29	0.20554794
117	0xbf5fb4d7	-0.87385315
118	0xbe02d920	-0.12778139
119	0xbe9bde0a	-0.3044284
120	0x3f071f2a	0.5278193
121	0xc07f1a41	-3.9859774
122	0xbe348604	-0.17629248
123	0xbf967aa6	-1.1756179
124	0x3e8186ea	0.25298244
125	0xbcba5a4c	-0.022748135
126	0xbe07a2d0	-0.13245702
127	0xbf8d17ff	-1.1022948
128	0x3f334a26	0.70035017
129	0xbdf04b1e	-0.117330775
130	0xbea2c943	-0.31794176
131	0x3edade8a	0.4274791
132	0xbe168679	-0.14699735
133	0xc05e3df2	-3.4725308
134	0xbeb5f394	-0.35537398
135	0x3edecd3d	0.4351596
136	0xbbca3c1c	-0.0061717164
137	0xbf52af83	-0.8229906
138	0xbe2dd681	-0.16976358
139	0x3f70cabf	0.94059366
140	0xbe897f94	-0.26855147
141	0xbf696d63	-0.91182536
142	0xbe2affb3	-0.16699104
143	0x3f854d8b	1.0414289
144	0x3eb475eb	0.35246214
145	0xbf5cf18e	-0.86306083
146	0x3edd3385	0.4320337
147	0x3e13a50c	0.14418429
148	0xbe62bf9b	-0.22143404
149	0x3ccfa546	0.025347363
150	0x3ecb3b23	0.39693555
151	0x3e10b40e	0.14131185
152	0x402c33f2	2.6906705
153	0x4034cfea	2.82519
154	0xc0702ac8	-3.7526112
155	0xbf0def1e	-0.5544299
156	0x3fc5d569	1.5455753
157	0x3d80a9c7	0.062823825
158	0xbe890466	-0.26761168
159	0x3d955a62	0.0729263
160	0x3ba4ba39	0.0050270823
161	0xc05465ed	-3.318721
162	0xbe96f111	-0.29480794
163	0x3d422787	0.047400977
164	0x3fbe77fe	1.4880369
165	0xbc0da903	-0.008646253
166	0x3ca07f78	0.019592032
167	0xbe3f3577	-0.18672739
168	0x3e004960	0.1252799
169	0xc0869e3d	-4.206816
170	0x3d13e9ff	0.036111828
171	0xbe57e33c	-0.21082777
172	0x3f90b399	1.1304809
173	0xbe741a0f	-0.23838066
174	0xbf0f8dd3	-0.5607578
175	0xbed6685b	-0.41876492
176	0x3cd67cea	0.02618261
177	0xc09fc392	-4.9926233
178	0xbf0395c2	-0.5140039
179	0xbeb59ca3	-0.35471067
180	0x3ee06503	0.43827066
181	0xc019a11c	-2.4004583
182	0x3e2165e8	0.1576153
183	0xbe68c41d	-0.22731061
184	0x3db22e8b	0.087002836
185	0xc0523af0	-3.2848473
186	0x3ddf2009	0.10894782
187	0xbe3068fa	-0.17227545
188	0xbe11e982	-0.14249232
189	0xc00d03f6	-2.2033668
190	0xbe7415dd	-0.23836465
191	0xbdb27254	-0.087132126
192	0xbdaa72c2	-0.083226696
193	0xc086921e	-4.2053366
194	0xbe9eff5c	-0.310542
195	0xbd34a8b4	-0.0441062
196	0x3dc1b014	0.09457412
197	0xc004abab	-2.0729778
198	0xbda04855	-0.07826296
199	0x3f2815a9	0.6565805
200	0xbd2d63cd	-0.042331506
201	0xc0a00ff7	-5.001949
202	0xbd385e5e	-0.04501187
203	0x3f286b0f	0.6578836
204	0xc05b5b07	-3.4274309
205	0x40370819	2.8598692
206	0xbf897119	-1.073764
207	0xbfd2f980	-1.6482391
208	0x3fa4ed64	1.2884946
209	0x3fec08e7	1.8440217
210	0xbd5b288e	-0.053505473
211	0x3e86ea42	0.263506
212	0x3ea0fc24	0.31442368
213	0xbf96d51d	-1.1783787
214	0x3d3a5b00	0.04549694
215	0x3e3d3bf0	0.18479896
216	0x3fa34f7a	1.2758629
217	0x3ffcfd46	1.9764793
218	0xbe344bad	-0.17606993
219	0x3ea0dd4c	0.31418836
220	0x3e6d137b	0.23151962
221	0xbf9f0d01	-1.2425843
222	0xbe09ae88	-0.13445485
223	0x3e732323	0.23743872
224	0x3f82f12f	1.0229853
225	0x3ec7f884	0.3905679
226	0xbcb17949	-0.021664279
227	0xbf1ad9fb	-0.6048886
228	0xbe1223d3	-0.14271478
229	0x3f06308b	0.5241782
230	0xbd7504d6	-0.059819065
231	0xbf182382	-0.5942918
232	0x3ecf514d	0.40491715
233	0x3f14e2a4	0.58158326
234	0xbe872185	-0.2639276
235	0x3f29425e	0.66116893
236	0xbe8bff23	-0.2734309
237	0xbf938f98	-1.1528196
238	0xbea3ce22	-0.31993204
239	0x3f450beb	0.7697131
240	0x3f137e45	0.57614547
241	0x3f801e15	1.000918
242	0x3e9397e8	0.28826833
243	0x3c93c314	0.018037356
244	0xbe9c0af8	-0.30477118
245	0xbfa25b9a	-1.2684205
246	0x3e843bc6	0.25826854
247	0x3d20b7bb	0.03923772
248	0xbdedc702	-0.11610223
249	0xbee68bea	-0.4502862
250	0xbe9773e7	-0.29580614
251	0xbfe50d78	-1.7894735
252	0x3da50236	0.08057062
253	0x3f042032	0.51611626
254	0xbe7933cb	-0.24336164
255	0xbfdc5604	-1.721375

fc1.bias f4 [256]
0	0xc05a806e	-3.4140887
1	0xbfec473b	-1.8459238
2	0xbfbc8f3e	-1.4731214
3	0xbfbaf17c	-1.4604945
4	0xbf7a42fc	-0.9775846
5	0xbf1ce6f5	-0.6128991
6	0xc01866d0	-2.3812752
7	0xbfeb7f7e	-1.8398283
8	0xc06367ca	-3.5532098
9	0xbf1dc754	-0.61632276
10	0xbf900782	-1.1252291
11	0xbf7c38f1	-0.98524386
12	0xbf18f7bf	-0.5975303
13	0xbf9e826c	-1.2383552
14	0xbf17c655	-0.59287006
15	0xbeb7407c	-0.35791385
16	0xbea07ae7	-0.31343767
17	0xbebefdf1	-0.37303117
18	0x400d1df7	2.204954
19	0xc0190cf8	-2.3914165
20	0xbf840d15	-1.0316492
21	0xbf51ccbf	-0.8195304
22	0xbedff87e	-0.43744272
23	0xbf1cf5b0	-0.6131239
24	0xbef7b8b0	-0.48383093
25	0xbfd1a227	-1.637761
26	0xbdf2368c	-0.1182681
27	0xbf832ac1	-1.0247422
28	0xbfa6b26c	-1.30232
29	0xbf885746	-1.0651634
30	0xbf850760	-1.0392876
31	0xbfaa2bf0	-1.3294659
32	0xbf309674	-0.68979573
33	0xbfc86255	-1.5655009
34	0xbff5eab8	-1.9212255
35	0xbf804b97	-1.0023068
36	0x3fb9e51e	1.4523046
37	0xbf4f3f19	-0.80955654
38	0xbf57f01d	-0.8435076
39	0xbf6e4aeb	-0.93083066
40	0xc00be782	-2.186005
41	0xbfcb521d	-1.5884434
42	0xbf1799a8	-0.59218836
43	0xbf1bec8d	-0.6090782
44	0xbfa847b9	-1.3146888
45	0xbf6a6a84	-0.9156878
46	0xbf53635d	-0.8257349
47	0xbf25414a	-0.6455275
48	0xc03d1c35	-2.9548466
49	0xbf788275	-0.9707406
50	0xbfd6b6dd	-1.6774555
51	0xbf090097	-0.53516525
52	0xbfcb1540	-1.586586
53	0x3e226613	0.1585925
54	0xbffeccdb	-1.9906267
55	0xbf083b1a	-0.5321518
56	0xbe5cb066	-0.21551666
57	0xbef97ec8	-0.4872954
58	0xbe229cf0	-0.1588018
59	0xbf0a566d	-0.54038125
60	0x3de269c2	0.11055328
61	0xc0152be2	-2.3308034
62	0xbf434a62	-0.76285374
63	0xbfcd1ce5	-1.6024443
64	0xbf14eb3b	-0.58171433
65	0xbf744ad6	-0.9542669
66	0xbfe63320	-1.7984352
67	0xbed425cc	-0.41435087
68	0xbf154d25	-0.5832084
69	0xbf1ad953	-0.6048786
70	0xbebe2487	-0.37137243
71	0xbef1a0b3	-0.47192916
72	0xbf92236b	-1.1417059
73	0xbf0122d0	-0.50443745
74	0xbf4346c1	-0.76279837
75	0xbfb312f8	-1.3990164
76	0xbf691ced	-0.9105976
77	0xbfd1f4e6	-1.6402862
78	0xbf53728f	-0.8259668
79	0xbf6a7801	-0.9158936
80	0xbf92370d	-1.142305
81	0xbf91e67c	-1.1398463
82	0x3e87a047	0.2648947
83	0xbfafe461	-1.3741571
84	0xbf0df35a	-0.5544945
85	0xbf34a521	-0.70564467
86	0xbf220bad	-0.63299066
87	0xc0064df6	-2.0985084
88	0xbf611686	-0.87924993
89	0xbf5f4542	-0.87215054
90	0xc07da4d7	-3.963186
91	0xbf4c79c8	-0.79873323
92	0xbf4393d1	-0.76397425
93	0xbea67d7c	-0.32517612
94	0xbf93b5a5	-1.1539809
95	0xbefd6eb0	-0.4949851
96	0xbf8ad044	-1.0844808
97	0xbf53e944	-0.8277781
98	0xbeee34e9	-0.46524742
99	0xbed295d8	-0.41129947
100	0xbf89577a	-1.0729821
101	0xbebc8a12	-0.3682409
102	0xbefc3806	-0.49261492
103	0xbf1192e7	-0.5686478
104	0xbf22044e	-0.6328782
105	0xbf7f89f8	-0.998199
106	0xbfcb40cc	-1.587915
107	0xc0070e5b	-2.1102512
108	0xc055f248	-3.3429127
109	0xc0176b14	-2.3659105
110	0xc002b614	-2.0423632
111	0xbea183ed	-0.31545964
112	0xbf9e9e7d	-1.2392117
113	0xbf900a45	-1.1253134
114	0xbf225906	-0.6341709
115	0xbf160df7	-0.5861506
116	0xbe47e653	-0.19521455
117	0xbf7c3715	-0.9852155
118	0xbf8d986a	-1.1062138
119	0xbebeceeb	-0.3726724
120	0xbf920d54	-1.1410317
121	0xbf42b064	-0.760504
122	0xbfe45711	-1.783907
123	0xbec78cf0	-0.38974714
124	0xbf3ad719	-0.7298446
125	0xbf84dcd8	-1.0379896
126	0x3f7c6ddf	0.9860515
127	0xbf6ac34c	-0.9170425
128	0xbf1c7de8	-0.6112962
129	0xbf41be70	-0.7568121
130	0x3f492353	0.78569525
131	0xbf491583	-0.7854845
132	0xbf9e84ed	-1.2384316
133	0xbea55196	-0.32288808
134	0xbf98d8b1	-1.1941129
135	0x3fb78816	1.4338405
136	0xbf47f299	-0.7810455
137	0xc0101c5b	-2.2517307
138	0xbf836489	-1.0265056
139	0xbf697964	-0.9120085
140	0xbf53920b	-0.8264472
141	0xbfb3ac0a	-1.4036877
142	0xbfee422b	-1.8613943
143	0xc01c7605	-2.4447033
144	0xbfa27dc7	-1.2694634
145	0xbf01082a	-0.5040308
146	0xbfa85326	-1.3150375
147	0xbf487832	-0.78308403
148	0xbf8ac047	-1.0839928
149	0xbf1f9706	-0.6233982
150	0xbf3e1b5c	-0.742605
151	0xc0259efd	-2.5878289
152	0xc0367e34	-2.8514528
153	0x3f18c0e9	0.5966936
154	0xbf212edb	-0.6296212
155	0xbf1f0f1a	-0.6213242
156	0xbf88c853	-1.0686134
157	0xbfe7a73b	-1.809791
158	0xbf26b5f5	-0.65121394
159	0xbf5eb564	-0.8699553
160	0xbf5f3424	-0.87188935
161	0xbf59f1d5	-0.8513463
162	0xbfc37786	-1.5270851
163	0xc000d892	-2.0132184
164	0xbfd7fdb6	-1.6874301
165	0xbf821a7f	-1.0164336
166	0xbf3480d6	-0.7050909
167	0xbef3fac2	-0.4765225
168	0xbff2a5ce	-1.895685
169	0xbf823c70	-1.0174694
170	0x3ab6b04e	0.0013938041
171	0xbfb21fa8	-1.3915911
172	0xbeba99f8	-0.36445594
173	0xbc936619	-0.01799302
174	0xbf15b08a	-0.584725
175	0x3c99bb37	0.018766029
176	0xbf5647c8	-0.8370328
177	0xbeac1bff	-0.3361511
178	0xc0866f75	-4.2011056
179	0x3b0b89cd	0.0021291852
180	0xbf4f400d	-0.8095711
181	0xbfa45af6	-1.2840259
182	0xbeede5bd	-0.4646434
183	0xbf0ac842	-0.5421182
184	0xbf07e750	-0.5308733
185	0xbead5792	-0.33855873
186	0xbf24596b	-0.6419894
187	0xbff008db	-1.8752702
188	0xbf165fbb	-0.58739823
189	0xbfe711b1	-1.8052274
190	0xbf6ec269	-0.93265396
191	0xbf25e186	-0.64797246
192	0xbf2a5c2b	-0.6654689
193	0xbf55efe2	-0.8356916
194	0xbf4fa3f7	-0.81109565
195	0x3f37812a	0.71681464
196	0xbefcd439	-0.49380663
197	0xbf1d06c6	-0.6133846
198	0xbf08f2bb	-0.5349538
199	0xbef30f87	-0.47472784
200	0xbf61c0d7	-0.88184875
201	0xbeba0dc7	-0.36338636
202	0xbf32de7f	-0.6987075
203	0xbfd92293	-1.6963676
204	0xbfec37df	-1.845455
205	0xc0599a3e	-3.4000392
206	0xbf3058d8	-0.68885565
207	0xbe5a8745	-0.21340664
208	0xbee106f5	-0.4395062
209	0xbfa78b4d	-1.3089386
210	0xbfcf34df	-1.618801
211	0xbee218c3	-0.44159517
212	0xbec38917	-0.3819053
213	0xbf1f9165	-0.6233123
214	0xbf84103b	-1.0317453
215	0xc0302813	-2.752446
216	0xbf61b8a3	-0.8817236
217	0xbf3e36aa	-0.7430216
218	0xbf2e3113	-0.6804363
219	0xbf6e6f6e	-0.9313878
220	0xbe83ff0a	-0.25780517
221	0xbfbc7442	-1.4722979
222	0xbeff71de	-0.4989156
223	0xc0463d08	-3.097475
224	0xbf253c36	-0.64545
225	0xc0163257	-2.3468225
226	0xbfbc801a	-1.4726593
227	0xbffd15f0	-1.977232
228	0xbf380dcb	-0.71896046
229	0xbf4f3154	-0.80934644
230	0xbf7a1fbe	-0.97704685
231	0xbf59efd3	-0.8513157
232	0xbe986831	-0.29766992
233	0xbfb34d48	-1.4007959
234	0xbf65314e	-0.8952836
235	0xbe94f90c	-0.29096258
236	0xbf3def2e	-0.74193084
237	0xbf8db591	-1.1071035
238	0xbf40b889	-0.7528158
239	0xbf095b8b	-0.5365531
240	0xbf9e9ee0	-1.2392235
241	0x3e94d034	0.29065096
242	0xbf1f30ce	-0.62183845
243	0xbf14898a	-0.5802237
244	0xbf26887a	-0.65051997
245	0x3d8e3183	0.06943037
246	0xbf4d7e9a	-0.80271304
247	0x3efe29cf	0.49641272
248	0xbf3439ce	-0.704007
249	0xbfd37f8b	-1.6523298
250	0xbf8a126a	-1.078687
251	0xbf0761f2	-0.5288383
252	0xbf1a1d91	-0.60201365
253	0x3d7b41d3	0.06134207
254	0xc065e60b	-3.5921657
255	0xc04e327b	-3.221831

batchnorm.weight f4 [256]
0	0x3e33d375	0.17561133
1	0x3e1906a9	0.14943947
2	0x3ceb0aa2	0.028691594
3	0x3de7e053	0.11322083
4	0x3d3574ea	0.04430095
5	0x3d2d19f7	0.04226109
6	0x3e4b9043	0.1987925
7	0x3e2a8b82	0.1665478
8	0x3e710f12	0.23540905
9	0x391c0cea	0.0001488213
10	0x3db9a35c	0.090643615
11	0xbd1c02f1	-0.038088743
12	0x3a9f032f	0.0012131686
13	0x3ce69a08	0.02814962
14	0xbbcdf135	-0.0062848576
15	0x3f1cfc53	0.61322516
16	0x3cd977b6	0.02654634
17	0x3c325e30	0.010886714
18	0xbf447619	-0.767427
19	0x3e468a83	0.19388776
20	0x3e0c6f88	0.13714421
21	0xbb8255b3	-0.0039775013
22	0x3c23d7b9	0.010000163
23	0x3b7ff743	0.0039057292
24	0xbc057003	-0.008144381
25	0xbd977dcb	-0.0739704
26	0x3e9c1718	0.3048637
27	0x3d862fa4	0.065520555
28	0x3dbf96dd	0.09354947
29	0x3dba7246	0.09103827
30	0x3e1da308	0.15394223
31	0x3b43b7e8	0.0029864255
32	0x3c12b0a8	0.008953251
33	0x3dd06233	0.1017498
34	0x3e2e800d	0.17041035
35	0xba68fbde	-0.0008887629
36	0x3effb325	0.49941364
37	0xbbba4d59	-0.00568549
38	0x3d4bf673	0.04979558
39	0x3ed84fd6	0.4224841
40	0x3e374a00	0.17899323
41	0x3e02f539	0.12788858
42	0x3c95b3b3	0.018274164
43	0xbcf91eed	-0.030410254
44	0x3e43496b	0.19070975
45	0x3d82adf0	0.06380832
46	0xbbe6f511	-0.007048257
47	0x39c7046f	0.0003795954
48	0x3f020a42	0.507969
49	0x3d37936b	0.044818323
50	0x3da65f94	0.08123699
51	0xb997171e	-0.00028818188
52	0x3ccb6b9e	0.02483159
53	0x3e397a25	0.18113
54	0xbbd8ff05	-0.0066221976
55	0x3bfe3e60	0.0077589005
56	0xbb29e9af	-0.002592664
57	0x3bf68900	0.007523656
58	0x3b5a28cd	0.003328848
59	0x3c68f627	0.014218844
60	0x3e6b572b	0.2298247
61	0x3e44239a	0.19154206
62	0xbc3997db	-0.011327709
63	0x3e9b9362	0.30385882
64	0x3ccc9294	0.024972238
65	0x3ba1c95a	0.004937333
66	0x3e13ae4b	0.14421956
67	0x3bd1a033	0.006397271
68	0xbb8ae075	-0.004238183
69	0xbc1421ce	-0.009041263
70	0x3e554181	0.20825769
71	0x3c352f03	0.011058572
72	0x3e994515	0.29935518
73	0x3d2dd1e0	0.04243648
74	0x3b5f6fae	0.0034093666
75	0x3ca8f658	0.020625278
76	0x3bae2984	0.0053150076
77	0xbd2b6b4c	-0.041850373
78	0xbdf8268d	-0.12116728
79	0x3a8d19d9	0.001076515
80	0x3e1030ef	0.14081167
81	0x3b3818c7	0.002809094
82	0x3e5ea5d6	0.21742949
83	0xbd804038	-0.06262249
84	0xbb213871	-0.0024600292
85	0x3d188493	0.037235808
86	0x3a28e615	0.00064429763
87	0x3e18163d	0.14852233
88	0xbd4e8b59	-0.05042586
89	0x3db30279	0.08740706
90	0x3e543b67	0.20725785
91	0x3d8bdb2e	0.068289146
92	0xbc9c357a	-0.019068468
93	0xbcb2272b	-0.021747192
94	0x3e2e036d	0.16993494
95	0xbce91d1c	-0.028456263
96	0x3c1ad8e3	0.009451124
97	0x3c3ad914	0.0114042945
98	0x3bc5f95d	0.0060416893
99	0xb96b5299	-0.00022442116
100	0x3d4459a8	0.047937065
101	0xbbbbf6bc	-0.0057362
102	0xbbbcaa48	-0.005757604
103	0x3b4515ab	0.003007273
104	0xbc9f34e1	-0.019434394
105	0x3ce3afd4	0.027793802
106	0x3e1b435c	0.15162414
107	0x3e004a4b	0.1252834
108	0x3e898927	0.2686245
109	0x3dd4b797	0.103865795
110	0xbefe20f8	-0.49634528
111	0x3e060bd0	0.13090444
112	0x3e32ea1f	0.17472123
113	0xbd22935e	-0.03969132
114	0x3defc770	0.117079616
115	0xbd0033c9	-0.031299386
116	0x3d1c84fc	0.03821276
117	0x3cc36283	0.023850685
118	0xbb340181	-0.0027466717
119	0x371395b7	8.796741e-06
120	0x3a0b08bb	0.000530373
121	0x3d3fc6cb	0.046820443
122	0xbe05703e	-0.13031098
123	0x3b95d79b	0.0045728213
124	0x3df6a1fd	0.120426156
125	0xbc4b5146	-0.012409514
126	0x3db0b8fe	0.086290345
127	0x3b3e941e	0.0029079984
128	0x3cb35b37	0.02189408
129	0x3d2c6a19	0.04209337
130	0x3e36c235	0.17847522
131	0x3c93a94e	0.018025067
132	0x3f4edcde	0.80805767
133	0xbd22d25e	-0.039751403
134	0x3c78836c	0.015168052
135	0x3ec21dce	0.37913364
136	0x3ab2e0dd	0.0013647337
137	0x3e80e05d	0.25171176
138	0x3dde7630	0.10862386
139	0x3e8f599a	0.27998048
140	0xbc2a93f6	-0.010411253
141	0x3e604d35	0.21904452
142	0x3e47a6a5	0.19497164
143	0xbd96c635	-0.07362024
144	0xbc4c8e62	-0.012485119
145	0x3d942c26	0.07234983
146	0x3e11f494	0.14253455
147	0x3d883012	0.06649794
148	0x3e3de207	0.18543254
149	0x3cad0617	0.021121068
150	0x3e5b15d0	0.2139504
151	0x3def521e	0.116855845
152	0x3e8d2e7c	0.27574527
153	0x3f8c10a9	1.0942584
154	0xbcac978c	-0.021068357
155	0x3c688adc	0.014193263
156	0x3cde86df	0.02716392
157	0x3e2c1588	0.16805089
158	0x3e9fc232	0.31202847
159	0x3cc34db7	0.023840768
160	0x3e2708cb	0.16311948
161	0x3e2efb24	0.1708799
162	0x3e140c76	0.14457878
163	0x3dfaa858	0.1223914
164	0x3c7315c7	0.014836735
165	0x3bb72f12	0.005590328
166	0x3bcbb4d6	0.0062166257
167	0x3d658448	0.056034356
168	0x3e0448e2	0.12918428
169	0x3e584e2d	0.21123572
170	0x3de009ec	0.109393924
171	0x3e7edf87	0.24889956
172	0xbbc64b3a	-0.006051448
173	0xbd10dc84	-0.03536655
174	0x3c994331	0.018708797
175	0xbc699374	-0.014256347
176	0x3de3b11f	0.111177675
177	0x3b5fabb6	0.0034129447
178	0x3e39ae57	0.18132912
179	0x3df2eb7c	0.11861321
180	0xbd4581c5	-0.04821946
181	0x3b50f782	0.0031885807
182	0xbc4ce280	-0.012505174
183	0x3d547eca	0.051878728
184	0xbd2d99ae	-0.04238289
185	0x3d34beb6	0.04412719
186	0x3de5a8b1	0.11213816
187	0x3e6f5020	0.23370409
188	0xbbbb910b	-0.0057240776
189	0x3f00be99	0.5029083
190	0xbc8d7e60	-0.017272174
191	0xbca65250	-0.020302922
192	0xbc3c8357	-0.011505923
193	0x3ca29ed6	0.01985113
194	0x3dd4da93	0.10393252
195	0x3eaf8029	0.34277466
196	0x3c186e8f	0.009303703
197	0x3c8406e2	0.016116563
198	0xbb87128f	-0.0041220854
199	0x3c5a2cbd	0.0133163305
200	0x3cfa5c93	0.030561721
201	0xbd323de8	-0.04351607
202	0xbb831f6d	-0.004001549
203	0x3e04efa4	0.1298204
204	0x3edcf20d	0.4315342
205	0x3eca4f60	0.39513683
206	0x3baca477	0.005268629
207	0xbb14c3df	-0.0022699756
208	0xbbe50799	-0.006989431
209	0x3da4a8c9	0.08040006
210	0x3d118b8b	0.03553347
211	0x3d4fa17a	0.050691105
212	0xbc26c95c	-0.010179844
213	0x3f0d126e	0.55106246
214	0xbd092721	-0.03348458
215	0x3e1fde9e	0.15612265
216	0x3b9a9e6b	0.004718592
217	0x3e2a99d8	0.16660249
218	0x3e87dcb0	0.2653556
219	0xbc0ecf4f	-0.008716418
220	0xbb88cb1c	-0.004174603
221	0x3e254e8c	0.16143245
222	0x3aad35b6	0.001321486
223	0x3f3dc91e	0.74135005
224	0x3c32e87c	0.010919686
225	0xbe77317c	-0.2413997
226	0x3e798f40	0.24371052
227	0x3e9000ad	0.28125516
228	0x3ea84364	0.32863915
229	0x3b4aefa8	0.00309656
230	0x3da6fb72	0.08153428
231	0x3cf97df6	0.03045557
232	0xbb8ccd93	-0.0042969673
233	0x3d2d594b	0.042321485
234	0x3dcb0fa0	0.099150896
235	0x3e25c7d8	0.16189516
236	0x3b10f519	0.0022118746
237	0x3df900d5	0.12158362
238	0xb9c00371	-0.00036623658
239	0x3be24d38	0.006906178
240	0xbd03ef63	-0.03221072
241	0x3f7e5d7f	0.99361414
242	0x3d666bd9	0.056255195
243	0x3def25ce	0.116771325
244	0x3dc16793	0.09443583
245	0x3a5575ed	0.00081428775
246	0xbbbcf757	-0.00576679
247	0x3e2bfbeb	0.16795318
248	0xbca179c5	-0.019711385
249	0x3ea0d34b	0.31411204
250	0x3dcf8aca	0.10133894
251	0xbc72722d	-0.014797729
252	0xbbc2f67d	-0.005949794
253	0xbb6b59ca	-0.0035911673
254	0xbe3405df	-0.17580365
255	0x3ed2beed	0.4116129

batchnorm.bias f4 [256]
0	0x3d80094f	0.062517755
1	0xbc96e607	-0.018420232
2	0x3c93dfe0	0.018051088
3	0x3ca59bdf	0.020215927
4	0x3b79c468	0.0038111452
5	0xbcba83f2	-0.022767995
6	0x3d1cc301	0.038271908
7	0x3d4285e4	0.04749097
8	0x3d96fdd6	0.07372634
9	0x3ba174d0	0.004927255
10	0x3c071cee	0.0082466435
11	0xbc49d152	-0.012317972
12	0xb9fb8487	-0.0004797319
13	0x3c151a8e	0.009100569
14	0xbb9ec8cf	-0.0048457156
15	0x3e855c71	0.2604709
16	0xbb78303e	-0.0037870551
17	0xbbc91085	-0.0061360025
18	0xbe8252a1	-0.25453666
19	0x3cf72b47	0.030172003
20	0x3ccd1cc0	0.025038123
21	0x3b046e8e	0.0020207497
22	0xbbfbdd94	-0.0076863263
23	0x3b835b51	0.0040086885
24	0x3be6076f	0.007019929
25	0xbc3895ae	-0.011266155
26	0x3da2bf10	0.079465985
27	0x3c82e104	0.015976436
28	0x3c8405f0	0.016116112
29	0x3c526775	0.012842049
30	0x3c8f61c3	0.017502671
31	0xbb3b19cb	-0.002854931
32	0x3a1244cc	0.00055797095
33	0x3cae8117	0.02130179
34	0x3c88e839	0.016712295
35	0x3b20a2aa	0.0024511018
36	0x3eca0f49	0.39464787
37	0x3a239129	0.0006239587
38	0xbb5f5a0f	-0.0034080779
39	0x3d803a5e	0.06261133
40	0x3d3e7335	0.04649659
41	0x3c43c683	0.011949184
42	0x39f12254	0.00045992678
43	0x3c853b00	0.016263485
44	0x3d083d85	0.033261795
45	0x3c94fba6	0.018186402
46	0x3b200a62	0.002442025
47	0x3aa2cae3	0.0012420084
48	0x3ed6484e	0.4185204
49	0x3be4987f	0.0069761868
50	0x3c22e0ab	0.00994126
51	0x3b8bce58	0.0042665415
52	0x3b350f5a	0.0027627558
53	0x3d80f57a	0.06296821
54	0xb9887376	-0.00026025967
55	0x3a8215be	0.0009924693
56	0xbbdc40a0	-0.006721571
57	0xbc7fabe5	-0.015604948
58	0xbb09da7d	-0.002103477
59	0x3c08fcd9	0.008361065
60	0x3c3589d4	0.011080224
61	0x3d04ff86	0.03247025
62	0xbaa3235e	-0.0012446453
63	0x3e47bb0b	0.19504945
64	0x3aa7b9bf	0.0012796446
65	0x3a72d941	0.0009263941
66	0x3d0d52ee	0.034502916
67	0xbb80142c	-0.0039086547
68	0xbb31b045	-0.0027113121
69	0x3babdc92	0.0052448
70	0x3d66baaa	0.05633036
71	0x3b6a345b	0.0035736773
72	0x3de64a5b	0.11244651
73	0x3b33fe63	0.0027464859
74	0xba840e7a	-0.0010075115
75	0x3bf98795	0.0076150396
76	0xbb67f699	-0.0035394786
77	0xbc8d3ae0	-0.017239988
78	0xbcf66b57	-0.03008048
79	0x3b4744b2	0.0030405936
80	0x3d1e1b8c	0.03860049
81	0x3af0befd	0.0018367466
82	0x3d265ce2	0.040615924
83	0xbb5e1890	-0.0033889152
84	0x3af6678d	0.0018799171
85	0x39a25d68	0.0003096864
86	0xbb430fb9	-0.002976401
87	0x3d3ef8cd	0.046623994
88	0xbc633bc8	-0.013869233
89	0x3d086b07	0.033305194
90	0x3d9d1441	0.07669879
91	0x3c29c0a1	0.010360868
92	0x3b18ced5	0.002331664
93	0xb9d6714d	-0.00040901676
94	0x3c24ea80	0.010065675
95	0x3cdb1ed9	0.026748108
96	0x3b0c22f9	0.002138315
97	0x3c1193a4	0.008885298
98	0x3b19f58d	0.0023492307
99	0xba55a996	-0.00081505754
100	0x3b223819	0.0024752675
101	0xbb20c2a0	-0.0024530068
102	0xbb1dc647	-0.0024074481
103	0x3c136056	0.008995136
104	0x3b887963	0.004164861
105	0x3bf7cdf6	0.0075623943
106	0x3cb6a4e0	0.022295415
107	0x3c5e0763	0.013551566
108	0x3cc145f9	0.023592936
109	0x3cacd8fe	0.021099564
110	0xbe6b8a80	-0.23002052
111	0x3c75beb9	0.014999085
112	0x3d2fc4c0	0.042912245
113	0xbc1b4030	-0.009475753
114	0x3c43effc	0.011959072
115	0x3b8da1de	0.0043222746
116	0x3c8b746a	0.017023284
117	0xba3c4dd3	-0.00071832276
118	0xbb05643f	-0.002035394
119	0x3adba9a6	0.0016758933
120	0x3b58a95c	0.003305993
121	0x3bf0d489	0.007349555
122	0xba815c56	-0.0009869437
123	0xbb841809	-0.0040311855
124	0x3bcafff7	0.006195064
125	0x3ac5690f	0.0015061217
126	0xbd3583ec	-0.044315264
127	0x3a329d34	0.0006813586
128	0x3bdfb8fc	0.006827472
129	0xbbececfa	-0.0072303982
130	0xbbef05e6	-0.0072944043
131	0x3b13e508	0.0022566933
132	0x3f293413	0.66095084
133	0xbc0239d2	-0.007948356
134	0xba9d1c60	-0.0011986606
135	0x3ed21663	0.41032705
136	0x3b4732eb	0.003039534
137	0x3dc32532	0.09528579
138	0x3c9280f1	0.01788375
139	0x3db615ef	0.08890902
140	0x3a8d0b53	0.0010760821
141	0x3d5ee3a6	0.05441632
142	0x3cf19325	0.02948911
143	0xbce59fdc	-0.028030328
144	0x3b161c66	0.002290511
145	0x3b86ed7b	0.0041176653
146	0x3cedb441	0.029016616
147	0x3d21bf64	0.039489165
148	0x3d157897	0.036491957
149	0xb9060294	-0.00012780196
150	0x3cf3f234	0.029778577
151	0x3cc4b287	0.02401091
152	0xbd477357	-0.04869398
153	0x3f6ccbe1	0.92498595
154	0xbb6ceb46	-0.0036150976
155	0x3bd6b839	0.006552723
156	0x3b9f1fcc	0.0048560854
157	0x3a1673c7	0.0005739298
158	0xbe22618e	-0.15857527
159	0xbbc2e054	-0.005947152
160	0xbbbd9bbd	-0.0057863877
161	0x3cd8d2d3	0.026467716
162	0x3d06d510	0.032918036
163	0x3cb8f260	0.02257651
164	0x3b2df6bc	0.002654477
165	0xbaaa77b0	-0.001300564
166	0x3bc90d1e	0.006135597
167	0x3b808128	0.0039216466
168	0x3c66167d	0.014043448
169	0xbe1fb9fd	-0.15598293
170	0x3c952dd9	0.018210338
171	0x3dd269f2	0.10274114
172	0x3c2e96b3	0.010656047
173	0x3a98f908	0.0011670897
174	0xbad6ba90	-0.0016382504
175	0xb9db3760	-0.00041812193
176	0x3c9f6d8f	0.019461421
177	0xbba71ed8	-0.0051001124
178	0x3c47ac8a	0.012187133
179	0x3ce2c575	0.027682045
180	0xbb370e7f	-0.0027932224
181	0xb9835a51	-0.00025053558
182	0xbbb919e1	-0.005648837
183	0x3c7388a1	0.014864118
184	0x3b1a9bbd	0.0023591362
185	0xbc683935	-0.0141737955
186	0x3ca01e69	0.01954575
187	0x3d8bfe38	0.06835598
188	0x3b43b0ff	0.0029860137
189	0x3dd5b3e8	0.10434705
190	0xbba9c228	-0.005180616
191	0x3c827fe5	0.015930125
192	0xbb986793	-0.004651019
193	0x3bb6ffda	0.005584699
194	0x3d27c5de	0.040960185
195	0xbd5328bb	-0.051552515
196	0xbc6b42cd	-0.014359188
197	0x3a8eba61	0.0010889285
198	0x3c1882c3	0.00930852
199	0x3ab487a4	0.0013773334
200	0x3ad012c2	0.0015874731
201	0xbc9fc07f	-0.019500969
202	0xb97346e5	-0.00023200696
203	0x3bf8a046	0.0075874655
204	0x3e2ec49d	0.1706719
205	0x3e0c146f	0.1367967
206	0xba1711f0	-0.0005762866
207	0x3bc45a99	0.0059922454
208	0x3b0dc376	0.0021631396
209	0x3bd8176c	0.006594589
210	0x3c809589	0.015696304
211	0x3f0f4f57	0.5598044
212	0x3bed6906	0.007245186
213	0xbca92072	-0.020645354
214	0xbb833fc9	-0.0040054065
215	0x3cd3e5cd	0.025866413
216	0x3a45ccde	0.0007545481
217	0x3d8508b7	0.06495803
218	0x3dc2bccc	0.095086664
219	0x3b84fcd8	0.0040584616
220	0x3b22553b	0.002477004
221	0x3d48a3ea	0.048984446
222	0xba633715	-0.00086675707
223	0x3ee9ae59	0.4564083
224	0xbb8d457f	-0.004311263
225	0xbdd110ac	-0.10208258
226	0x3d5050c7	0.050858285
227	0x3dc60cc8	0.096704066
228	0x3d92f40f	0.07175457
229	0x3ae6e7fd	0.0017616745
230	0x3c74eb27	0.014948643
231	0x3bd789fb	0.006577728
232	0xbbff6411	-0.0077939113
233	0x3b05ab0e	0.0020396146
234	0x3c5a3143	0.013317409
235	0x3d2f37c5	0.042777795
236	0xbadba121	-0.0016756394
237	0x3cda7e37	0.026671512
238	0xbb98ef5a	-0.004667205
239	0xba9806d3	-0.0011598713
240	0xbc0d65a0	-0.008630186
241	0x3f4d76f2	0.8025962
242	0x3c47f2b3	0.01220386
243	0x3cf32637	0.029681308
244	0x3c90b024	0.017662115
245	0xbb6d04ce	-0.0036166194
246	0x3b354054	0.002765675
247	0x3cf6787b	0.030086746
248	0x3c802df5	0.015646914
249	0x3d6526d5	0.055945236
250	0x3c1d1b55	0.009589036
251	0xb8d9dc76	-0.000103884304
252	0xbb79d6ac	-0.003812234
253	0x391eda8e	0.00015149472
254	0xbce4f232	-0.027947519
255	0x3e6aaf90	0.22918534

batchnorm.running_mean f4 [256]
0	0x4084b66c	4.1472683
1	0x418803c6	17.001842
2	0x3f5f50ce	0.87232673
3	0x3e5c6fed	0.21527071
4	0x3eeea410	0.46609545
5	0x412a5dd9	10.647912
6	0x40a4aa04	5.145754
7	0x40b1ff97	5.56245
8	0x406ae7e4	3.6704035
9	0x418a48bd	17.285517
10	0x3ff1ac3d	1.8880688
11	0x3e6410ba	0.22272006
12	0x40800755	4.000895
13	0x3fad1c35	1.3524233
14	0x3e9d78dc	0.3075627
15	0x40432d93	3.0496566
16	0x410bd7e7	8.740211
17	0x3fee2da9	1.8607684
18	0x3fe7629f	1.8076972
19	0x403eec71	2.9831812
20	0x406df455	3.7180378
21	0x409925ea	4.785878
22	0x3f099274	0.53739095
23	0x3edfaacb	0.43684992
24	0x40aa9842	5.331086
25	0x3d9d3f32	0.07678069
26	0x40d8fb75	6.7806954
27	0x3fb0e318	1.3819304
28	0x4115cf9f	9.363189
29	0x407406ad	3.8129075
30	0x41413488	12.075325
31	0x40573747	3.3627489
32	0x402bc849	2.6840994
33	0x3f9d14bc	1.2271953
34	0x3f9aec37	1.2103337
35	0x3ea94d05	0.33066574
36	0x4261d1dd	56.454945
37	0x3ffc737d	1.9722744
38	0x41208920	10.033478
39	0x3f2bafab	0.67064923
40	0x409e71ba	4.9513826
41	0x41514a39	13.080621
42	0x401cafe3	2.4482353
43	0x40a89eb2	5.269372
44	0x409cb5f2	4.89721
45	0x414ad5ae	12.677168
46	0x400d0d51	2.2039378
47	0x40bf5f50	5.980385
48	0x420cfb98	35.245697
49	0x3f9c28a3	1.2199901
50	0x40d879cf	6.764869
51	0x3f62c8fa	0.88587916
52	0x3f99cb5e	1.2015188
53	0x419fce4d	19.975733
54	0x3ef60785	0.48052612
55	0x4129cb0f	10.612075
56	0x40b1b094	5.552805
57	0x3fdd6b88	1.7298441
58	0x410604b0	8.376144
59	0x3f4730ce	0.77808845
60	0x40fd01ae	7.906455
61	0x3f6be7f0	0.92150784
62	0x3e805d74	0.250713
63	0x4193821c	18.43853
64	0x40362549	2.8460257
65	0x3ff9e632	1.9523375
66	0x3ff20c12	1.8909934
67	0x3e51b8ce	0.20480654
68	0x3eec9457	0.46206924
69	0x3f854de3	1.0414394
70	0x410d92bc	8.848324
71	0x417c157e	15.755247
72	0x4185c3e2	16.720646
73	0x3eadd531	0.33951715
74	0x40b1680e	5.543952
75	0x3ecf7f74	0.40526927
76	0x3fae39f8	1.3611441
77	0x3fea063b	1.8283151
78	0x413dd45a	11.864344
79	0x4006ae7f	2.1044004
80	0x40159b2c	2.337596
81	0x407e89c1	3.9771578
82	0x41af7388	21.931412
83	0x4004731e	2.0695262
84	0x3f82d473	1.0221084
85	0x3e5e50d9	0.21710528
86	0x410bf301	8.746827
87	0x419ed8dc	19.855888
88	0x3f3bdd1b	0.73384255
89	0x400bc1ab	2.1836956
90	0x409ebc46	4.9604826
91	0x401669b7	2.3502023
92	0x3ed9d228	0.4254315
93	0x3f780685	0.9688495
94	0x37a22f4f	1.9333935e-05
95	0x4066e52b	3.6077373
96	0x40028e3f	2.039932
97	0x40208e48	2.5086842
98	0x3f300254	0.6875355
99	0x3fab8c4a	1.3402188
100	0x40938e81	4.6111455
101	0x3f151e62	0.58249485
102	0x00000004	6e-45
103	0x40117789	2.2729208
104	0x3fa8be82	1.3183138
105	0x4014a1a6	2.3223662
106	0x3ff4a517	1.9112881
107	0x3f4c20d9	0.7973762
108	0x3f131766	0.5745758
109	0x3fc5a6e4	1.5441556
110	0x41059410	8.348648
111	0x40010669	2.0160162
112	0x40be2f72	5.9432917
113	0x3f959a30	1.1687679
114	0x3f9835b0	1.1891384
115	0x3f106045	0.56396896
116	0x417ef7c5	15.935491
117	0x3f2d8f5e	0.67796886
118	0x3f1a46b2	0.6026412
119	0x40d9d90c	6.807745
120	0x4028d173	2.6377838
121	0x4080db22	4.0267496
122	0x3ae7f5df	0.0017697177
123	0x40180795	2.3754628
124	0x3f85563f	1.0416945
125	0x3f771cca	0.96528304
126	0x428d7923	70.736595
127	0x3e3aab31	0.18229367
128	0x3fef0154	1.867228
129	0x3fada5f5	1.3566271
130	0x3fd4748f	1.6598071
131	0x4055d38c	3.3410368
132	0x42a856c6	84.16948
133	0x412f6f62	10.964693
134	0x3f3a73fc	0.7283323
135	0x422ebba8	43.683258
136	0x40a8030f	5.2503734
137	0x411b516a	9.7073765
138	0x41194013	9.578143
139	0x418ce92c	17.613853
140	0x4034e312	2.8263593
141	0x40e3a074	7.1133366
142	0x3fa7929f	1.309162
143	0x405aeca4	3.4206934
144	0x3e07a80f	0.13247703
145	0x40936147	4.6056247
146	0x4087d9c6	4.2453337
147	0x4171b14e	15.105787
148	0x3f9c698c	1.221971
149	0x3f31ceb7	0.69456047
150	0x41878c91	16.943636
151	0x4199793e	19.1842
152	0x41646a61	14.275971
153	0x430fc035	143.75081
154	0x3f2a4940	0.6651802
155	0x3fbe6f8f	1.4877795
156	0x3e39a167	0.18127976
157	0x38d2a803	0.00010044875
158	0x422c88a1	43.133427
159	0x3efd77b8	0.495054
160	0x4082ef64	4.0917225
161	0x4095d2c0	4.6819763
162	0x407363c7	3.802965
163	0x4069a7bf	3.6508634
164	0x3fda54d3	1.7057136
165	0x41f4b60a	30.588886
166	0x3e77c660	0.24196768
167	0x4064ec30	3.5769157
168	0x3eb6e03b	0.3571795
169	0x416c967c	14.786739
170	0x3ed3d319	0.41371992
171	0x417528c8	15.322456
172	0x3f9ca40f	1.2237567
173	0x4112c259	9.172448
174	0x4117c7cb	9.486278
175	0x41cc4941	25.535769
176	0x40380ff2	2.8759732
177	0x40957a99	4.6712155
178	0x3f4eeffa	0.80834925
179	0x413834b4	11.512867
180	0x403046be	2.7543178
181	0x3f9af3ed	1.210569
182	0x401ae5c3	2.4202735
183	0x4066efd8	3.608389
184	0x3f998d86	1.1996315
185	0x40ecdab5	7.4016976
186	0x3f04ed77	0.5192484
187	0x407c1dbc	3.9393148
188	0x3f0ebb7f	0.55754846
189	0x401c6e8b	2.444247
190	0x3f936922	1.1516459
191	0x4081c0f5	4.0548043
192	0x413d98a6	11.849768
193	0x3f210325	0.62895423
194	0x4169025e	14.563078
195	0x3fe22987	1.7668923
196	0x4128f395	10.559468
197	0x3f5b8fe2	0.8576642
198	0x3fceeb22	1.6165507
199	0x4129dde2	10.616671
200	0x3f32c102	0.69825757
201	0x40aa865d	5.328902
202	0x412165fc	10.087399
203	0x3815de60	3.573147e-05
204	0x40c9c782	6.305604
205	0x409872db	4.7640204
206	0x3f5d373a	0.86412394
207	0x3f7c16fb	0.98472565
208	0x3fa32c06	1.274781
209	0x41209e96	10.038717
210	0x3f7a18c0	0.97694016
211	0x4187c4fe	16.971188
212	0x4003659e	2.0530772
213	0x41025896	8.146627
214	0x3a1c202f	0.00059557235
215	0x3f9180ed	1.136747
216	0x3ed502bd	0.41603652
217	0x414858cb	12.521678
218	0x4255389e	53.30529
219	0x3e7476e9	0.23873486
220	0x40a08439	5.0161405
221	0x416c0f35	14.753713
222	0x4019f994	2.405858
223	0x412ff51f	10.997344
224	0x40f716f4	7.721552
225	0x4096242d	4.691916
226	0x41b36bd1	22.427645
227	0x4253ab9d	52.91759
228	0x406cb3f2	3.698483
229	0x40cc7407	6.3891635
230	0x4162faa3	14.186191
231	0x4000697c	2.0064383
232	0x404b4994	3.1763659
233	0x3f97d6ad	1.1862389
234	0x3ef78e48	0.4835074
235	0x401a212e	2.4082751
236	0x3ff24fad	1.8930565
237	0x402a9587	2.6653764
238	0x40c04fec	6.009756
239	0x40025240	2.0362701
240	0x4054af9d	3.3232186
241	0x428d8a8d	70.77061
242	0x400f2d57	2.2371423
243	0x4020ff6e	2.5155902
244	0x41233597	10.200583
245	0x417f77cf	15.96675
246	0x3f8299d9	1.02032
247	0x40cc0801	6.375977
248	0x3ee467c3	0.44610414
249	0x3f8379f0	1.0271587
250	0x3f55187d	0.8324049
251	0x409b6ff6	4.857417
252	0x403d8fca	2.9619012
253	0x41e303d2	28.376865
254	0x3fed6486	1.8546302
255	0x41e81bda	29.0136

batchnorm.running_var f4 [256]
0	0x42c2585b	97.17257
1	0x443536dc	724.8572
2	0x41a6c43a	20.845814
3	0x40e70f0a	7.220586
4	0x40dab3eb	6.8344626
5	0x43ee6593	476.79355
6	0x432e8800	174.53125
7	0x4370b1e2	240.69485
8	0x430d4b9d	141.29536
9	0x444215ec	776.3425
10	0x42912732	72.57655
11	0x409a9fce	4.8320074
12	0x43078f81	135.56056
13	0x41f61fca	30.765522
14	0x405e9662	3.4779286
15	0x42c78f77	99.780205
16	0x43df7d07	446.97678
17	0x4224b9f6	41.181602
18	0x42c63fe9	99.124825
19	0x42c49aac	98.30209
20	0x42c5a6bf	98.825676
21	0x43408a9d	192.54146
22	0x41332785	11.197148
23	0x411bd77e	9.74011
24	0x431b12b1	155.07301
25	0x3fad8a42	1.3557818
26	0x43e939cc	466.45154
27	0x42244120	41.0636
28	0x43db64bb	438.78696
29	0x4337869b	183.5258
30	0x4366041e	230.01608
31	0x42b43cba	90.11861
32	0x428287d1	65.26527
33	0x42577104	53.860367
34	0x427e6f73	63.608837
35	0x40b1d173	5.5568175
36	0x451bf2da	2495.1782
37	0x426f5e4c	59.842087
38	0x4396e4d4	301.78772
39	0x4199d919	19.231005
40	0x433b356b	187.20866
41	0x43d62f9d	428.37198
42	0x42b502ec	90.50571
43	0x43443e13	196.24248
44	0x4316cf77	150.81041
45	0x446077f8	897.8745
46	0x426b4762	58.81971
47	0x43676383	231.38872
48	0x44a0df8f	1286.9862
49	0x421d1b18	39.27646
50	0x435344af	211.2683
51	0x41cc0c1a	25.505909
52	0x420c1933	35.02461
53	0x441aaf5d	618.74005
54	0x414f8072	12.968859
55	0x43b5c3f4	363.53088
56	0x43552f5d	213.18501
57	0x42236f64	40.85878
58	0x43e621c1	460.2637
59	0x41a513ea	20.634724
60	0x43cbeb9d	407.84073
61	0x42009234	32.142776
62	0x40a40c67	5.126514
63	0x43d33722	422.43073
64	0x429b562c	77.668304
65	0x428f7d6c	71.744965
66	0x422bb92c	42.930832
67	0x406354ed	3.5520585
68	0x410d1bb5	8.819264
69	0x418e50a8	17.789383
70	0x4402c2af	523.04193
71	0x43b1cf84	355.62122
72	0x44232c9f	652.6972
73	0x40ac7ffd	5.3906236
74	0x43466c34	198.42267
75	0x4102d2ce	8.176466
76	0x420507d5	33.25765
77	0x426fb71b	59.928814
78	0x443d63a6	757.557
79	0x4247f3d0	49.9881
80	0x42a85316	84.16228
81	0x4320a47e	160.64255
82	0x44fb6331	2011.0997
83	0x42b743c2	91.63234
84	0x41b7384f	22.902494
85	0x4055f5a1	3.343117
86	0x43c2a195	389.26236
87	0x4439080e	740.12585
88	0x4186663c	16.79992
89	0x42355234	45.330276
90	0x430fa30f	143.63695
91	0x42c8b2e7	100.34942
92	0x40cf7338	6.482815
93	0x41a60258	20.751144
94	0x394707b6	0.00018980991
95	0x42e7a01a	115.8127
96	0x42399383	46.394054
97	0x42a1725b	80.72335
98	0x4185e3d3	16.736242
99	0x420f5cf8	35.84079
100	0x4336071a	182.02774
101	0x415894f7	13.536368
102	0x00000004	6e-45
103	0x429744d7	75.63445
104	0x4222851b	40.629986
105	0x42b785bd	91.76121
106	0x42aefa7d	87.489235
107	0x41b3df84	22.484138
108	0x41b15a18	22.168991
109	0x423e2fc4	47.546646
110	0x439bcf92	311.62164
111	0x42bc5180	94.15918
112	0x43539d9c	211.61566
113	0x41c72a45	24.89564
114	0x41edf8dc	29.746513
115	0x416eb69d	14.919583
116	0x44009742	514.3634
117	0x4132a472	11.165148
118	0x41826ea4	16.304024
119	0x43880440	272.0332
120	0x42646e50	57.107727
121	0x432cbf6f	172.74779
122	0x3c52e4a3	0.012871894
123	0x4274907a	61.14109
124	0x41864dd9	16.788012
125	0x41f5ee2f	30.7413
126	0x444ac2a4	811.04126
127	0x405af73d	3.4213402
128	0x4240e432	48.222847
129	0x425455bc	53.083725
130	0x4248d42e	50.207207
131	0x42aa87d1	85.26527
132	0x4622a8f3	10410.237
133	0x43a97025	338.87613
134	0x41c7eb2d	24.989832
135	0x44983964	1217.7935
136	0x4345c9f4	197.78888
137	0x43bb9bbb	375.21664
138	0x43e3e696	455.80145
139	0x4436aa73	730.66327
140	0x42a6a2ce	83.31798
141	0x43397847	185.46983
142	0x42678027	57.87515
143	0x42e930d9	116.595406
144	0x402cd761	2.7006457
145	0x42d35137	105.65862
146	0x42e54f88	114.655334
147	0x44836873	1051.264
148	0x4257a371	53.90961
149	0x414f6519	12.962182
150	0x4427ac40	670.6914
151	0x444e5498	825.3218
152	0x43b70253	366.01816
153	0x46d47273	27193.225
154	0x4130b613	11.044452
155	0x423b72e5	46.8622
156	0x40792f2c	3.8935041
157	0x3a978cc5	0.0011562338
158	0x450bc3f6	2236.2476
159	0x40efe46e	7.4966345
160	0x42fe599e	127.17503
161	0x434c1c87	204.11143
162	0x430bc217	139.75816
163	0x42bbbaad	93.8646
164	0x425e612f	55.594906
165	0x4460cc6d	899.19415
166	0x4062144d	3.532489
167	0x42abf0d3	85.97036
168	0x4145a81f	12.353545
169	0x442c6dcd	689.71564
170	0x40db70cc	6.857519
171	0x446f42b8	957.0425
172	0x41ed128c	29.634056
173	0x43d2d38e	421.65277
174	0x437ac44a	250.76675
175	0x44a5c0be	1326.0232
176	0x43011e7e	129.11911
177	0x4304e682	132.90042
178	0x41ffb400	31.96289
179	0x4403e800	527.625
180	0x42a51a59	82.55146
181	0x4207bbd4	33.933426
182	0x4297830d	75.75596
183	0x430d8e46	141.55576
184	0x41eea197	29.828901
185	0x438df667	283.92502
186	0x418b35c0	17.401245
187	0x432aa161	170.63039
188	0x411e1b9e	9.8817425
189	0x42e5ecfd	114.96287
190	0x41ace19b	21.610159
191	0x43075fb0	135.37378
192	0x43ab01b5	342.01334
193	0x417b5384	15.70789
194	0x43e5e599	459.79373
195	0x42508a12	52.134834
196	0x43c7d230	399.6421
197	0x41bf8042	23.937626
198	0x4219279d	38.288685
199	0x43912e6f	290.36276
200	0x41c1901b	24.195364
201	0x4355ecf2	213.92557
202	0x43da7792	436.93414
203	0x399553a8	0.00028481823
204	0x43312ca1	177.17433
205	0x43187bf3	152.48418
206	0x41adc3b5	21.72056
207	0x4182fe37	16.374128
208	0x41ff61b1	31.9227
209	0x440b7cdb	557.95087
210	0x41d01289	26.00905
211	0x443b70c5	749.762
212	0x426438b1	57.055363
213	0x42d9dff8	108.93744
214	0x3a7aa76f	0.0009561693
215	0x4205f644	33.490494
216	0x41158de0	9.347137
217	0x4427a795	670.61847
218	0x448fbf7c	1149.9839
219	0x408d7afa	4.421262
220	0x4327c360	167.76318
221	0x449193ce	1164.6189
222	0x42ac0d9e	86.026596
223	0x434059f9	192.35146
224	0x439c22e6	312.27264
225	0x42f8beac	124.372406
226	0x4471fc08	967.938
227	0x450f73db	2295.241
228	0x4318041b	152.01604
229	0x436ff8f7	239.97252
230	0x4431a2b8	710.5425
231	0x422a36a0	42.553345
232	0x42c1f976	96.98723
233	0x420c51fe	35.08007
234	0x4170391c	15.013943
235	0x4298460e	76.136826
236	0x425e5d06	55.590843
237	0x4302add5	130.67903
238	0x43549c77	212.61119
239	0x426445ab	57.068035
240	0x42e215d1	113.04261
241	0x45ddceab	7097.8335
242	0x42b90a60	92.52026
243	0x42bc855e	94.26048
244	0x4414cab7	595.1674
245	0x43f08e66	481.1125
246	0x41cfcded	25.97555
247	0x437c668a	252.40054
248	0x40dd7f60	6.9217987
249	0x41cf2788	25.894302
250	0x41ef75e0	29.932556
251	0x42ea7bce	117.241806
252	0x42aad775	85.420815
253	0x44ad7421	1387.629
254	0x4267915e	57.89196
255	0x43dc7411	440.90677

fc2.weight f4 [128, 256]
0	0xbebfb129	-0.3743985
1	0xbe485344	-0.19563013
2	0xbbbb4cdc	-0.0057159495
3	0xbea32d48	-0.31870484
4	0xbd162303	-0.036654484
5	0xbec25dd1	-0.379622
6	0x3ea594f9	0.3234022
7	0x3e8fb16b	0.28065047
8	0x3eb0dd37	0.34543774
9	0xbca6d56c	-0.02036544
10	0x3b8493dd	0.004045947
11	0x3d755ae8	0.059901148
12	0x38db2253	0.00010449127
13	0x3cc585ac	0.024111591
14	0x3cf6342a	0.03005417
15	0xbdd526a8	-0.10407764
16	0x3c251b4e	0.010077311
17	0xbacb550d	-0.0015513018
18	0x3ff00ba5	1.8753554
19	0x3e0cafe5	0.13738973
20	0xbe76e8dd	-0.24112268
21	0x3bc27725	0.0059346133
22	0x3c19e8e4	0.009393904
23	0x3c49aa22	0.012308629
24	0x3bcf4ffe	0.0063266745
25	0xbc981b93	-0.018567836
26	0x3f00af68	0.5026765
27	0xbe49637e	-0.1966686
28	0xbd15ca6a	-0.03656999
29	0x3d00d911	0.03145701
30	0xbc35681f	-0.011072188
31	0x3cb5e8fb	0.02220582
32	0xbcb99e18	-0.022658393
33	0xbe93a3ca	-0.288359
34	0xbf21b6e4	-0.63169694
35	0xbbb1fe25	-0.0054319077
36	0xbe008440	-0.1255045
37	0x3c190da0	0.009341627
38	0xbda301ac	-0.07959303
39	0x3e7a2ed9	0.24431933
40	0x3e226066	0.15857086
41	0xbf4f3eb5	-0.8095506
42	0x3cece3b3	0.02891717
43	0x3ca70f6f	0.020393101
44	0x3d9d63eb	0.076850735
45	0xbd493721	-0.04912484
46	0xbcb492fd	-0.022042746
47	0x3cb85473	0.022501206
48	0x3d5de651	0.054174725
49	0xbc996554	-0.018725075
50	0xbd79c400	-0.060977936
51	0xbac0a164	-0.0014696536
52	0x3d2825fc	0.04105185
53	0x3f0c0504	0.54695153
54	0xbdaa6b6a	-0.08321269
55	0xbb182c5f	-0.0023219807
56	0xbc47996f	-0.0121825775
57	0xbc2759dc	-0.010214295
58	0xbc97fceb	-0.018553218
59	0xbb082711	-0.0020775239
60	0xbf59e88c	-0.85120463
61	0xbd72ba8d	-0.05925994
62	0x3c036303	0.008019212
63	0xbead79fb	-0.33882126
64	0xbc7e2c1b	-0.015513445
65	0xba89ae1e	-0.0010504161
66	0x3d39d0b7	0.04536506
67	0xbb956cee	-0.0045601046
68	0xba866e4e	-0.0010256262
69	0x3bcd5c30	0.006267093
70	0xbe8dbd25	-0.27683368
71	0xbb69c70c	-0.003567162
72	0x3f19b97d	0.6004866
73	0x3ca8fca2	0.020628277
74	0xbc5c0223	-0.013428244
75	0x3c58819d	0.013214496
76	0x3cb8edf5	0.022574404
77	0xbbbc6393	-0.005749175
78	0xbe58e9ee	-0.21182987
79	0x3b6d5eb5	0.003621978
80	0xbe200591	-0.15627123
81	0xbaaf585e	-0.0013377776
82	0x3e014ebf	0.12627696
83	0xbe23d0e2	-0.15997651
84	0x3ba817f9	0.005129811
85	0x3d41f435	0.047352035
86	0x3b082a76	0.0020777262
87	0xbd0e8179	-0.034791443
88	0x3bd4197a	0.0064727636
89	0xbe20d978	-0.15707958
90	0x3e53698f	0.20645736
91	0x3d86d240	0.06583071
92	0x3cda39d6	0.026638906
93	0x3c780d28	0.015139855
94	0xbe063cf5	-0.13109191
95	0xbcc2f123	-0.023796624
96	0x3ca3a24a	0.019974846
97	0x3d00d646	0.031454347
98	0x39d7c0dc	0.00041151687
99	0x3ca1aa47	0.019734515
100	0x3d9010bd	0.070344426
101	0x3c4f2794	0.0126437135
102	0x3c3aa49c	0.011391785
103	0xbcafb39b	-0.021447947
104	0xbad093f6	-0.0015913236
105	0xbca498ed	-0.020092452
106	0x3e0912e5	0.13386114
107	0xba0cc2c3	-0.0005369598
108	0x3e057268	0.13031924
109	0x3e3e6416	0.18592867
110	0x3f2dcd71	0.67891604
111	0x3db662b1	0.08905543
112	0xbdf83131	-0.121187575
113	0xbb48d1fb	-0.0030642736
114	0x3c24d45b	0.010060395
115	0x3d3fe8b2	0.046852775
116	0xbe13a568	-0.14418566
117	0x3c8d7cfa	0.017271508
118	0xb9bb908f	-0.00035775124
119	0x3a5639e4	0.00081720785
120	0xbc76f902	-0.0150740165
121	0x3e04ba8b	0.12961785
122	0x3d0c2c8b	0.034222167
123	0x3b0277aa	0.001990775
124	0xbe066a03	-0.13126378
125	0xbc2d34f0	-0.010571703
126	0xbe284fe3	-0.16436724
127	0x3b109ed1	0.0022067318
128	0x3c64998e	0.013952626
129	0xbda733bc	-0.081641644
130	0xbf936d3c	-1.1517711
131	0x3b6dd65e	0.0036291103
132	0xbf8bf0c8	-1.0932856
133	0xbd1bbc25	-0.038021225
134	0xbc8e5c9e	-0.017378148
135	0xbda921ab	-0.08258375
136	0xbb3ba58a	-0.0028632605
137	0x3f070a5c	0.5275018
138	0x3db6e6f2	0.08930768
139	0x3e443e45	0.19164379
140	0x3cba01a4	0.02270586
141	0x3e6bcab0	0.23026538
142	0x3eb81bc4	0.35958683
143	0x3c889431	0.016672226
144	0xbb89e8b8	-0.0042086504
145	0x3c6c2cd0	0.014414981
146	0x3d396848	0.045265466
147	0x3d9938bf	0.074815266
148	0xbf8541ac	-1.0410666
149	0x3d0900ce	0.033448033
150	0x3ec2bbaf	0.38033816
151	0xbe8dcf33	-0.27697143
152	0xbf611a3c	-0.87930655
153	0x3c302d01	0.010752917
154	0x3d067366	0.032824896
155	0x3e465fdf	0.1937251
156	0x3b01b00f	0.0019788777
157	0x3d416450	0.047214806
158	0xbeb1c06e	-0.34717125
159	0x3d600932	0.05469627
160	0x3e89b66a	0.26896983
161	0x3da0155e	0.078165755
162	0x3e2d5b33	0.16929321
163	0x3ef75280	0.4830513
164	0x3c3acbfa	0.011401171
165	0x3c04d529	0.008107462
166	0x3b0f98f1	0.0021911229
167	0x3dcc8e20	0.09988046
168	0xbece34db	-0.402747
169	0x3ec83cd5	0.3910891
170	0xbe6683b6	-0.22511181
171	0xbedf65d4	-0.43632376
172	0x3b64cd2b	0.0034912329
173	0x3c055913	0.008138913
174	0xbb87c2e8	-0.0041431077
175	0xbb3ae78b	-0.0028519358
176	0x3e20edd3	0.15715723
177	0x3c9a317b	0.018822422
178	0xbe45c212	-0.19312313
179	0xbd66b669	-0.056326304
180	0xbd201d71	-0.039090578
181	0x3c5b0de2	0.013370009
182	0xbb342b23	-0.0027491532
183	0x3e1029a4	0.14078385
184	0xbdab178b	-0.083541
185	0x3d30b467	0.043140795
186	0x3d834acc	0.06410751
187	0xbf167b18	-0.58781576
188	0xbb83e815	-0.004025469
189	0xbfed9fb5	-1.8564364
190	0x3cc2af27	0.02376516
191	0x3d86ecdc	0.06588146
192	0xbd317f41	-0.04333425
193	0xbca35cc7	-0.0199417
194	0xbe0369c3	-0.12833314
195	0x3d71e3ed	0.059055258
196	0x3ba0560c	0.00489307
197	0xbc113b44	-0.008864228
198	0xbcf74197	-0.030182643
199	0x3c210b2b	0.009829323
200	0x3d45b896	0.048271738
201	0x3d920085	0.07129005
202	0x3c197db8	0.009368353
203	0x3d6dfa0b	0.058099788
204	0x3f2d47e0	0.676878
205	0x3e158266	0.14600524
206	0x3bad9c8e	0.005298204
207	0xbcb02cd2	-0.021505747
208	0xbd1ca98d	-0.038247634
209	0x3e0c438d	0.13697644
210	0x3cc4b3ad	0.024011457
211	0xbe749393	-0.2388442
212	0x3c6436d9	0.013929092
213	0xbfab68e8	-1.339139
214	0x3d025bcb	0.03182582
215	0xbe050d30	-0.12993312
216	0xb9c615dd	-0.00037781792
217	0x3c922bbc	0.01784312
218	0x3f78c190	0.9717035
219	0xbd6fa83c	-0.05851005
220	0x3b532072	0.0032215384
221	0xbddda578	-0.10822576
222	0xbc3a7a40	-0.011381686
223	0x3f1e5a37	0.61856407
224	0xbd487bdf	-0.048946258
225	0x3eae8d5f	0.34092233
226	0x3e846db7	0.25864956
227	0x3cf43f7a	0.029815424
228	0x3dafd1e8	0.08584958
229	0xbbb9ced0	-0.005670406
230	0x3de72ba8	0.11287624
231	0x3c4e6114	0.012596387
232	0xbd34a32b	-0.04410092
233	0x3dda57d2	0.10661282
234	0x3ddf637f	0.10907649
235	0xbf9ad531	-1.2096311
236	0x3bad79a5	0.005294042
237	0x3e37338c	0.17890757
238	0x3ba0cc3a	0.004907158
239	0x39c13d95	0.0003685771
240	0x3ca59282	0.020211462
241	0x3f00530d	0.50126725
242	0xbdaf92d2	-0.085729256
243	0xbec69dc4	-0.3879224
244	0x3dca1632	0.09867515
245	0xbb8f58c1	-0.004374594
246	0xbc36deee	-0.011161549
247	0xbe8bbeff	-0.27294156
248	0xbd882a39	-0.06648678
249	0x3f3e75bf	0.74398416
250	0x3e0b6061	0.13610984
251	0x3c8be366	0.017076205
252	0xbbe584f5	-0.007004375
253	0xbb83cb86	-0.0040220646
254	0x3d6c76d5	0.057730515
255	0xbed5d4ce	-0.4176392

fc2.bias f4 [128]
0	0xbe858ec0	-0.26085472
1	0xbeb15452	-0.34634644
2	0xbf075dc7	-0.5287747
3	0xbeebc9a7	-0.46052286
4	0xbf116d05	-0.56806976
5	0xbf00e976	-0.50356233
6	0xbe0c9893	-0.13730077
7	0xbec4be35	-0.38426366
8	0xbbc96242	-0.0061457464
9	0xbde23a20	-0.11046243
10	0xbec28e64	-0.3799926
11	0xbedae616	-0.42753667
12	0xbe9fb8f2	-0.3119579
13	0xbeaedb01	-0.34151462
14	0xbecc31e0	-0.39881802
15	0xbf149262	-0.5803586
16	0xbea00e1a	-0.3126076
17	0xbf17e788	-0.59337664
18	0xbf213526	-0.62971723
19	0xbeeb1711	-0.45916036
20	0xbf4132d4	-0.7546818
21	0xbd2f05ac	-0.04273002
22	0xbf322411	-0.6958628
23	0xbf3fa999	-0.7486816
24	0xbf1650b0	-0.5871687
25	0xbf3ce674	-0.73789144
26	0xbf02864a	-0.5098616
27	0xbdc8035f	-0.09766268
28	0xbe61cad7	-0.22050034
29	0xbf3ce7ef	-0.737914
30	0xbeb38e7a	-0.35069638
31	0xbef2c069	-0.47412422
32	0xbea6deea	-0.32591945
33	0xbf49d1d9	-0.7883583
34	0xbf1d9590	-0.6155634
35	0xbf1a0641	-0.6016579
36	0xbe8e836e	-0.27834648
37	0xbdfc7a5a	-0.12328024
38	0xbed3c4fe	-0.4136123
39	0xbf13db7c	-0.5775678
40	0xbf25b378	-0.6472697
41	0xbf1132f8	-0.567184
42	0xbe018d3a	-0.1265153
43	0xbeca8c53	-0.39560184
44	0xbf4e8920	-0.80677986
45	0xbed80b76	-0.42196244
46	0x3e00082e	0.1250312
47	0xbeb2264b	-0.3479484
48	0xbf2d5615	-0.67709476
49	0xbe9cf31b	-0.30654225
50	0xbeae9429	-0.34097412
51	0xbe4956d8	-0.19662035
52	0xbe1b31c0	-0.15155697
53	0xbeddfda8	-0.43357587
54	0xbe9ffacf	-0.3124604
55	0xbe6cfc6b	-0.23143165
56	0x3d0895dc	0.033346042
57	0xbe97bd20	-0.29636478
58	0xbf01102f	-0.5041532
59	0xbef2951e	-0.47379392
60	0xbdddc4ff	-0.1082859
61	0xbf094c4e	-0.53632057
62	0xbebdfa57	-0.37105057
63	0xbf030959	-0.5118614
64	0xbe7c40ab	-0.24634044
65	0x3eec0778	0.46099448
66	0xbf443d30	-0.76655865
67	0xbf419f10	-0.75633335
68	0xbf4adf8d	-0.7924736
69	0xbf3f95ce	-0.7483796
70	0xbeb1116c	-0.34583604
71	0xbe38fc43	-0.1806498
72	0xbf0ed8ef	-0.55799764
73	0xbeb81ca7	-0.3595936
74	0xbed7ec47	-0.42172453
75	0xbf6021a7	-0.8755135
76	0xbf28f1f4	-0.6599419
77	0xbe264240	-0.1623621
78	0x3eb00896	0.3438155
79	0x3e133be3	0.14378314
80	0xbf32b842	-0.69812405
81	0xbf2b8db0	-0.6701307
82	0xbf2647b6	-0.6495317
83	0xbf73415a	-0.95021594
84	0xbf179ff7	-0.5922846
85	0xbf6913f6	-0.9104608
86	0xbe231bb3	-0.15928535
87	0xbe0f2247	-0.1397792
88	0xbf043f41	-0.5165902
89	0xbe7b691a	-0.24551812
90	0xbe5a36f0	-0.2131002
91	0xbf3b9cd0	-0.7328615
92	0xbf41c01e	-0.7568377
93	0xbecd8c35	-0.40146032
94	0xbe2c7c81	-0.1684437
95	0xbeb4ea94	-0.3533522
96	0xbf488ef3	-0.78343123
97	0xbeed36e2	-0.46330935
98	0xbf1b7bad	-0.6073559
99	0xbe141306	-0.14460382
100	0xbf93e5a6	-1.1554458
101	0xbf0337c1	-0.5125695
102	0xbee324fb	-0.4436415
103	0xbf96ff17	-1.1796597
104	0xbe4effa1	-0.20214702
105	0xbe16c6b9	-0.14724244
106	0xbeea7554	-0.4579264
107	0xbdf12af5	-0.117757715
108	0xbf2114a0	-0.62922096
109	0xbead3025	-0.33825794
110	0xbf45c612	-0.77255356
111	0xbf59ad54	-0.850301
112	0xbf00db1f	-0.5033435
113	0xbe35a62f	-0.17739175
114	0xbeea1b1a	-0.45723802
115	0xbe37d994	-0.17954093
116	0xbef80a3c	-0.48445308
117	0xbeb6caf2	-0.3570171
118	0xbec3032b	-0.38088354
119	0xbecddce2	-0.40207583
120	0x3e4e45d2	0.20143822
121	0xbe8c9d34	-0.27463686
122	0xbf5c492c	-0.8604915
123	0xbe86d0ba	-0.2633112
124	0xbee1b52a	-0.4408353
125	0xbf1053d0	-0.5637789
126	0xbe31656b	-0.17323844
127	0xbea93b69	-0.3305314
