checkpoint_critic_1.pth (torch_old, 191970 bytes, 9 tensors)

fc1.weight f4 [256, 52]
00000000: 14df 493f 5eca e83d 90c5 4ebe 7ae5 86bf
00000010: 05a6 a6be c9c7 03bf 3cd9 9bbe 0179 78bf
00000020: ca67 593f 022c 883d 8bf5 c63c 7723 d13e
00000030: 4f95 56be 1cc3 8cbe 61ce 4f3d 0e8f b53e
00000040: 7461 663f d6fe 053e 8a1f b03e 82a5 8cbe
00000050: 623e 18be 5f2d 36be 6984 d63e 1df0 c0be
00000060: 8268 0f3f 53f5 14be 08c2 eebe 5ebb 3abf
00000070: f111 b43e 3086 efbe 7254 f0be c8e8 32bf
00000080: 4a8b 463f a521 e5bd 6035 af3e eaec 6c3e
00000090: 1818 923e 457d a6be 7ebd c63e 087c 1d3e
000000a0: d060 583f ee83 813a 8a63 75bd c912 4f3f
000000b0: caea 7b3e 0033 25be ced8 1e3d 8529 543f
000000c0: d6a3 1e3e b556 593e 76f0 ddbf cecc e5bf
000000d0: cd90 423e 1f69 833f 3319 7b3e d07f 56be
000000e0: 154c 34be 04c2 133f f823 8f3e 1f52 5fbe
000000f0: a304 443f cc27 5f3f e2e7 163e 42e8 5abf
00000100: c11c c3bd d8d0 91bf 67f5 ff3d 357c 6fbf
00000110: 5b53 ad3e 1c19 443f bd22 47be 4c87 29bf
00000120: 5024 ce3e ac21 9fc0 c768 1ebe efce 17bf
00000130: a383 0c3f 39a3 aec0 ca4f acbe 632c cb3e
00000140: e7d3 f23d ad36 0a3f 35aa 96be c83d a93e
00000150: 2905 dc3e 1bbe b3c0 2c16 f5be 4ea0 043d
00000160: dfa3 213e 61e8 8fbf 478d dabe 50c8 d63d
00000170: 4cff 313f c8ff c3c0 7005 9b3d ad90 83bc
00000180: 8d18 d4be bc91 9fc0 6f37 0c3d a3af 343d
00000190: f1f7 4bbe 77ff d2bf 12b0 9f40 94ff b8c0
000001a0: 06ae 26bf 2330 f73f 73c0 61bd 77f0 11be
000001b0: f0ed 233f 95d3 a33e 79a9 d0bc 9ee1 1ebe
000001c0: 9ea9 05be 56ef 0540 d3cd 92bd 7d2f c03c
000001d0: 94cc 8d3f d1ba 0dc0 9d2d 6dbc 0480 823b
000001e0: 80cd f13e 1b0c e83f e25a 9ebd 90e3 543e
000001f0: 2257 d73f 63c7 a2c0 bc28 09bd 36fc 8f3e
00000200: 3bfd f13f 5f13 3740 6b3c 01bd 3459 b93d
00000210: 8e6c 2bbf 68cf 763e 0948 8dbd 1a14 c93d
00000220: 4208 2f40 aa40 4140 07cd 883d fc99 293d
00000230: 13dd 95bf fb28 10c0 aa7a 8e3d fba7 113e
00000240: 460f 2e40 d39e 1440 85af 923d e02f 39be
00000250: 544d d3bf 693d a1c0 459c 153d cf20 3cbe
00000260: b673 173e 8072 84bf c426 0741 0e4b 8dbe
00000270: 4281 f0bd dfff e5be 9c8c 3fbd 4971 21c0
00000280: a46f 15bf 753a 13c0 0e79 97bd 8113 23c0
00000290: ac7c 223f ae16 f1be 78a8 343e 1d22 cf3f
000002a0: 564c d8be b3e7 0bc0 e092 453e 630c cc3f
000002b0: c9c6 3e3f 99d3 5abd 30bb 03bf bebb 8f3f
000002c0: 61f1 0abf bac3 a4bf 4b86 efbe b1ee 973f
000002d0: 2f7e 2bbf ac19 1c40 648f dabe f24a 10bd
000002e0: fffe 2c3f 730f 11c0 7d7a f3be 4e43 a23c
000002f0: 0e48 e1bd 6872 0640 3569 b0bd 3879 bebf
00000300: 53d4 ed3e 74cf 0bc0 b31d 22be 59f7 b8bf
00000310: cd87 8bbe 260c 1c40 2135 3cbe 9c9b f63d
00000320: 17cf 063f 49f5 a5bf 8828 1abe c446 f93d
00000330: afc5 2e40 e612 3b3e 86b9 9dbf 4e77 c33f
00000340: e9ad 023f 4a93 093e ddef 32be 81aa 2cbf
00000350: b011 dbbe 9f83 8ebe 811d 9bbd 95d0 40bf
00000360: 9d31 043f 932b c4be 7759 3cbe 79be 243d
00000370: 4b2f ddbe ad07 d53e 17bc 11be 01a0 15bd
00000380: 0142 c83e 77d7 54bf 8f98 92be bbe0 9fbe
00000390: 7153 f5be 268e 223f a221 a6be ae73 9abe
000003a0: 0e5e 5e3f b085 50be e83a 17bf fa57 d03e
000003b0: b20e f03e 8d6d 81be 3691 25bf 4ef5 033f
000003c0: e173 743f 9131 ccbe 6b5e 733e 07af 053f
000003d0: 1bae b73e 36cd c73e 12a6 543e 651c 0b3f
000003e0: 82a7 323f a10d bebe ee06 12be 51a1 ce3f
000003f0: e481 d53e cc7d 203f e8a5 b8bd 9b58 d73f
0.78856015 0.113667235 -0.20192552 -1.0538781 -0.32548538 -0.5147672 -0.30439174 -0.9705964
0.84923995 0.06649019 0.024287006 0.4084737 -0.20955394 -0.27492607 0.050733928 0.35460705
0.8999245 0.13085493 0.34399062 -0.27470022 -0.14867547 -0.17790745 0.41897896 -0.37683192
0.5601884 -0.14546709 -0.4663241 -0.7294215 0.35169938 -0.46782064 -0.46939427 -0.69886446
0.7755629 -0.11188058 0.3422041 0.2313725 0.28534007 -0.32517448 0.38816446 0.15379345
0.84522724 0.0009881237 -0.05990938 0.8088804 0.24601284 -0.16132736 0.03878098 0.82875854
0.15492186 0.21224482 -1.7339008 -1.7953126 0.1900055 1.0266455 0.24521331 -0.20947194
-0.17607148 0.5771792 0.2795713 -0.2180867 0.76569575 0.871701 0.14736894 -0.8551065
-0.09526969 -1.1391859 0.12497979 -0.935489 0.33852658 0.76600814 -0.19446845 -0.6622207
0.4026208 -4.9728603 -0.15469657 -0.5930013 0.5488836 -5.4574246 -0.33654624 0.39682302
0.118568234 0.5398968 -0.29426733 0.33054948 0.42972687 -5.616956 -0.47868478 0.03237944
0.15785168 -1.1242791 -0.4268591 0.10487425 0.6953018 -6.1249733 0.075693965 -0.016060198
-0.4142498 -4.98654 0.034232553 0.044112813 -0.19918801 -1.6484212 4.990243 -5.7811985
-0.6510929 1.9311565 -0.055115175 -0.14251886 0.6403494 0.31997362 -0.025471436 -0.15515754
-0.13052985 2.092733 -0.07168164 0.023460144 1.1078057 -2.2145274 -0.014476207 0.003982546
0.47227097 1.8128694 -0.07732178 0.20789933 1.6823466 -5.086839 -0.033486113 0.2812211
1.8905405 2.8605573 -0.03155176 0.09050217 -0.66962516 0.24102557 -0.06898505 0.09818287
2.734879 3.0195718 0.06679731 0.041406617 -1.1708091 -2.2525012 0.0695699 0.14224236
2.7196822 2.3221939 0.07162384 -0.18084669 -1.6507974 -5.0387464 0.036525983 -0.1837189
0.14790234 -1.0347443 8.446964 -0.27596325 -0.11743404 -0.44921777 -0.046764955 -2.5225394
-0.58373475 -2.300443 -0.07396136 -2.5480654 0.63471484 -0.47087616 0.1764239 1.6182286
-0.4224574 -2.1860168 0.1929431 1.594128 0.7452207 -0.05342445 -0.514575 1.1229169
-0.54274565 -1.2872231 -0.46782145 1.1869718 -0.66989416 2.439067 -0.42687523 -0.035227723
0.67576593 -2.266568 -0.4755439 0.019807484 -0.110000715 2.1007328 -0.08613817 -1.4880743
0.46451053 -2.184537 -0.15831642 -1.4450485 -0.27252045 2.4382415 -0.18379642 0.12041399
0.52659744 -1.296548 -0.15054524 0.121717006 2.7308156 0.18268928 -1.2322242 1.5270784
0.51046616 0.13435093 -0.17474313 -0.6744767 -0.42786932 -0.27834794 -0.07573987 -0.7531827
0.51638204 -0.38314494 -0.18393503 0.04022071 -0.43200144 0.4160742 -0.14231907 -0.036529545
0.39112857 -0.83141273 -0.28632018 -0.31226143 -0.47915223 0.6349815 -0.32447535 -0.30166382
0.86862266 -0.20363498 -0.5907426 0.4069212 0.46886212 -0.25278893 -0.646747 0.5154618
0.9548932 -0.39881566 0.23766486 0.52220196 0.3587502 0.3902375 0.20766476 0.543402
0.69786847 -0.37119773 -0.14260456 1.614298 0.4170066 0.6269195 -0.09016019 1.6823915

fc1.bias f4 [256]
00000000: 5a68 3ebf 2aa3 ee3e d3a1 dbbf 041f babf
00000010: 72d2 a3bf 5b11 5dbf 8787 18bf 99a5 b6bf
00000020: a4f9 6bbf eaf6 77c0 06f6 0bc0 a66b 59bf
00000030: b75f a2bf c3cf 32c0 c691 f8bf 7151 46bf
00000040: a43d 13bf e78f 89bf 5b70 0cbe cbbf 19c0
00000050: 4415 7ec0 248b c7bf 5918 07bf 378f 33bf
00000060: cce1 03bf afa7 0dc0 793e 15bf 7de8 a4bf
00000070: 18b7 8ebf 05cd 93bf b4dc 1fbf 07b6 85bf
00000080: 28af 19c0 cd2a 4bbf a043 9ec0 24a0 96bf
00000090: 02be 28bf daa3 12bf 89f5 4fbf a0a5 babf
000000a0: 55ec bfbf c7af e4bf ae58 07c0 1d45 f1bf
000000b0: 8a7d 80bf 456a 1fbf 0b87 75bf 1be3 75be
000000c0: 7186 fc3d 885e bcbf 2913 323f 09eb f9bf
000000d0: 2683 03bf c507 d73d d81a 3dbf 5558 99bf
000000e0: fa02 44bf 10aa 0dbf bc36 b9be 9c30 32bf
000000f0: a0ec 17bf 323d 4ebf 5af2 0ebf 1b0c d3bf
00000100: 8d82 9ebe 257d 17bf fc0e 09bf 161c 933e
00000110: 250f bfbf 5e49 4fc0 0f11 20be 3794 8bbf
00000120: ad9b 92bf ab49 f0be 1cb7 95bf 9250 84bf
00000130: 1c48 06bf a031 c7bf 5cf1 15bf cec2 b4bf
00000140: 68f5 ffbe ad00 f9bf b50c 83be 6b1f ca3f
00000150: 513c 823e 9332 fbbe 8a58 b1bf 0a03 023c
00000160: 8dd3 9dbf 0cca 1a3f 779a 99bf 2175 46bf
00000170: dd95 f9bf d935 a8be 2c26 e7bf e17b aebf
00000180: 13dc cbbf d098 f2bf c968 5dbf 8b77 07bf
00000190: 5859 57bf 928b 89be d1d2 32c0 d373 1ec0
000001a0: f91d e5bd 9c40 c4bf 1dc8 b4bf 664c 16bf
000001b0: a739 f1be 5cb3 3ebe a3c0 d3bf 8055 b5bf
000001c0: 6dda 53bf 3389 6abf b431 2ac0 b072 4bbf
000001d0: faaa abbe 2d07 7bc0 f0b5 c7bf 70d7 e1bf
000001e0: c4b7 12bf f27c ad3f 97ab dabf 33bb 34bf
000001f0: ab3b 8ebe d82b bcbf f6b3 ccbf 61bb 5ebf
00000200: 13f6 64bf a665 00c0 13aa 43bf e485 e4be
00000210: 6fe4 3ebf c371 13bf 008e c3c0 0b97 92bf
00000220: d830 5bbf d530 d8bd 1a60 a3bf cc95 4abf
00000230: de20 03bf 10c7 05c0 3be5 bcbf e149 80bf
00000240: fb1f 273f 1df7 acbf f51e 0dbf 076b 423f
00000250: 42e8 89bf 36e0 d83d 4013 08bf 7ffd 66bf
00000260: d77e 32bf 91a7 f3bf c0c7 c8bf 1fe5 0abf
00000270: 453c 86bf 139e f2bf ea66 82bf 5a12 82bf
00000280: 90e9 3dbf 9741 2abf c64c 043f 66f1 4fc0
00000290: 53fe 1bbf da5e 0cc0 7a31 ce3e 11a6 a5bf
000002a0: 4802 82bf 2780 02c0 4966 6abf f40d 93bf
000002b0: 4660 04bf 1d3f 79bd c5e3 f3bf 3915 56bf
000002c0: 0e49 b2bf 2d9a 25c0 3be9 9abf 5bbc 59bf
000002d0: 1be8 8d40 f175 9cbf 6e86 3dbf 36bf 9dbe
000002e0: 21d4 03bf c877 8fc0 cafd 4ebf eba5 82be
000002f0: c5f2 9cbf 3b51 31c0 d0b7 b6be 5936 19bf
00000300: e464 aabe 0791 61bf 9a1b c63e 4c00 5bbf
00000310: 0d90 f6bf 0724 6cbf 1ffd 98bf 2367 2ebc
00000320: 78fb b9be d04b 0cbf 577b e0be ebc4 46bf
00000330: fcc5 6fbf d90e 04c0 fbf7 cfbe dd1c 35bf
00000340: e9bd 98bf 1ca1 4ebf de23 3fbf a827 95bf
00000350: d570 dbbf 1562 483f 433a afbf e41a 72bf
00000360: ce9d 07bf 3d96 f1bf 8610 b5bf 4def afbf
00000370: 67bc 05bf 627b 31bf 2199 98bf fef3 0fbf
00000380: 2c90 6fbf 5070 e2bf 912a 69bf 4850 a5bf
00000390: 1b72 77bf 43b8 c9be 5558 70bf d5a8 d7bf
000003a0: b046 8bbf 0ce0 a9bf 6309 51be 4ded 3ec0
000003b0: 3c74 39bf 406b a2bf ef4b bdbf 77c2 e9bf
000003c0: 988b 31bf 86fd 39c0 11fb a0be 31d7 ccbf
000003d0: 60bf 94bf c2e4 dfbf 88c5 c0bf 9754 0abf
000003e0: 1e2b 9dbf 078e 5ac0 798c 69bb 9423 0abe
000003f0: 4221 46bf 951d 88bf 0582 1bbd d965 3b3e
-0.7437798 0.4660886 -1.715876 -1.4540715 -1.2798598 -0.8635461 -0.595818 -1.4269286
-0.92177796 -3.8744454 -2.186891 -0.84929883 -1.268546 -2.7939308 -1.9419487 -0.7746802
-0.5751593 -1.074704 -0.13714735 -2.402331 -3.970048 -1.5589337 -0.52771527 -0.70140404
-0.51516414 -2.2133596 -0.5829845 -1.288345 -1.1149626 -1.1546942 -0.6244614 -1.0446175
-2.4013157 -0.79362184 -4.945755 -1.1767621 -0.6591493 -0.5728127 -0.8123403 -1.4581795
-1.4993998 -1.7866143 -2.1147876 -1.8849217 -1.0038311 -0.6227153 -0.95909184 -0.24012415
0.1233033 -1.4716349 0.69560486 -1.9524852 -0.5137199 0.10499529 -0.73869085 -1.1980082
-0.7656704 -0.5533762 -0.36174572 -0.6960542 -0.59345436 -0.80562127 -0.5583855 -1.6488069
-0.30958977 -0.5917533 -0.5353849 0.28732365 -1.4926497 -3.238853 -0.15631507 -1.0904607
-1.1453758 -0.46931204 -1.1696506 -1.0337088 -0.5245378 -1.5562019 -0.5857141 -1.412195
-0.49991918 -1.9453331 -0.25595632 1.5790838 0.25436643 -0.49062023 -1.3855145 0.007935295
-1.2330185 0.6046455 -1.2000264 -0.77522475 -1.949886 -0.32853583 -1.8058524 -1.3631555
-1.5926536 -1.8952885 -0.86488014 -0.52916783 -0.841207 -0.26864296 -2.7941172 -2.4758193
-0.111873575 -1.5332217 -1.412357 -0.58710325 -0.47114298 -0.18623108 -1.6543163 -1.4166718
-0.82755166 -0.916156 -2.6592836 -0.79471874 -0.33528882 -3.922313 -1.5602398 -1.7643871
-0.57311654 1.3553755 -1.7083615 -0.70598143 -0.27779898 -1.470088 -1.599242 -0.8700467
-0.8943798 -2.0062041 -0.7643139 -0.446334 -0.7456731 -0.5759546 -6.111084 -1.1452345
-0.85621405 -0.10556189 -1.2763703 -0.7913482 -0.51222026 -2.0902748 -1.4757456 -1.0022546
0.65283173 -1.3512913 -0.5512536 0.7594456 -1.0774004 0.1058964 -0.53154373 -0.90230554
-0.6972479 -1.9035512 -1.5685959 -0.5425586 -1.0487143 -1.895449 -1.0187657 -1.016185
-0.74184513 -0.6650633 0.51679647 -3.2491088 -0.6093494 -2.1932893 0.40272123 -1.2941304
-1.0156946 -2.0390718 -0.91562325 -1.1488633 -0.517094 -0.060851205 -1.9053885 -0.83626133
-1.3928545 -2.5875351 -1.2102426 -0.8505303 4.434583 -1.2223493 -0.7403325 -0.30809945
-0.5149556 -4.4833717 -0.80856 -0.2551721 -1.2261587 -2.770583 -0.35687113 -0.5984855
-0.33280098 -0.8811192 0.38692933 -0.8554733 -1.9262711 -0.92242473 -1.1952246 -0.010644707
-0.36324668 -0.5480318 -0.438441 -0.7764422 -0.93661475 -2.0634062 -0.40618882 -0.70747167
-1.1932956 -0.80714583 -0.74664104 -1.1652727 -1.7143809 0.7827466 -1.3689655 -0.9457228
-0.52975166 -1.8873974 -1.4145668 -1.3744904 -0.52240604 -0.6932889 -1.1921731 -0.5623168
-0.93579364 -1.7690525 -0.91080576 -1.2915125 -0.96658486 -0.39398393 -0.93884784 -1.6848398
-1.0880947 -1.3271499 -0.20413737 -2.9832337 -0.72442985 -1.268898 -1.4788798 -1.8262471
-0.6935363 -2.9060988 -0.31441548 -1.6003171 -1.1620903 -1.7491686 -1.5060282 -0.54035324
-1.2278783 -3.4149187 -0.0035636707 -0.13490134 -0.773945 -1.0634028 -0.037965793 0.1830057

batchnorm.weight f4 [256]
00000000: 93df b83c 6d2d ad3d 5eb1 da3e eff5 883d
00000010: a9f1 7d3c 7265 3cbd 97e4 abbc fd99 ac3c
00000020: 89b0 123f 7da4 e13e 9f27 813e e86e 0cbd
00000030: e49b 503e 20e6 383e 6f4a 823e c1a2 0e3e
00000040: 920e 59bd 57b5 07bd 7944 35be b63c 273e
00000050: 906d 103f 1ade bc3d 29ae 933d 8140 c83d
00000060: 0ece febb 1b20 493e cf8d 273d 1052 273b
00000070: 123e 8b3c d1f4 763e 8c0b d13d 966f 543d
00000080: a1ff b73c f727 db3c afee 913e 8bf3 c93c
00000090: 64c8 db3b 88d0 6cbd b04d 8c3d ba15 213d
000000a0: 369e 163d 8e24 e63d 8b9c 973d 9fd0 463e
000000b0: a612 483d 6758 803c dac8 403c 1357 f53b
000000c0: 8dce 593f d085 14bd 171e f83d 9a15 833d
000000d0: 5d16 60bc fd63 a33c a429 b9bc ed51 f5bb
000000e0: 7538 073e 895d 0bbd 910c fbbc f521 13bd
000000f0: f66c 303c 0411 123c 2d50 debc a29a b43e
00000100: 8bf0 fc3c 16b8 613c d2b7 853d f9d7 303f
00000110: 9ce4 4f3e d7d7 c3be d472 01bb 25e5 543c
00000120: 9e16 51bc fb07 83bc 82c9 993c bbb8 d53b
00000130: 08ae 383e 390f 22bd c2b3 0cbb c9fe fe3c
00000140: 68da 313f b258 253e 3fdf f93c 958d a4be
00000150: a59d bf3e e84b 833c afdb 0b3e 6696 d93d
00000160: 00bb 533e 18f2 4d3e 084b 183e 13a5 b4bd
00000170: 3c22 e63d bb17 8b3d 8d3a 73bc 7900 4f3e
00000180: cd9b 763c b529 c63d feb1 55bd f171 3fbd
00000190: 31ee ae3c a452 803c ffc5 afbb 2a9c 323c
000001a0: 8613 82bc bba4 623c 07a5 b83d 7dda 05bc
000001b0: 9a3e b6bc 65de 4ebc 5d35 023d f6fd f23b
000001c0: c411 d83d 11c1 333b 4386 023e 6114 4ebc
000001d0: 5eda 9fbc f857 183e 8bd5 813d ae67 343e
000001e0: cdfc 283f 1d5c 5d3e 57aa 0d3d cec5 9c3d
000001f0: d750 3f3e 30c3 e7bd 1b33 223e 99f7 a53c
00000200: 3cda 1fbc 4146 0e3e bba7 5f3d e7ef b4bc
00000210: 73e4 4a3c d155 ee3b 16e2 a43e 4185 803f
00000220: 315c e1bb 3343 f43d 2470 ff3d b540 84bb
00000230: 4ba9 0b3c eb85 353e fe3a 0f3e b439 1e3c
00000240: f65c 373e 3c24 a13a d877 05bd 46fe 9b3e
00000250: 214f c63d bb1a 7fbc 22e1 abbc 4af2 263f
00000260: 7f75 a5bb 6364 043f aa73 383e 3838 693d
00000270: 408c 56bd 3715 d83d 1aee 173b 950a a5bd
00000280: 64f6 fb3d 533f 8d3a d3eb c93e a695 133e
00000290: a986 073c b67e be3d ad82 64bd 818f a53d
000002a0: c81a b23e 7e5f e43d a7a4 263d a7ef 203e
000002b0: 7569 a43d 35d4 d5bb 82da 53bd faed 0dbd
000002c0: bf9e ba3d 2c57 7f3e 9a15 a53c b1be 953e
000002d0: e5ca 4c3e 5d6c 81bc 1504 f9bb 1da0 133e
000002e0: c34e c43d 520a 773e c5d9 6b3d 41bc e0bc
000002f0: 7562 ee3d 7e9f 5b3d 0ce9 273e 0a95 13bd
00000300: abe7 92bd fda5 d93c 652a fe3d 7aec 2cbd
00000310: 97de 6b3d 9ddd 203b 0101 353b 0f0a 823f
00000320: b9bf f7bc e7c9 473c 4d93 96bc 7624 133e
00000330: 3d6f 0b3e 23a9 cb3d d449 7fbb 0551 833b
00000340: c42d a33d ff57 77bd 511e 043e c9ee 1fbd
00000350: e5f7 adbd 7853 1abf f66e 65bc b751 a53d
00000360: 6763 883e a177 8f3f 9888 143e 2bc1 dd3b
00000370: bf32 98bc 6492 8fbc 505c 973d 4d52 f2bb
00000380: 6259 273c a89c 91bc 3216 253d 271c 953d
00000390: 5f3e 453e 6124 083b 3cd8 7d3d 6809 d63d
000003a0: fd32 ec3b aa07 3fbc 9a96 203e 8f81 513e
000003b0: aae5 a1bc 5220 6a3f f158 9c3d c499 9a3e
000003c0: 945c d13b 2076 d53e 401a b5bc 8cde 003e
000003d0: c8d2 6bbb 792c 533d 8db4 2e3e 0557 acbd
000003e0: 7fc6 843d fd00 bc3d a2c7 423d 99aa 65bc
000003f0: 54c8 7f3e 8ef2 293e f95a 683e 5578 383e
0.022567546 0.0845593 0.42713445 0.06687533 0.015499511 -0.045995183 -0.020983024 0.021069521
0.5730062 0.44070807 0.2522554 -0.034285456 0.20371968 0.18056536 0.25447413 0.13929273
-0.05299241 -0.033131924 -0.17701901 0.16331753 0.5641718 0.0922205 0.07210953 0.09777928
-0.0077760285 0.19641154 0.040906724 0.002553109 0.01699737 0.24116828 0.102072805 0.05186423
0.02246076 0.026752455 0.28502414 0.024652263 0.006707238 -0.05781606 0.06850755 0.03932736
0.036771975 0.11237441 0.07402905 0.1941552 0.04884591 0.015667154 0.011766637 0.0074871867
0.85080796 -0.036260426 0.12115114 0.064006045 -0.013677207 0.019945139 -0.022602864 -0.007486573
0.1320513 -0.03402475 -0.03064564 -0.035921056 0.010768166 0.00891519 -0.02713784 0.35274225
0.030876419 0.0137768 0.065292016 0.6907955 0.20302051 -0.3825061 -0.001975228 0.012994085
-0.01276174 -0.015995016 0.018772844 0.0065222657 0.18035138 -0.0395653 -0.0021469449 0.03112735
0.69473886 0.16147116 0.03050196 -0.3213927 0.3742496 0.016027406 0.13658021 0.10624389
0.20676804 0.20111883 0.14872372 -0.08820548 0.112369984 0.067916356 -0.014845503 0.20215024
0.015051794 0.09675924 -0.0521717 -0.046739522 0.021353813 0.015664406 -0.005364179 0.01090149
-0.01587845 0.01383322 0.090158515 -0.008169767 -0.022246648 -0.012626265 0.031789172 0.0074155284
0.105502635 0.002742831 0.1274653 -0.012578101 -0.019513305 0.14877307 0.06339558 0.17617676
0.66010743 0.2161717 0.034586277 0.07654916 0.18683182 -0.11316526 0.15839808 0.020259665
-0.009756621 0.13893987 0.05460332 -0.02208705 0.012383568 0.0072734137 0.3220374 1.0040666
-0.006877445 0.1192688 0.12472561 -0.004036034 0.008524249 0.17726867 0.13987347 0.009657312
0.17906556 0.0012294124 -0.032584995 0.30467433 0.096830614 -0.015570338 -0.020981375 0.65213454
-0.005049407 0.5171568 0.18012872 0.05693838 -0.052379847 0.105509214 0.002318269 -0.08058659
0.12302855 0.0010776318 0.39437732 0.14412555 0.008271852 0.09301512 -0.055788685 0.08084012
0.34786057 0.11151026 0.04068437 0.1571642 0.08027927 -0.006525541 -0.051722057 -0.03465078
0.0911231 0.24935597 0.020151902 0.29247048 0.19999273 -0.015798742 -0.0075993636 0.14416547
0.09585335 0.2412503 0.057580728 -0.027433516 0.11639873 0.0536189 0.16397494 -0.036030807
-0.071730934 0.026568407 0.1241043 -0.04221771 0.057585325 0.0024546154 0.0027619007 1.015932
-0.030242788 0.012194133 -0.018380785 0.14369377 0.13616653 0.0994437 -0.0038953917 0.004007461
0.079677135 -0.060386654 0.1290219 -0.039046083 -0.08494548 -0.60283613 -0.014003506 0.080722265
0.26638338 1.1208383 0.14505231 0.006767412 -0.018578885 -0.01752586 0.07390654 -0.007395065
0.010214182 -0.017774895 0.04030437 0.0728076 0.19262074 0.0020773637 0.061973795 0.10451013
0.0072082267 -0.011659542 0.1568245 0.20459579 -0.019762833 0.91455567 0.07634152 0.3019544
0.00638921 0.41691685 -0.022107244 0.12584895 -0.003598379 0.051556084 0.17061062 -0.08415035
0.064831726 0.09179876 0.047553666 -0.014017724 0.24978763 0.16596434 0.22690953 0.18014653

batchnorm.bias f4 [256]
00000000: 51e5 5cba 4f2a 313d dbc6 813d 25ed cc3c
00000010: 8a98 683b 0ed2 363b c361 593a d7c5 e6bb
00000020: ec16 e53e 8734 433e a2fe ac3d 3407 5ebb
00000030: 5de2 cc3d dfd2 18bc 0b33 b5bb 3494 6c3d
00000040: 91a0 68bb 5261 32bc 880a 2fbd 930b 4f3d
00000050: 11c2 c33e 1e00 f03c 4d3c 24bc 165b 1b3d
00000060: a111 763c a698 d43b a9d4 94bb 7af7 3c3a
00000070: a62a 9bbb d8c3 a23d c063 243c 9c2a 743c
00000080: 7caa 6f3b 28ca 0d3b 9cad 053e a070 453b
00000090: 53e5 083c 2c92 cdbb db6f d73c a32d ad3c
000000a0: 3407 c73b e04f 683c 0305 903c 33a3 103d
000000b0: 7ace a6bb 67f3 c13b 2962 1b3c e616 86bb
000000c0: 21f7 d33e 02af d43b c52c f03c 2860 bd3b
000000d0: 99fd 023c 74cf b83b 7089 b1bb 3c57 283c
000000e0: 8ef2 b73b b739 68bb b106 52bc 8778 1a3c
000000f0: ba30 84ba 9677 813b 3f3f bcbb a76f b23d
00000100: 871b 523c 3b2b fabb 7e0a 253c a07b 8e3e
00000110: 6e1f ee3d 1426 a1be 73e4 88bb 8a74 cbbb
00000120: 0275 dfbb cc49 08bb ac6b c5bb 8463 363b
00000130: b7ed 693d df34 4ebc d4b9 cf3a b918 42bc
00000140: d049 8b3e 2dc8 393d 7244 5b3c 7bbc c03e
00000150: 6e8a 963d 93ba 223c 81f7 533d 3659 36bb
00000160: 4dc3 e33d d074 4ebb d2e7 373d 5b5d 9ebb
00000170: 41e0 1f3d 3869 79bb 9a04 203c cb3f 1f3d
00000180: 5877 fa3b 09ff 493c 2c9f 3b3b 8332 4fbb
00000190: 5fe4 d9b9 f7d4 57bb de7a 893a 37cf f23b
000001a0: e303 05bc 9fe0 c8bb 1922 8b3c 3387 d73b
000001b0: 11d9 1bbc 953e 633b 5724 1ebb b3bd 203c
000001c0: a524 363d fe5c 9639 d1e5 d13c 5d67 9fba
000001d0: 1869 0d3c 40b6 e33c 6d25 5fbb b5a8 473d
000001e0: 954e f63e c3b3 363d de2b 2c3c e858 153c
000001f0: f716 773d 7a1f 943c 00af 053d 3b0f d8ba
00000200: 9022 32bb c493 1f3c 2bf5 b83c afe9 eabb
00000210: e494 27bc 653c 54bb 464f 8f3d d2bf 3c3f
00000220: d3f8 95bb 1742 af3c b356 453d 45ea 09ba
00000230: 339d fbbb 8dc7 3c3d b1cc 393d 6619 1fbb
00000240: 16ce b03d d7be 18bc aead 65bc aa62 e43d
00000250: 9d66 af3c 92e5 be3b 9676 a53c 8f44 993e
00000260: 088a 54bb fa8d 3d3e 86db 373d 08eb a83b
00000270: 7877 243c e564 f13c 4d9c bebb 5da3 c4bb
00000280: 6a5b c23c 6788 acba 7524 013e 9a96 003d
00000290: e068 8f3b c7f6 283c d657 01bc 2c4d 343c
000002a0: 6f7e c93d aaa4 1a3c d0ae 9abb a50d 223b
000002b0: f6bf ef3c 42fa 34bc d966 4bbc 3724 033c
000002c0: 1606 863c 6e08 ad3d b2a6 f63b b1b1 b13d
000002d0: ef10 e5bd 21d8 583c 2940 e5bc 0303 213d
000002e0: e456 ac3c 274a ed3c 9cc5 173c 54cf 72bb
000002f0: 9fd5 ad3c 4248 693c b0ae 073d 3b5a 4abb
00000300: 5895 393c 4b68 c93b ef91 f03c 1e5c b83b
00000310: 0e2a 723c 8a01 0a3c 5031 bd3b 4563 2e3f
00000320: 5da7 c93a fdb2 2d3b 54cc 513c 4285 a4bb
00000330: 8f0f a3bc 31e3 af3b 44ab 7abb 55d1 afb9
00000340: 8ab1 a43c 4273 03bc 7437 3b3d 8691 903b
00000350: 60cc 4f3a 67a0 b0be f945 92bb f3a5 33bc
00000360: a308 263e 2ddd 443f 6995 193d 0c80 7e3b
00000370: 7fa4 bebc 6d7b 0bbc 86f3 4d3b c7f9 19bc
00000380: 14fc 333b 9c88 273b 74ee 5e3b 6fed f73c
00000390: 41ba a23d c034 8f3b 04fe 083d b275 803a
000003a0: ccc2 5a3c 0a45 6b3b 978d 19bd 7303 3e3d
000003b0: cdd3 55bc 113a d03e 5d4a 003d 11ef 853d
000003c0: aaac 7dba 4119 b5bd c77b 3abb 86a2 5d3c
000003d0: c068 8b3c a8f8 f53b f562 193d 9772 013a
000003e0: 7063 343c c978 033d 590f f33b ee84 07bb
000003f0: 1d9a 103e 0ca6 3b3d fe51 063d 1915 313d
-0.0008426505 0.04325324 0.06336757 0.025015423 0.003549131 0.0027896198 0.00082924607 -0.0070426273
0.4474405 0.19063006 0.08447005 -0.0033878805 0.10004113 -0.009327619 -0.0055297664 0.057758525
-0.0035496096 -0.010887461 -0.042734653 0.050548147 0.38233998 0.02929693 -0.010024142 0.037928663
0.0150188515 0.0064879237 -0.0045419526 0.0007208508 -0.0047353087 0.079475105 0.010033548 0.014902737
0.0036570122 0.0021635387 0.13054508 0.0030126944 0.008355456 -0.0062735286 0.026298454 0.021139925
0.0060738567 0.0141792 0.017580515 0.03531189 -0.005090532 0.0059189084 0.009483852 -0.004092085
0.41399482 0.006490589 0.029318223 0.005779285 0.007995033 0.0056399647 -0.005417995 0.010274705
0.0056136316 -0.0035434791 -0.012818978 0.00942815 -0.0010085322 0.0039510233 -0.005744844 0.08712702
0.012823946 -0.007634548 0.010073302 0.27828693 0.116270885 -0.31474364 -0.004177624 -0.006208961
-0.0068193683 -0.002079594 -0.0060247984 0.0027830312 0.05711147 -0.012585848 0.0015848228 -0.011846715
0.27204752 0.045356918 0.013383018 0.376438 0.07350622 0.009932178 0.05174971 -0.002782417
0.11121235 -0.003150273 0.044898815 -0.004832906 0.039032225 -0.00380571 0.009766722 0.038879197
0.0076436214 0.0123288715 0.002862881 -0.00316158 -0.00041559615 -0.0032933333 0.0010488888 0.007409956
-0.008118602 -0.0061302925 0.016984032 0.0065773963 -0.009512202 0.0034674753 -0.0024130547 0.009810853
0.04446854 0.00028679514 0.02562228 -0.0012161542 0.008631013 0.027796865 -0.0034049407 0.048744876
0.48106828 0.044605028 0.010508506 0.009115435 0.060324635 0.018081415 0.032637596 -0.0016484031
-0.0027181245 0.00973982 0.022577843 -0.0071689705 -0.010228369 -0.003238463 0.06997542 0.73730195
-0.0045767813 0.021393819 0.048178386 -0.0005261044 -0.0076786517 0.046088744 0.045361225 -0.0024276613
0.08633058 -0.0093228435 -0.014018459 0.11151631 0.021411235 0.0058257068 0.020198148 0.2993512
-0.0032430906 0.18511191 0.04488709 0.005154971 0.010038249 0.029467056 -0.0058169723 -0.0060009197
0.02372523 -0.001316321 0.12611564 0.031393625 0.0043765157 0.010312743 -0.007894477 0.011004727
0.098385684 0.009438673 -0.0047205463 0.002472737 0.029266339 -0.011045994 -0.0124146575 0.00800424
0.016360324 0.084488735 0.007527196 0.0867647 -0.111848705 0.013235123 -0.027984696 0.039309513
0.021037526 0.028966023 0.009263422 -0.0037049847 0.021220027 0.014238419 0.03312558 -0.0030876535
0.01132711 0.006146466 0.029366462 0.0056262156 0.014780534 0.0084232185 0.005773701 0.68120223
0.0015384961 0.002650439 0.012805063 -0.0050207684 -0.01990488 0.0053676595 -0.0038249055 -0.00033534566
0.020104188 -0.008023085 0.04570718 0.004411879 0.00079268776 -0.34497377 -0.004463908 -0.010964858
0.16214232 0.7689999 0.037496004 0.0038833646 -0.023271797 -0.008513314 0.003142567 -0.00939793
0.0027463483 0.0025563603 0.003401664 0.030264584 0.07945681 0.004370302 0.033445373 0.0009800701
0.013352107 0.0035899305 -0.037488546 0.04639001 -0.0130509855 0.406693 0.03132092 0.06539739
-0.0009676913 -0.088427074 -0.0028455125 0.013527518 0.017017722 0.007506449 0.03744789 0.00049380347
0.011010036 0.03209761 0.007417601 -0.0020678598 0.1412129 0.04581265 0.032793038 0.04323301

batchnorm.running_mean f4 [256]
00000000: 7a19 cc3f 2d89 b73f 00ef 8f3f 8ce0 3540
00000010: 42c5 2d40 62a9 ce3f f353 bd40 1673 3041
00000020: 085a 9a41 c482 7b41 8fc9 0840 cac0 1d3f
00000030: 099b c340 e38a c040 0fac 0241 6427 e340
00000040: 1cef 9440 9c16 c140 4e13 2441 3c2f 1a40
00000050: 9359 8d41 9850 4740 13c8 0d3f 6a71 c140
00000060: 9cc9 a840 3bde 0b42 1f63 8541 579e 8940
00000070: 9c1b 2340 6ecd d440 6bc1 2d3f 3561 0040
00000080: 81ee fc40 ea5e 5040 fcae b140 7831 2140
00000090: b951 1c41 9423 4641 bf1d 6440 1ce7 3840
000000a0: 748d b33e 64f7 6340 69d8 6b3f 6c98 1a40
000000b0: 78dd 3a40 8219 fe40 0508 e13e 58eb c640
000000c0: 5b02 e340 1fbd 2740 8475 3f40 3313 bb40
000000d0: 30dc dd3f 4696 e640 2d3f c43e 1767 c33e
000000e0: 4fdc ac3f 43ba 1041 e3aa be40 eb46 3f3f
000000f0: fd65 8340 3a5c 3540 c0f7 e140 7351 0a40
00000100: b3cd 1640 157b 7640 66d2 b03f 05de 2f40
00000110: 4896 8d41 b0f7 ba41 e210 2941 8860 a040
00000120: 23d5 153f 1fe6 7440 98c4 a440 5e40 da40
00000130: d89a 1741 6fe2 5740 41dc b43f 0746 f83f
00000140: bffb d440 260f 7d41 4471 e040 c151 6d42
00000150: 6350 a73f c397 3141 1521 5141 d870 8041
00000160: 1748 3841 6cee a240 736d 8141 4d4b e740
00000170: 9050 d83f 040c 5541 fb6c c03f da33 c541
00000180: ce6f 493e cf27 0e40 79c1 6640 c1ab 4e40
00000190: 987f 0f41 be8b 9740 d735 3340 5067 ef3f
000001a0: 7ead 4441 e529 163f 70cb 9140 4031 1740
000001b0: 7202 b940 ee58 0a42 0400 0000 95cc 4c40
000001c0: e987 a840 2590 a73e 5396 fd3f 40d5 a93f
000001d0: 934c c241 800d d840 59db 5a3f 764c 1440
000001e0: a398 0e42 2e96 0840 8f08 6f3f bd75 4d3f
000001f0: 3f55 9740 5f13 843d b7ae 5641 8f79 ca40
00000200: 8b45 d53f 55d0 233f 5daa 2f40 0031 3640
00000210: 9cd6 5f3e a83c 3741 cb9e 2c40 173c 4c42
00000220: 6e8d f140 58a9 993f 822a 8140 e0af 6340
00000230: 302a c441 8b35 9c3f 0c11 0541 e4c3 6540
00000240: 2d83 f540 8235 b240 9b54 be40 150d 9b40
00000250: 3f54 ab40 fe4f ed41 e190 c33f 1804 d040
00000260: 2670 2c41 bcb2 8940 8dbb 1b40 4285 2c41
00000270: 94ac 793f a8bf d23f d2ae 5740 d132 9a40
00000280: 2ded 1c40 1422 1340 a441 1740 9813 6640
00000290: d5b2 a840 82f0 6d3f c127 c83f 8540 9f40
000002a0: 3b17 2240 f497 0540 864e 1c40 64d5 8041
000002b0: 2364 3241 4641 7941 69cd f53d 0a01 a340
000002c0: 5629 e740 d53c 1b41 fb8b a540 6947 c940
000002d0: 91d6 2042 50d2 e53f 231f 943f 1655 0741
000002e0: 2adc 0a3f 8044 ab3f 0813 e83e 0c6b 8440
000002f0: f35c 8240 c8d6 5740 5354 d240 ec4f 1741
00000300: 83fb 5a41 123f db3f 6ae0 4540 de54 963f
00000310: e026 9940 eca8 5440 4de7 a140 afdf 9542
00000320: 232d 5c41 a9f8 b13f fb24 cf3f de94 2841
00000330: c052 3941 5a93 e43f bc41 d240 0cd5 0640
00000340: 9800 6740 177e a540 feee 9640 ffdf 0642
00000350: 531a f63f b275 cc40 5269 c640 0be9 9440
00000360: 8bdb d641 4bba 8b42 0016 3d40 bba4 e13f
00000370: ec79 f23f 7d95 3740 d93d 1b3f fa68 5140
00000380: 2f49 c140 7aa7 0940 9dcc de3f 823c 4c41
00000390: d4f1 7741 ea7f b440 f73c 0f41 9632 a63f
000003a0: e041 ce3f d111 7e3e 3f28 e540 b779 8640
000003b0: 9010 ad3e c12f 2741 0a2b 6540 8a1b 693f
000003c0: 7c3c 4d40 b658 3641 e590 1b40 907e 2e3f
000003d0: b72a 7e40 1194 fa40 2eec 8340 8701 4440
000003e0: 96d3 d23f 95b7 9b41 11f2 5e3f 5a21 2241
000003f0: ac8e 7641 c030 7341 80a2 d73f 83e1 3040
1.5945275 1.4338738 1.1244812 2.8418303 2.7151647 1.6145442 5.9164977 11.028097
19.29396 15.719425 2.1373022 0.616223 6.112675 6.016954 8.1670065 7.0985584
4.654188 6.03401 10.254713 2.409133 17.668737 3.114294 0.55383414 6.0450945
5.2746105 34.967022 16.673399 4.3005786 2.5485601 6.650077 0.6787326 2.005933
7.9041142 3.255793 5.5526104 2.5186443 9.769952 12.383686 3.5643156 2.8891058
0.35068858 3.5619745 0.9212709 2.415553 2.9197674 7.9406137 0.4395143 6.2162285
7.0940375 2.620918 2.9915476 5.8460937 1.7332821 7.205844 0.3832945 0.3816459
1.3504733 9.045474 5.95836 0.7471759 4.1061997 2.833754 7.061493 2.1612213
2.356305 3.8512623 1.3814209 2.747926 17.69838 23.370941 10.566622 5.0117836
0.58528346 3.8265455 5.1489983 6.8203573 9.475304 3.3731954 1.4129716 1.9396371
6.6557307 15.816198 7.0138264 59.329838 1.3071407 11.099551 13.070577 16.0551
11.5176 5.091604 16.178442 7.227942 1.6899586 13.3154335 1.5033258 24.650318
0.19671556 2.2211797 3.6055586 3.229233 8.968651 4.7358084 2.8001611 1.8703403
12.2923565 0.58657676 4.5560837 2.362381 5.7815485 34.586845 6e-45 3.1999867
5.2665906 0.3272716 1.98115 1.3268204 24.28739 6.751648 0.8549095 2.3171668
35.64906 2.1341662 0.93372434 0.8025778 4.729156 0.06449007 13.417655 6.3273387
1.6661848 0.63989764 2.7447731 2.8467407 0.2185921 11.452309 2.697192 51.05868
7.5485144 1.2004805 4.036439 3.5576096 24.5206 1.220384 8.316662 3.5900812
7.6722627 5.5690317 5.947828 4.845347 5.354034 29.664059 1.5278589 6.5004997
10.77738 4.303068 2.4333222 10.782534 0.9752896 1.6464739 3.3700452 4.818703
2.451976 2.298955 2.3633814 3.594946 5.27183 0.9294511 1.5637132 4.976626
2.5326679 2.0873995 2.4422927 16.104195 11.149447 15.578436 0.120020695 5.093877
7.223796 9.702352 5.1733375 6.289967 40.209538 1.7954807 1.1572002 8.458273
0.54242194 1.338028 0.4532702 4.1380672 4.0738463 3.3724842 6.5727935 9.457012
13.686404 1.7128623 3.0918221 1.174465 4.7859955 3.3228102 5.059485 74.93688
13.76102 1.390401 1.618316 10.536345 11.582703 1.7857468 6.570524 2.1067533
3.6094112 5.171642 4.716674 33.718746 1.9226784 6.389367 6.2003565 4.6534476
26.857199 69.86385 2.9544678 1.7628397 1.8943458 2.868499 0.6064125 3.2720323
6.0401835 2.150847 1.7406193 12.764772 15.49654 5.6406145 8.952384 1.2984188
1.6113853 0.24811484 7.161163 4.202358 0.338017 10.449159 3.580752 0.91057646
3.2068167 11.396658 2.4307187 0.6816187 3.971357 7.8305745 4.1225805 3.0625932
1.6470821 19.46464 0.87088114 10.133142 15.409832 15.199402 1.6846466 2.7637641

batchnorm.running_var f4 [256]
00000000: a6e8 1342 7c92 2c42 fedd 5242 2cde fb42
00000010: 2d4f a042 270b c942 5999 6e43 8864 9f43
00000020: c18c 8344 27a0 2444 3c64 4442 92d6 7e41
00000030: e84a 3e43 704a 4743 a5fd 5943 973d 8f43
00000040: 23ac 4743 925d 8243 cdb4 1d44 584f 5642
00000050: 61c4 1444 85dc b242 9a97 4641 6728 ac43
00000060: 5de4 8c43 5230 8644 5044 0044 3757 3343
00000070: b7a7 9f42 31c2 6643 1692 a641 759e b942
00000080: 2799 5443 e947 f342 d5d2 1443 2f20 e042
00000090: 0734 a743 c1e5 5f44 9a85 2143 6e51 9442
000000a0: 5bea dc40 f580 fd42 7e0b c641 497f e642
000000b0: 8527 bd42 162e c143 06f5 1e41 1e25 4e43
000000c0: bebc c243 54ce 8942 42df 1343 89d6 0943
000000d0: be17 2742 3d9d 5a43 c661 0341 b5f1 d740
000000e0: 9548 4142 eb89 e743 f5a5 7543 924e 9d41
000000f0: e01f 2a43 5819 e542 6ebe d943 7cdf a542
00000100: e729 8842 0811 1043 519e 8042 bf35 1443
00000110: b0cf 0844 17ac 0144 054c d743 cd58 7f43
00000120: 8a68 7c41 838e 3a43 3b94 6643 2f01 6c43
00000130: 7dca 9543 0af2 0b43 d10d a242 59c7 8642
00000140: 7193 8a43 d389 4644 468f 9043 f71c 9e45
00000150: 6deb 6542 c98b d843 e285 4c44 943a 2844
00000160: 66a3 9743 bb01 f042 2799 0944 8c89 aa43
00000170: b31c 4542 152f ec43 ff63 6842 2ca7 7f44
00000180: bb33 3a40 4593 c042 0aa5 4d43 9acc f742
00000190: 934f c643 f5b5 2a43 7b55 0343 8985 0f42
000001a0: ff96 f943 b4d7 7941 0a38 4043 0b8d 9542
000001b0: e99d 3643 eb0c 9744 0400 0000 e286 da42
000001c0: 00fc 6543 8e14 3941 0db4 2042 0ec0 0b42
000001d0: b538 6744 f241 4643 d2d0 d641 a331 6a42
000001e0: e3f6 0344 421e 3942 7e20 ee41 f93c eb41
000001f0: c42c 2143 507a e43f 5893 c243 667e 9a43
00000200: 90cf 1642 7a4c 8b41 13e2 e442 eb71 8342
00000210: 1fb2 7040 2329 b343 f909 b642 e4a9 a345
00000220: 087a 9643 2eb5 0442 c4bb 3d43 0027 fd42
00000230: 01ee 4f44 97c0 9f41 5dfa 7843 7f8f 7243
00000240: 60a3 9c43 3df9 8343 3585 3e43 693a 2a43
00000250: a909 6943 d815 3f44 a18e 2b42 0267 4743
00000260: 3c3f 8f43 a896 4843 fa4d 9942 65ad b243
00000270: 75ea 0442 0b6b c642 e9c4 c942 fe3a 1743
00000280: 7095 b942 29c4 a342 3132 fe42 a946 0f43
00000290: 5416 4a43 4914 1242 9be2 7742 571a 4343
000002a0: 487e a842 dd33 3542 2a70 9842 e085 1544
000002b0: ec6d 1244 958e 9043 7641 2740 a88c 9343
000002c0: 62fa 9443 d009 4943 a8b4 4943 3307 c943
000002d0: bf5a e343 83f5 5742 6dc4 c041 9205 b543
000002e0: c4e4 8d41 3658 8242 37a0 f240 b0ac 3d43
000002f0: b0f9 2243 c60f c542 da48 a943 130a 6943
00000300: c858 af43 e9e7 8842 eb02 f042 0cf2 ea41
00000310: 22ab 2f43 4261 3b43 15b5 6243 93bd 1446
00000320: dfa6 6944 5592 2042 3a70 0e42 5cda ab43
00000330: dfb9 fe43 7bb0 a542 314c a943 7951 6842
00000340: 71b1 9e42 69c9 5c43 2055 2343 c3bc 9944
00000350: ccfe ca42 56b2 8043 b72d 9743 0ec0 4643
00000360: 31dd dc44 14ae 1546 c08b 9542 18f8 6442
00000370: b6e7 5342 3f58 1243 8325 7541 0164 2a43
00000380: e3b7 9643 561c 7842 32c6 7a42 ab57 c143
00000390: a3ef 2244 2fe5 6f43 52d6 de43 d115 4d42
000003a0: d970 1842 a04c ee40 2216 a243 0f1d fe42
000003b0: 5f79 cf40 91f3 0a43 3d88 d842 0d0d a341
000003c0: 722b 0243 9ba1 d943 954e 9942 854f 0742
000003d0: 22e4 ba42 2411 6a43 7864 7143 4eae e342
000003e0: b320 9242 c8bb 1044 f906 3a42 b843 d943
000003f0: 1011 2b44 9110 0944 57cc 7a42 0817 b242
36.977196 43.14305 52.71679 125.93393 80.15464 100.52178 238.59901 318.7854
1052.3986 658.5024 49.097885 15.927385 190.2926 199.29077 217.9908 286.48117
199.67241 260.73102 630.825 53.577484 595.0684 89.4307 12.412012 344.31564
281.7841 1073.51 513.0674 179.34068 79.82757 230.75856 20.821331 92.80949
212.59825 121.64045 148.82356 112.06286 334.40646 895.5899 161.52188 74.15904
6.903608 126.75187 24.755611 115.248604 94.57719 386.36005 9.93482 206.14499
389.47455 68.902985 147.8721 137.83803 41.773186 218.61421 8.21137 6.7482553
48.32088 463.07748 245.64827 19.663364 170.12451 114.5495 435.48773 82.93649
68.08184 144.06653 64.30921 148.20995 547.2451 518.6889 430.5939 255.34688
15.775522 186.55669 230.57903 236.00462 299.58194 139.94547 81.026985 67.38935
277.1519 794.1535 289.11932 5059.6206 57.479908 433.09207 818.0919 672.9153
303.27655 120.00338 550.393 341.0746 49.278027 472.36783 58.097652 1022.61206
2.9094074 96.287636 205.64468 123.89961 396.62167 170.71077 131.33391 35.880405
499.17966 15.615162 192.2189 74.775475 182.61684 1208.4037 6e-45 109.26344
229.98438 11.567518 40.17583 34.937553 924.88605 198.2576 26.851963 58.548473
527.8576 46.27955 29.765865 29.404772 161.17487 1.7849827 389.15112 308.9875
37.702698 17.412342 114.44155 65.722496 3.7608716 358.32138 91.01948 5237.2363
300.95337 33.176933 189.73346 126.57617 831.7188 19.969038 248.97798 242.56053
313.27637 263.94717 190.52034 170.22816 233.03773 764.3413 42.889286 199.40237
286.49402 200.5885 76.6523 357.35464 33.228962 99.20907 100.88459 151.23044
92.79187 81.883125 127.09803 143.27602 202.08722 36.51981 61.971294 195.10289
84.24664 45.300648 76.21907 598.0918 585.7175 289.11392 2.6133704 295.09888
297.95612 201.03833 201.70569 402.05624 454.70895 53.989758 24.095911 362.04352
17.736702 65.17229 7.5820575 189.67456 162.97534 98.53081 338.56915 233.03935
350.6936 68.45295 120.0057 29.368187 175.66849 187.37991 226.70735 9519.394
934.60736 40.142902 35.609596 343.70593 509.45212 82.84469 338.59525 58.079563
79.346565 220.78676 163.33252 1229.8988 101.49765 257.39325 302.35715 198.75021
1766.9122 9579.52 74.77295 57.24228 52.97628 146.34471 15.321658 170.39064
301.4366 62.02767 62.69355 386.6849 651.7443 239.89525 445.67438 51.271305
38.110203 7.4468536 324.1729 127.056755 6.483566 138.95143 108.26609 20.381372
130.16971 435.26254 76.65348 33.827656 93.44557 234.06696 241.39246 113.84044
73.063866 578.9341 46.50681 434.52905 684.2666 548.25885 62.69955 89.04498

fc2.weight f4 [128, 256]
00000000: 3140 8dba 22c1 38be ae59 8cbe 06f6 7abd
00000010: cda3 d2bd 462e 5d3b dfad a23d 9aff cb3d
00000020: 04ee 94bf 1dde 593e e6c9 2fbf eea4 ec3c
00000030: bf89 893c b17e d6be 5acf 30bd 63e3 af3e
00000040: 0613 23be 843d 4abe 1727 a3be 623b d23d
00000050: 1974 f9be 2c41 42bf 8c73 a13d cafc f43d
00000060: edd5 603d 8ed7 48bf 8a4e 47be 004d 893e
00000070: 4b8d 653d 9f8c 873e c5e5 a23e 1eb7 013e
00000080: d655 11be eec6 b1bd 752f 98be ba10 34bd
00000090: 2a3e 0a3e e5c9 91bc 5ad1 1bbe 645f 123e
000000a0: c731 ffbd 223a 273f ff2d 483e 5138 f93e
000000b0: d9a9 7cbe e623 433c 05a7 6c3d c0fc fbbd
000000c0: 4fa6 ffbf 5a23 5ebd d73b 3abe 3879 da3e
000000d0: 7935 9abd 95bc 323e 14d4 89bd e1c2 d93d
000000e0: d1d2 94be a23a e4be 159b 3cbd 747d cfbb
000000f0: db11 e7bd d469 4c3e 82e6 c03c 05d5 99be
00000100: 1916 213e e523 4f3e 6d60 27be 11e9 41bf
00000110: e2e0 613e e67f 893d d545 20be 3f34 08be
00000120: e652 f33d f0c7 4dbe 0abf 0fbe 6f5a da3d
00000130: ca17 ed3d 9597 17be ed1c 6abe 543b 91b9
00000140: b0ba f33c d886 6bbe dd17 ea3d 2704 92be
00000150: d7c9 afbe 28ed 8c3e b7c8 213f 2fe6 2c3f
00000160: 7471 debe e0b2 393f 3ef9 193f 68a3 513d
00000170: 7a04 60bf 7b7c 54be 8902 f4bd 3bb9 c0bf
00000180: 944e 203e a3a1 2dbd c159 38bd 0676 71be
00000190: b947 8abc f28d 623e 0341 b4be 20a4 6a3e
000001a0: 54bb efbc 48b6 a5be a03b 163f 7cd6 e03e
000001b0: 04c9 353e af6d 003d 56ac 493d f4b8 c03e
000001c0: 749e 64bd 97bb 39be 4975 44bf 845e f0bd
000001d0: 5b1a ac3d 8d9b 21bf f1b7 d5bd 2ea9 39bf
000001e0: 0f1a 5bbf 5bc8 5fbc 83e5 483e 1f37 9b3e
000001f0: dcdb fc3e 17ff 9dbe dc7a cc3e 3ccb 753e
00000200: 3aa2 a33d 963c a6bd e192 1ebf 5b31 96bd
00000210: 3337 68be 27d9 273e 86ed 793e e802 84bf
00000220: c0e7 97bd f0b9 343e 6dd6 1cbf 0d4a aa3c
00000230: 2a19 0e3e 87cc c6be 8932 21bf 8ef8 0b3f
00000240: af1b 473e 83b3 703e 92ef c2bd 6261 0b3e
00000250: 0389 833e 673b 1abe 0f7f ddbc b4ec 9f3e
00000260: 4928 c6bc da86 95be bb24 eb3e 8edd 18bd
00000270: 413d 083e 1b1f 12bf fce2 213d 6d7a 51bd
00000280: 912d 28be 3743 833d 805c d3be 8575 713e
00000290: 519f d03e d5eb a93e 653a 513e b653 21bf
000002a0: 17e4 50be c014 debc a8f0 77be 580b f6be
000002b0: 663c 6bbe ad9b bf3c 72bf 37be 7d2d 073e
000002c0: 08f1 2ebe f05a 04be d2e1 6b3d c286 983e
000002d0: 3289 9abe 1a13 dabd 084a 4ebc e7dc 343e
000002e0: 191d ddbe 2ae2 f3be aea5 f33d babc e43d
000002f0: 9432 27be 4459 043f 6eea c1be ccc1 a0bd
00000300: 156c 163d 7816 1dbe c0f4 d3be e670 f23c
00000310: a962 c13e cad2 87bd 8719 12bc fb65 43be
00000320: c2aa 1abe ac83 8e3e f5d6 3bbe 8f78 063f
00000330: 11f7 29bf e1e0 bbbe 1034 8d3e 7240 173e
00000340: f460 aebd 5832 85bd 098f b13c 1baf f83d
00000350: 41c3 91be 3257 9b3f c212 09be 410d a23e
00000360: a171 8cbe 944a f6be 5edc 03bf 930c 78bd
00000370: bed8 9c3c 7694 023e 22e4 ac3d 1d0f 853d
00000380: a12b aa3e 3d4b d13d 0560 3f3e 173e 19bf
00000390: 69fd 383e a856 acbe 5f39 0ebd 85a9 74be
000003a0: a562 abbd aed6 9bbe f9dd 533d 4f77 5abe
000003b0: dac2 9ebd 4f30 7fbe 3afa 89be 9826 343c
000003c0: 34c1 9cbe d035 833e 713c 6c3e 8c14 64bf
000003d0: 368d 393d bc8c a5bd 75be 7c3d afee 813e
000003e0: 32c2 e8be a873 313d b6dc 20bf 9b5a efbd
000003f0: 1563 19bf 5120 5e3e f3ba b1be 7179 283f
-0.0010776577 -0.18042424 -0.2741217 -0.061269782 -0.10285149 0.0033749505 0.079433195 0.099608615
-1.1635137 0.21276136 -0.6866745 0.028887238 0.016789315 -0.41893533 -0.043166496 0.3435317
-0.15925226 -0.19750029 -0.3186576 0.102652326 -0.48721388 -0.75880694 0.07883367 0.11962278
0.054891516 -0.7845391 -0.19463554 0.2681656 0.05604295 0.26474473 0.31815925 0.1266751
-0.141929 -0.08680521 -0.29723707 -0.043961264 0.13500276 -0.017796466 -0.1521658 0.14294201
-0.12460666 0.6532308 0.19548796 0.48675779 -0.24674167 0.011910414 0.05777647 -0.123040676
-1.9972628 -0.054232933 -0.1818689 0.42670608 -0.0752973 0.17454751 -0.06729904 0.10632873
-0.2906709 -0.44575983 -0.046046335 -0.006332094 -0.112827025 0.19962245 0.023547415 -0.30045334
0.15731086 0.20228536 -0.16345377 -0.75746256 0.22058442 0.06713848 -0.15651639 -0.1330118
0.11881046 -0.20095801 -0.1403772 0.1066178 0.11576803 -0.14803918 -0.22862597 -0.00027700758
0.029752105 -0.23000658 0.11430333 -0.28518793 -0.3433368 0.27524686 0.6319689 0.6753873
-0.43445933 0.72538567 0.6014594 0.051181227 -0.8750683 -0.2075061 -0.11914546 -1.5056528
0.15654975 -0.042390477 -0.04500747 -0.23580179 -0.016879903 0.2212446 -0.3520585 0.22914171
-0.02926413 -0.32365632 0.5868473 0.4391364 0.17752463 0.031354602 0.049236618 0.37641108
-0.055815175 -0.18137966 -0.7674146 -0.117367774 0.084034644 -0.63127977 -0.10435475 -0.7252377
-0.8558664 -0.013658608 0.19618802 0.30315492 0.4938649 -0.3085868 0.39937484 0.24003309
0.07989927 -0.081170246 -0.6194287 -0.073336326 -0.22677307 0.16391431 0.24407014 -1.0313387
-0.0741725 0.17649055 -0.6126469 0.020787263 0.13876787 -0.38827917 -0.62967736 0.5467614
0.19444154 0.23505978 -0.09518351 0.13611367 0.2569047 -0.15061723 -0.027038125 0.31235278
-0.024189131 -0.29204446 0.4592646 -0.037320666 0.13304617 -0.57078713 0.03952311 -0.051142145
-0.16423632 0.064093046 -0.4128151 0.23579986 0.4074655 0.33187738 0.20432432 -0.6301836
-0.2039951 -0.027109504 -0.24212897 -0.4805553 -0.22972259 0.023389662 -0.17944124 0.13200946
-0.17084134 -0.12925315 0.057588406 0.29790312 -0.30182797 -0.106481746 -0.012590893 0.17662393
-0.43186262 -0.47633487 0.11896835 0.11168809 -0.16327888 0.5169871 -0.37874168 -0.07849464
0.03672417 -0.15340602 -0.41397667 0.02959485 0.37770584 -0.06632002 -0.008917219 -0.19081871
-0.15104201 0.27834833 -0.18343718 0.5252771 -0.6639262 -0.36695006 0.27578783 0.14770678
-0.08514586 -0.06503743 0.02167465 0.12142774 -0.2846928 1.2135985 -0.13386062 0.31650737
-0.27430442 -0.48103774 -0.5150813 -0.060558867 0.01914632 0.12751946 0.084419504 0.06497023
0.3323641 0.10219429 0.18688972 -0.59860367 0.18065418 -0.33659863 -0.034722682 -0.23892792
-0.08368424 -0.30437225 0.05172536 -0.21334575 -0.07752009 -0.24920772 -0.2694872 0.01099553
-0.30616152 0.25626993 0.23069932 -0.8909385 0.045300685 -0.080834836 0.06170507 0.25377414
-0.4546066 0.04332319 -0.6283678 -0.116872035 -0.5991681 0.21692015 -0.34712943 0.65810305

fc2.bias f4 [128]
00000000: ef41 f8be 0748 63bf 4087 00bf 1e69 24bf
00000010: 1bab 41bf 50e9 73bf 530a 8fbf 07c8 79bf
00000020: 20cb 20be 5eca 6cbf 2597 5bbf b33d e4be
00000030: 26a4 1dbf f2f7 59bf 7cbe 9bbf 0022 a4bc
00000040: 82a4 a4be 107b 20bf 59dc 77bf 2b74 553e
00000050: 34d8 dabe b3c9 07bf 9857 dbbe 3bcc 53be
00000060: 9c72 363d 8df4 8cbe c0bf 9bbe 3bf2 0cbf
00000070: 0553 c4be 0748 acbf 3b60 e8be 35db 45be
00000080: 76d2 26bf 660f 12bf dd0c 97be fc96 75be
00000090: 0558 3bbf 0947 cfbe 1751 43bf fb11 37bf
000000a0: 7222 d7be f8f8 11bf ffeb b0be 703a 323e
000000b0: a6e1 dcbe 8a3b d63e 44e6 37bf ea10 6ebf
000000c0: e980 40be 75fa ffbe 4973 5fbe 3f05 0dbf
000000d0: aa4a b7bf 9821 2abf 7eb4 88be 16cd 47bf
000000e0: 5eb2 ba3c 5ae9 e9be 17f7 3cbf 6d0f 07bf
000000f0: 34a0 64bf 1144 d7be 70b0 51bf 4bb1 6dbf
00000100: bfc2 b8be 0f58 2abf a429 92be c240 0ebf
00000110: 5689 80bf 1b78 61bf f13c 35bf 3032 cebd
00000120: 3bad f9be dd87 3ebf a12d 08bf 530e e9be
00000130: 81d4 31bf d8b2 18bf fc57 23bf c3ad 05bf
00000140: 51a5 4dbf 7ff2 c5be 8f60 0dbf 9cb5 12bf
00000150: bfae b0be 9ebc 6abf 44ab 08bf 291e 59bf
00000160: 99e9 863e 651c 1fbf 5d89 c3be 2c76 2cbf
00000170: a98a 67bf e0b3 25bf f6aa 56bf 145b f1be
00000180: b6fe 21bf 8740 29bf e83c e3be 503b 46bf
00000190: 011f b7be 4842 11bf 852b 45bf 2245 96be
000001a0: 2fe4 1cbf e080 01bf 911e b5be 120e c9be
000001b0: 8ab5 75bf ad95 38bf 0684 07bf 6408 3fbf
000001c0: f2cc c7be 556b f7be ef47 17bf 91f4 523e
000001d0: 9542 22bf abb6 51bf 47fd 3ebe 7d1d 38bf
000001e0: dc5a 9ebe 205b 34bf f194 50bf 5f36 9cbe
000001f0: 2a1d 39bf c9ea ebbe 63b3 973d 8e30 1bbf
-0.48487803 -0.8878178 -0.50206375 -0.64222896 -0.7565171 -0.9527788 -1.1175026 -0.9757084
-0.15702486 -0.9249629 -0.85777503 -0.44578323 -0.61578596 -0.8514396 -1.2167506 -0.020035744
-0.3215676 -0.6268778 -0.968206 0.20845096 -0.42743075 -0.53042144 -0.42840266 -0.20683376
0.044542894 -0.27530327 -0.3041973 -0.55057114 -0.3834459 -1.3459481 -0.45385918 -0.19321902
-0.6516489 -0.57054746 -0.29502 -0.23983377 -0.7318118 -0.40483883 -0.7629561 -0.7151181
-0.42018467 -0.5702052 -0.3455505 0.17405105 -0.43140906 0.418423 -0.7183573 -0.9299456
-0.18799175 -0.4999577 -0.21821322 -0.5508613 -1.4319661 -0.6645751 -0.26700205 -0.7804731
0.02279013 -0.45685846 -0.7381453 -0.5275791 -0.8930695 -0.42044118 -0.8190985 -0.9284865
-0.3608608 -0.66540617 -0.28547394 -0.5556756 -1.0041912 -0.8807389 -0.70796114 -0.10068166
-0.48764977 -0.7442606 -0.53194624 -0.4551874 -0.6946488 -0.59647894 -0.6380613 -0.52218264
-0.8033038 -0.38661572 -0.5522546 -0.57308364 -0.3450832 -0.91694057 -0.5338633 -0.84811646
0.26350096 -0.621527 -0.38190737 -0.67367816 -0.90445954 -0.6472759 -0.83854616 -0.471398
-0.63279283 -0.66114086 -0.44382405 -0.77434254 -0.35765842 -0.5674176 -0.7701953 -0.2934962
-0.6128568 -0.5058727 -0.35374883 -0.39268547 -0.9598013 -0.7210339 -0.52935827 -0.7462218
-0.39023548 -0.48324075 -0.59094137 0.20601107 -0.63382846 -0.81919354 -0.18651305 -0.71919996
-0.30928695 -0.70451546 -0.81477267 -0.30510232 -0.72310126 -0.46077564 0.07407262 -0.60620964

fc3.weight f4 [1, 128]
00000000: f9cf 12bc 39b9 6a3d 4c9c f43c 2cb5 783d
00000010: b292 ee3d 1b09 ea3b b332 69bd 86ae 1d3e
00000020: f841 0b3d b5c2 23bd 8ec6 9cbc df51 c23a
00000030: 998f 793d 76db a2bc e3d3 4cbe dbf4 813d
00000040: 33d6 cf3b 55e6 0e3d 250e 12be 4903 233d
00000050: d9b3 e0bc 1fd2 74bb 5ddf 1cbd a24c 933b
00000060: 3852 a73c 3de0 533c 6d27 383d cab6 693c
00000070: 12cb 9dbc 67ff eb3c b392 6abd 54ad 11bc
00000080: 3f45 c93d 18ff 2bbd 6248 263a bdc7 86bc
00000090: f873 ef3c 81fe 16bb ed96 0abe cd2d 58bd
000000a0: c587 453d 958e 59bd 54a8 263a e6f6 60bd
000000b0: 7f13 0cbd f8cd 313d 649e 9b3c 5eca 3a3e
000000c0: 9a5d 7fbc e054 d93d ea55 83ba 66fb 063d
000000d0: 2776 91bd 326d a238 57c0 cd3b 18b7 333d
000000e0: 98ab 3fbd 64c8 9fbb 2f91 113d 6d43 ffbc
000000f0: 9931 8bbd 75d8 aabb a2e0 be3d 85e4 e7bd
00000100: 278d 933b ab12 db3d 1e36 293c 3ddd 6a3c
00000110: 0e0f b03c e4c1 483c f234 99ba a5cb 503c
00000120: c7fe 11bd 211d 853a 7466 06bd 81ae 23bd
00000130: 0b37 a63d d319 40bd 8fe0 3c3e 5df1 56bd
00000140: 1e46 933d eed9 2b3c abf2 4fbd 5a71 9c3d
00000150: 1b25 c23c 8475 e93a a3e3 a0bd a320 6f3c
00000160: 6cd9 0e3d 4a0a 48bd cdfc 82bc fe8e 413c
00000170: 6318 b03c 391f 51bd 4dd2 5abd 0665 3c3c
00000180: bd4e fd3c 410e 1fbd 621c b0bc a5c9 4abd
00000190: e615 9d3c 052f 7a3c 3d2e 12bd 62ad 5f3c
000001a0: 3848 e13d 9e3d 483d 8c4e 1ebb 0ca9 533e
000001b0: 73d0 a7bc 9ab3 983d 745b 79bd 03dd e43d
000001c0: 0268 c0bc cb45 093d f290 c7bc ea81 263d
000001d0: 0c8f b23b 8833 77bd d08a 153c 2387 653c
000001e0: 9e99 38bc 0189 afbc 1275 81bd e570 babc
000001f0: d535 893c f827 153b 9c04 8a3d 7917 513e
-0.008960717 0.05730555 0.029859684 0.060719654 0.11649074 0.0071421987 -0.056933116 0.15398607
0.03399846 -0.03998061 -0.019137647 0.0014825425 0.06092796 -0.019880038 -0.20002703 0.063455306
0.006342673 0.03488763 -0.14263208 0.039798055 -0.027429508 -0.0037356687 -0.038298953 0.0044952193
0.020424947 0.012931881 0.044959474 0.014264772 -0.01926187 0.028808309 -0.05726881 -0.008891422
0.09827661 -0.041991323 0.00063431833 -0.016452665 0.029230103 -0.002303988 -0.13534136 -0.052778054
0.048225183 -0.053114492 0.00063574803 -0.05492296 -0.03419828 0.043409318 0.018996425 0.1824126
-0.015586281 0.10611892 -0.0010020111 0.032954596 -0.07102614 7.745101e-05 0.006279032 0.043875784
-0.046794504 -0.0048761833 0.03553885 -0.03116008 -0.067965694 -0.005213792 0.09320189 -0.113228835
0.0045029107 0.1069692 0.010327844 0.014334974 0.021491554 0.012253258 -0.0011688753 0.012743865
-0.035643365 0.0010155776 -0.03281255 -0.03996134 0.08115967 -0.046899628 0.18445037 -0.052476276
0.07191108 0.01048897 -0.050768536 0.076388076 0.023699334 0.0017811512 -0.07855918 0.014595184
0.03487532 -0.048837937 -0.015989685 0.011813877 0.021496003 -0.051055167 -0.053423215 0.011498695
0.030921334 -0.038831953 -0.021497909 -0.04950871 0.019175481 0.015269999 -0.035688628 0.0136521775
0.11000103 0.048886888 -0.0024155704 0.20669955 -0.020485139 0.07456131 -0.060878232 0.11174967
-0.023487095 0.033513825 -0.024361107 0.04065124 0.0054491814 -0.06035188 0.009127334 0.01400927
-0.011267094 -0.021427633 -0.063211575 -0.02275891 0.016749302 0.002275942 0.067391604 0.2041911
