checkpoint_critic.pth (torch_old, 47581 bytes, 5 tensors)

fcs1.weight f4 [128, 24]
000000 d9 eb 12 be 43 52 72 bd 80 5e 8c 3d aa b5 0f 3e
       -0.14347781 -0.059160482 0.06853962 0.14034143
000010 f0 c4 84 3e 70 08 cc be 6d de 44 3d b4 a0 c5 3d
       0.259315 -0.39850187 0.048063684 0.09649792
000020 78 51 5a bd f1 28 81 bd e2 7d ff 3c a7 78 85 3e
       -0.05330035 -0.06306637 0.031187955 0.26068613
000030 c7 20 a6 3d f9 59 84 bf 9b 31 cb bc 20 83 5b 3e
       0.081117205 -1.0339957 -0.024803927 0.21436739
000040 7d b5 46 be 3b 3e a3 be 0d 4b c5 3b 8c 78 f1 be
       -0.1940517 -0.31883416 0.0060209096 -0.47162282
000050 28 40 fc be b6 b4 5b bf c5 7c d2 bd 40 34 f9 be
       -0.49267697 -0.8582262 -0.10277704 -0.48672676
000060 e9 ad 3a 3e 43 ab 88 3f c0 70 03 bd fc 04 15 3c
       0.18230404 1.0677265 -0.03208995 0.009095427
000070 9d d6 5e 3e 80 c7 04 bf 52 46 82 bd 86 38 81 bd
       0.21761556 -0.5186691 -0.06361069 -0.06309609
000080 f7 cf a3 bd 60 7a b1 3e b6 ba 87 bd 7b f6 8b be
       -0.079986505 0.34663677 -0.06627409 -0.27336487
000090 85 5f 4d be 9a ac 77 bd ce 89 83 3d 40 ea 86 be
       -0.20055969 -0.06046734 0.064227685 -0.26350594
0000a0 40 f7 cd bd 98 8f 5d 3e 83 f6 0e 3e a5 53 02 bd
       -0.10056925 0.21636808 0.13961224 -0.03181805
0000b0 5e 98 97 be 57 d6 00 bf c2 54 9c 3d fd 81 e3 ba
       -0.29608434 -0.50327057 0.07633354 -0.0017357465
0000c0 46 c6 dd 3c 45 92 8f 3f 6f f2 62 bc a2 28 88 bd
       0.027072083 1.1216513 -0.013851746 -0.06648375
0000d0 a7 df 20 be f6 7e 88 bd 86 cb e0 3b 42 3e 77 bc
       -0.15710317 -0.06664841 0.0068601994 -0.015090527
0000e0 8c 8a 21 3d 88 ed b8 3f 40 c9 11 3d 20 02 8f 3e
       0.03943877 1.4447489 0.035592318 0.2793131
0000f0 f6 52 40 3d 48 1b 1e bf 2a c7 9c 3d 9a e1 a0 3e
       0.046954118 -0.6176038 0.07655175 0.3142212
000100 51 10 94 3e 51 49 cb 3f 97 40 b8 3d 78 e4 92 3e
       0.28918698 1.5881749 0.089966945 0.28689933
000110 82 7b 2f bd 79 1d 81 bf c1 9e 24 3d db 94 ba 3e
       -0.042842396 -1.0087119 0.040190462 0.36441693
000120 28 b4 54 3e a8 3f 87 3e dc 41 97 bd 5b 91 1f 3f
       0.20771849 0.26415753 -0.073856086 0.6233117
000130 25 14 a5 be 21 94 ba be 37 8c 86 3d 9e 97 26 3f
       -0.32241932 -0.36441138 0.065697126 0.650751
000140 e8 4a f6 3e d8 0d 11 3f 4e 8e 6e 3c 43 53 33 bd
       0.48104024 0.5666175 0.014560295 -0.043780576
000150 d8 1a c2 be 4f e7 c7 be 8d 11 54 b9 6f ba 0d be
       -0.37911105 -0.39043662 -0.00020224434 -0.1384065
000160 c3 73 3b 3f fc a3 0c 3f fc 98 89 3a e0 aa 8f be
       0.73223513 0.5493772 0.0010497863 -0.28060055
000170 6c 1a 89 be 84 87 21 be 1c ed 07 bd e4 9a 7e be
       -0.2677797 -0.15774351 -0.03318511 -0.24863774
000180 00 35 ae 3e 0b ab 79 bf 02 0a 4f bc 4f 52 bc 3d
       0.3402481 -0.97526616 -0.012636663 0.091953866
000190 84 37 bd 3d 31 03 c2 be 9b 17 17 3d ab 23 18 bd
       0.092391044 -0.3789306 0.036887746 -0.03714339
0001a0 73 b9 67 3e c8 3e 68 bf d9 93 f1 bc 1b aa 8f 3e
       0.22629337 -0.90720797 -0.029489445 0.28059468
0001b0 2a 77 5d bd 6f ec 52 3d 4f 2a 49 bc 25 7f 8b 3e
       -0.05406872 0.051495012 -0.012278154 0.2724544
0001c0 37 bd 88 3e f0 ea 79 bf 1f 7c 53 3b 20 45 79 3e
       0.2670686 -0.9762411 0.0032270027 0.24342775
0001d0 e7 91 81 be 0f 19 68 3e 74 04 fb bc 5f cb 3e 3e
       -0.25306627 0.22665809 -0.030641772 0.18632267
0001e0 e1 a6 66 3e f8 d7 35 bf 61 fb 7f bc 3a 32 07 3e
       0.22524597 -0.7103267 -0.015623898 0.13202754
0001f0 d6 cc 9d bd ab a7 fd be 38 b3 e6 bb ec 40 82 3d
       -0.07705085 -0.49541983 -0.0070404075 0.06360039
000200 28 20 55 be b2 c2 af bf 25 56 c6 bb 3d ee 8d 3d
       -0.20813048 -1.3731291 -0.0060527497 0.06930206
000210 da 46 9c bc fc 12 a2 3e 9c b1 ae bd da ad 0f bc
       -0.019076753 0.3165511 -0.0852997 -0.008769477
000220 2f f3 9c bd 0a 38 61 bf ef a5 6b bd 66 0b 60 bd
       -0.07663571 -0.87976134 -0.057531293 -0.05469837
000230 98 55 df bc b9 f9 18 3f 0e 8d f5 3b 5c e8 2e bd
       -0.027262494 0.59756047 0.0074936217 -0.042702064
000240 b0 29 31 3c 3b 34 7f be ad be 0f 3b 82 53 0b 3e
       0.010813162 -0.24922268 0.002193372 0.13606074
000250 8c c3 4c 3d 54 f2 39 be f5 ff 74 bc 51 f1 b3 3d
       0.049991176 -0.18158847 -0.014953603 0.08786262
000260 08 97 9d 3d 6d c5 cb bd 7a 1f 91 3c 8d 1f f5 3c
       0.076948225 -0.09949765 0.017715205 0.029922271
000270 ce 0a a6 bc 84 39 e3 bd 88 f8 81 3d be bd 08 3d
       -0.020268824 -0.110949546 0.06346232 0.033384077
000280 6d 7c 13 3e c4 24 c8 bd 2a 79 90 bc a9 dc ae 3d
       0.14402933 -0.097726375 -0.0176359 0.08538181
000290 7b 2d 16 3f d9 d3 20 3f e9 57 d8 3d 48 36 ff 3d
       0.5866315 0.62823254 0.105636425 0.12461525
0002a0 3f b4 9d bb 55 00 b0 be aa b5 97 bc 4a 7b e1 3d
       -0.004812747 -0.34375253 -0.018519241 0.11009844
0002b0 c0 f7 ab bb f4 dd b7 3e d1 32 60 3c 84 e3 25 3e
       -0.00524804 0.35911524 0.013683991 0.16200072
0002c0 ba 66 44 3d 0f 81 a2 3e 83 42 98 bd 9c 41 b8 bd
       0.04794953 0.3173909 -0.07434561 -0.08996889
0002d0 a3 d2 9a 3e 11 ab 3d 3e 14 e4 14 3d 58 d4 d7 bd
       0.30238828 0.18522288 0.036350325 -0.10538548
0002e0 a3 d5 0f bd 39 52 15 3f 14 a3 31 3c e1 ad 02 3e
       -0.03511585 0.58328587 0.0108421035 0.12761642
0002f0 b6 ff b5 3e cd 57 04 3f 81 b1 26 bd 69 3e 5d 3d
       0.35546654 0.51696473 -0.040696625 0.054014597
000300 1d 3d 94 3d 93 bd 3e bf f7 d8 a9 bd a4 9b 07 3e
       0.07238219 -0.7450802 -0.08293336 0.13242966
000310 4c 91 cf bd 70 13 a0 3e fd 66 97 3d b7 12 2f 3e
       -0.10135135 0.3126483 0.0739269 0.17096983
000320 50 bf 24 3e a1 87 03 bf 23 c6 88 bd bb 87 0c bd
       0.16088605 -0.5137883 -0.066784166 -0.03430913
000330 4f 93 81 3a 16 6a 03 3f 2b 5c 0a 3c 63 1f 81 bd
       0.000988582 0.5133375 0.008444826 -0.06304815
000340 b3 64 05 3e fa 8b cc be 23 09 56 bd 9f ac 9b be
       0.13026695 -0.39950544 -0.052254807 -0.30405137
000350 56 3e ff 3e 54 d0 21 be 24 bd 79 3d cf 00 b6 be
       0.49852246 -0.15802127 0.060971394 -0.35547492
000360 cb 06 7e 3e 48 67 3e 3f 05 b8 71 bd b5 42 12 3e
       0.24807279 0.74376345 -0.059013385 0.14283259
000370 1f cb 0c be f4 ff e4 be 9e 0b 8a 3d de 27 3d 3e
       -0.1374936 -0.44726527 0.06740497 0.1847224
000380 f7 e7 01 3e 86 b6 0e 3f 79 7c 53 be ea d6 14 3e
       0.12686144 0.5574726 -0.20652951 0.14535108
000390 0d 83 0d 3e ae c9 01 bf dc 51 7a be 63 f3 32 3e
       0.13819523 -0.50698364 -0.2444529 0.17475657
0003a0 b1 56 a5 bc dd 42 11 3f 6f 8e b2 bc b9 24 0a 3d
       -0.02018294 0.5674265 -0.021796433 0.033726428
0003b0 fd ce f1 3d 16 2a 97 bf a4 93 a9 bd eb db 70 3c
       0.11807058 -1.1809719 -0.08280113 0.01470087
0003c0 a6 52 53 be ea 59 1d 3f 4b 96 6e 3b f6 bd b2 3d
       -0.20636997 0.6146532 0.00364055 0.087276384
0003d0 1f 5e a9 3e 78 d0 5c 3e 20 f3 d2 bb 32 48 0d 3e
       0.3307962 0.215639 -0.006437674 0.13797072
0003e0 76 29 1f 3e 4d 84 78 3e fb 92 90 3d 12 98 58 bd
       0.1554316 0.24269219 0.07059284 -0.0528794
0003f0 d0 18 1b bd 94 9a a3 3d 3a e3 08 3d fe d1 ab 3b
       -0.03786546 0.07988468 0.033419825 0.005243539

fcs1.bias f4 [128]
000000 48 53 dc 3e 10 98 dd 3e 86 97 78 3f ce 1e 38 be
       0.4303229 0.43280077 0.97106206 -0.17980501
000010 92 d7 8e be 8a 1d 55 bf e0 1b ed 3d 0e 18 a2 bf
       -0.27898842 -0.832482 0.11577582 -1.2663591
000020 71 86 90 3d 52 fd 34 bd f5 a8 cb 3e 3f 04 9c 3f
       0.07056893 -0.044186898 0.3977734 1.2188796
000030 73 1a be 3e 72 ff 3f bf a5 2e 72 3e f8 c7 4f 3e
       0.37129554 -0.74999154 0.23650606 0.20291126
000040 14 c6 49 bc 09 c5 03 bf 4c 2f 88 be b8 60 2b bf
       -0.012315292 -0.51472527 -0.26598585 -0.66944456
000050 7f be 19 bd 2f 06 44 3f a0 eb 80 3f d3 de d7 be
       -0.037535187 0.76571935 1.0071907 -0.4216219
000060 49 b9 88 3d f7 ab 9f 3e d1 fb 38 be e5 25 54 3f
       0.06675965 0.31185886 -0.1806481 0.8287032
000070 db 21 10 be 69 9d 84 bf 87 47 3f be 1e 00 fc 3e
       -0.14075415 -1.0360538 -0.1867963 0.4921884
000080 85 5f 58 be f0 07 43 bf 09 ef 83 bf 69 e9 2e 3e
       -0.21130188 -0.76183987 -1.0307323 0.17081226
000090 0c 47 2c bf 0a bc fe be a4 3d f2 3d 13 af 19 bd
       -0.6729591 -0.49752837 0.11828163 -0.03752048
0000a0 86 73 96 bd 7c d2 90 3e 6d 10 8d bf d6 85 db be
       -0.07346253 0.28285587 -1.1020638 -0.42875546
0000b0 5d 29 d0 bd b2 7d 5b be e2 94 29 bf 1a 0e 8b bf
       -0.101641394 -0.21434668 -0.662428 -1.0863678
0000c0 c2 d6 7a be ca 28 51 bf a6 9b 5d be 48 4c 24 3e
       -0.24495986 -0.81702864 -0.21641406 0.16044724
0000d0 58 3a b4 3e 73 00 60 be db 80 20 bf c9 c8 4c 3d
       0.35200763 -0.21875171 -0.6269662 0.04999617
0000e0 b3 00 5e 3f 75 c9 c7 3e e5 4a 3a 3f 11 46 a3 bd
       0.86719817 0.39020887 0.7277053 -0.079723485
0000f0 16 c3 2b be e6 e4 e6 be 45 26 17 be 10 3a f2 3e
       -0.16773638 -0.4509651 -0.14760692 0.47309923
000100 f9 26 1e bf 73 ad 7d be 07 96 1b 3f 18 05 1e bf
       -0.6177822 -0.24773197 0.607758 -0.6172652
000110 c3 73 23 be 26 b2 94 3e fc 7a 45 bf 56 4b ab be
       -0.15962128 0.29042166 -0.77140784 -0.33455914
000120 0f cd 18 bf 1c 38 2b bf 6d b8 28 3e da 69 01 bf
       -0.59687895 -0.6688249 0.16476603 -0.5055214
000130 e1 da 0b bd 73 ad fe be 4f 82 71 bc 06 5f 31 bd
       -0.034144286 -0.49741706 -0.014740541 -0.043303512
000140 77 8e 41 3e 30 3d fb 3e 8c 16 4c 3d 4d 5f f6 bd
       0.18902002 0.4907012 0.04982619 -0.12029896
000150 eb 27 03 be c9 d9 f2 be 0e 71 ab be 3c 60 6e bf
       -0.12808196 -0.47431782 -0.3348469 -0.9311559
000160 30 43 d5 be 94 de c9 3d e3 bc 27 3f 80 ce a7 3f
       -0.41652822 0.098569065 0.65522593 1.3109894
000170 88 d5 f4 3e 81 b8 f1 be a5 8b 16 bd 20 8f 23 3f
       0.4781916 -0.47211078 -0.03675427 0.63890266
000180 b9 0d 28 3f 0f 56 cd 3e 3e 50 12 3e bc 94 04 bf
       0.6564594 0.4010472 0.14288422 -0.5178945
000190 2b 94 3e bf 81 93 2c bf bf f8 a1 bd 1b 60 09 3f
       -0.74444836 -0.67412573 -0.07908773 0.5366227
0001a0 d9 9e 90 be 00 37 75 be 3a f8 91 3c b3 9b b7 be
       -0.2824619 -0.23946762 0.017818559 -0.35860977
0001b0 21 06 ef 3e c6 ef d4 be 68 64 82 be d9 10 3d 3e
       0.46684363 -0.41589183 -0.2546723 0.18463458
0001c0 6a 38 a3 be 3d dd 4f bf c3 98 8c bd 06 29 e9 bd
       -0.31878978 -0.8119696 -0.068650745 -0.11384778
0001d0 98 e7 79 3e ca ce 4f be 4e 38 9f bf fd 84 fc 3d
       0.24404752 -0.20293728 -1.2439058 0.12330053
0001e0 25 45 67 be 70 85 fc 3b 61 c3 48 bf b3 65 0e be
       -0.2258497 0.0077063367 -0.78423125 -0.13905983
0001f0 39 82 f9 3e 22 ca 85 be 02 57 71 bf 30 7b 82 be
       0.48732165 -0.26130778 -0.9427339 -0.2548461

fc2.weight f4 [64, 130]
000000 fc 55 04 bd 9e 9d 69 bb 89 f4 92 bd 61 26 a3 be
       -0.032308564 -0.0035646926 -0.07175548 -0.31865218
000010 09 29 03 bd cf c5 11 be f5 8a 4c be 6e c8 8b be
       -0.032021556 -0.14235614 -0.19974883 -0.27301353
000020 06 7d 4c bd 92 56 a2 be 29 55 4d be ba d8 f1 bd
       -0.04992392 -0.31706673 -0.20052017 -0.118089154
000030 bd 47 2a be 59 a6 6b 3e f1 b1 4e be b2 23 c8 bd
       -0.16628928 0.23012675 -0.20185067 -0.09772433
000040 07 ef 1b 3c eb 18 0d be 50 d5 23 be 38 98 a1 bd
       0.009517438 -0.13779037 -0.15999341 -0.078903615
000050 26 f4 6a be f8 d2 57 3d 89 4f f5 be 78 4a 30 3c
       -0.22944698 0.05269143 -0.47912243 0.010759942
000060 4b 38 22 c0 4e 39 c2 bc 65 aa 1f bf 6d f6 5b be
       -2.5346859 -0.023708966 -0.62369376 -0.21480723
000070 ae c7 57 be 22 bc 50 3e 63 f1 b0 3c db ad 41 3e
       -0.21072266 0.20384267 0.021599477 0.18913977
000080 49 3a 70 be 6a 85 ea bc 20 8b 25 3e 6a 42 c7 bf
       -0.23459734 -0.02862807 0.16166353 -1.5567143
000090 74 49 91 be c8 44 a5 3e 98 c8 fd ba 13 2c 3c 3d
       -0.28376353 0.32279038 -0.001936215 0.04594047
0000a0 59 e0 04 be b8 e2 eb 3e f0 61 9d bf 6f 5e 8b 3d
       -0.12976207 0.4607141 -1.2295513 0.06805121
0000b0 a4 72 91 3d a5 f0 4d 3e 0f 38 09 3e 67 1c 50 3d
       0.07101944 0.2011133 0.13400291 0.050808337
0000c0 ac 7d 35 3e 79 5a de 3d cf d7 14 3d 99 e1 55 3e
       0.17723721 0.108571 0.036338624 0.2088684
0000d0 9a b1 02 3e 5c 9e 8a 3e 8b aa 05 be 26 e3 c6 3c
       0.12763062 0.27073944 -0.13053338 0.024278235
0000e0 0f 54 9a bf a7 db af 3e 21 04 9e 3e 78 12 6e 3e
       -1.2056903 0.3434727 0.30862525 0.23249233
0000f0 ca 14 e8 bd ec 9f 02 3e 7e 82 9b bf f6 5e 7a bf
       -0.1133209 0.12756318 -1.2149198 -0.9780115
000100 7a 39 70 be 0b e3 3c 3e 46 14 71 bd ec 5d 1a be
       -0.23459426 0.18445985 -0.058857225 -0.15074891
000110 e6 2f b8 be d3 c6 a3 3d fc 10 a7 be b7 a5 13 be
       -0.35974044 0.07996907 -0.32630146 -0.14418684
000120 26 42 43 3d 22 de 85 bf 46 47 3a 3d 4c 2d 32 3e
       0.047670506 -1.0458415 0.045478128 0.17400092
000130 2f 61 c0 3e a1 f4 7f bf b2 0b e8 bd 77 2e b0 be
       0.37574145 -0.9998265 -0.11330356 -0.3441045
000140 0e d6 e7 3d be 6e 31 be 0b 2c d6 3d f3 90 1d be
       0.113201246 -0.17327401 0.10457619 -0.15387325
000150 f9 77 31 3e 07 6e 36 3d 78 f7 26 be 67 4e 8e be
       0.17330922 0.044538524 -0.1630534 -0.2779419
000160 58 78 e4 bd 71 99 6a bc 37 db cd 3c b3 d1 48 3e
       -0.11155766 -0.01431881 0.025128944 0.19611244
000170 78 50 96 3b f5 2d 0c be 68 64 10 be a8 ca 8a bf
       0.0045872293 -0.13689406 -0.14100802 -1.0843096
000180 21 56 07 3c bd 56 e7 be 5d 6a 2f 3e 58 af 6f be
       0.008260281 -0.45183364 0.17130418 -0.23406732
000190 f5 03 42 3e dc e0 85 bc 3d db 01 be b8 72 f3 be
       0.18946822 -0.016342573 -0.12681289 -0.4754846
0001a0 ca ef 41 bc 82 cb cd 3d 49 fa e7 3e c1 9b 82 3e
       -0.011836955 0.10048582 0.4530814 0.25509456
0001b0 db 19 0d 3f 9d a2 b5 3d 3e 31 0b 3e 05 b4 ad 3e
       0.5511758 0.08868907 0.13593003 0.33926407
0001c0 7a 3e 38 be 24 dc ab be 61 6d 9f 3d 77 65 25 be
       -0.17992583 -0.3356639 0.07784534 -0.16151987
0001d0 8f c7 b2 3d c2 05 05 3e d2 72 54 bc 14 24 2e 3e
       0.08729469 0.12990478 -0.012966828 0.1700595
0001e0 3f 64 d9 3b 1c 8e a1 3e 78 3a 53 3e 78 3b e9 3c
       0.0066342647 0.31553733 0.20627773 0.02847074
0001f0 0d 50 d1 be 71 b8 06 3e 2b 58 1a bf 9b 72 e1 be
       -0.40881386 0.13156296 -0.60290784 -0.4403275
000200 8a 63 15 3f 75 bf 91 bf 5e 5f e2 3c b6 e4 7e be
       0.5835501 -1.1386553 0.027633365 -0.24891934
000210 e2 d9 01 be 5b 6d e2 be 83 cf 17 3e 1b 7e c4 bd
       -0.12680772 -0.44224057 0.14825253 -0.09594365
000220 92 ac 1a bd f3 90 3b bf 8a bd 84 bd e0 8e 3d bd
       -0.037762232 -0.7326805 -0.06481464 -0.046278834
000230 2e 9c 0c be 39 9d 01 bd 03 00 eb 3d d2 e2 32 3e
       -0.13731453 -0.03164408 0.114746116 0.17469338
000240 5b cf a6 bd 5d 95 aa bd 66 4e 1d bf 10 09 8f 3d
       -0.08145019 -0.0832927 -0.6144775 0.069841504
000250 e3 ca 17 bd 64 1d aa 3d 44 da 18 bd 6e c2 5c bd
       -0.037058722 0.08306387 -0.03731753 -0.05389636
000260 38 57 ed be 31 9c 19 be 7b 34 0a 3e 26 11 a7 3d
       -0.46355605 -0.15000989 0.13496582 0.08157568
000270 7a fd a1 3e 74 ef 65 be 25 90 1d 3c 73 95 85 3e
       0.316387 -0.22454625 0.009616886 0.26090583
000280 85 02 bf 3d dd 05 30 bd 0b 12 25 be 7d 31 42 bd
       0.093266524 -0.04297434 -0.16120164 -0.047410477
000290 ce ed 84 3b bf f1 ca be 3a f8 20 be 5b 1d 24 3e
       0.004056669 -0.39637563 -0.15719691 0.16026823
0002a0 9f 50 9f bc 6f 0b 2b 3e ab 2d 68 bf 64 a1 92 be
       -0.019447623 0.1670358 -0.90694684 -0.28638756
0002b0 e8 fd 2d 3f 09 5b 97 3e 08 1d 67 be 2a 86 9d bd
       0.67965555 0.29561642 -0.22569668 -0.076916054
0002c0 9a 6f 54 be 84 34 9e be 32 ae ad 3e d0 0e 5c 3d
       -0.20745698 -0.3089944 0.33921963 0.053725064
0002d0 49 77 96 be 8f 62 44 be 46 99 c5 3e 47 f4 e0 be
       -0.29387882 -0.19178222 0.385935 -0.4393637
0002e0 bc 81 e4 bd c6 5a 20 3d 0a 90 d9 bf c2 96 65 be
       -0.11157557 0.03914907 -1.6997082 -0.22420791
0002f0 94 c1 f8 bc 57 b8 84 3e 63 4b ef bc 92 9e d4 3d
       -0.030365743 0.2592189 -0.029210752 0.103818074
000300 0e 75 47 bf b4 d8 9a 3d b7 4c 35 3d 0f 42 d1 3c
       -0.77912986 0.07560864 0.044262614 0.025544195
000310 39 9a 02 3f 8d 29 43 be cf 68 97 be b9 02 60 3d
       0.51016575 -0.19058819 -0.2957215 0.054690097
000320 63 d4 98 be e4 da 0b be 61 59 87 3d f8 54 e8 3e
       -0.29849538 -0.13657719 0.066088445 0.45377326
000330 8a 4d 59 bd d6 ec b7 3d 59 af ba 3e 08 97 b6 3d
       -0.053052463 0.0898072 0.36461905 0.08915526
000340 b8 8e a6 3e 64 b6 4a bf 37 fa 27 3e f5 33 05 3e
       0.3253076 -0.79184556 0.16404043 0.13008101
000350 26 47 67 3d f9 9f b4 3c f7 4e bd bd a5 c7 26 3e
       0.056464337 0.022048937 -0.09243577 0.16287096
000360 a6 49 0f 3e 14 55 83 3e d8 90 e0 3d e9 cd 36 be
       0.13992938 0.25650847 0.10965127 -0.17851986
000370 4c fe 04 be 90 98 6b be e1 b4 4d 3e 59 9f ea bd
       -0.12987632 -0.23007417 0.20088531 -0.114561744
000380 43 6f d4 bd 17 ec a5 be 68 b9 79 bd 97 67 be 3d
       -0.10372784 -0.32406685 -0.060967833 0.09297102
000390 0e 5c 00 be fe 08 5a be 5f a7 bc 3c 89 a2 c9 bd
       -0.12535116 -0.21292493 0.023029028 -0.09845454
0003a0 f1 d7 88 3e e9 b0 71 bf 6a 63 e5 bd 60 87 1f be
       0.2672725 -0.9441057 -0.11200602 -0.15578985
0003b0 cb 80 83 bf 62 65 79 be ba c0 c0 bf d7 c9 51 3d
       -1.027368 -0.2435508 -1.5058815 0.05121788
0003c0 7f cb b8 3c 75 aa 0c be 23 80 b4 be 20 89 28 bd
       0.022557972 -0.13736899 -0.3525401 -0.041146398
0003d0 96 8d 00 be 68 bc 4b bd 30 c9 59 3d 53 36 09 3c
       -0.12554011 -0.049740225 0.053170383 0.008374768
0003e0 f8 13 84 3d dc f6 7f 3e fd ad 59 3e 28 fa 39 be
       0.06449121 0.24996513 0.21257778 -0.18161833
0003f0 fb bc 70 3d 44 6f e7 be 6c be a8 3e 9d 1c ec 3d
       0.058773976 -0.45202076 0.3295778 0.11528895

fc2.bias f4 [64]
000000 59 b7 68 3f db 7c 42 bf 33 56 20 3e fb 53 fb bd
       0.90904766 -0.75971764 0.15657882 -0.122718774
000010 6b f1 23 be 90 f1 ad be a9 ab 2b 3f a3 ac 36 bf
       -0.16010062 -0.3397336 0.6705881 -0.7135717
000020 66 32 51 3f ce da 29 bf 64 e6 cc be e8 b1 a6 be
       0.81717527 -0.66349494 -0.40019524 -0.32557607
000030 16 47 e8 be 40 7e 91 be bf b6 70 bd 66 d7 27 3f
       -0.45366734 -0.28416634 -0.05876803 0.65563047
000040 85 2b fa 3e da 6d 22 be c7 b6 17 3f e9 ff 8c 3f
       0.48861328 -0.15862218 0.5926327 1.1015598
000050 5c ec 18 bf af 4d b0 bd df c1 a4 3e 4e 2d de bd
       -0.59735656 -0.08608567 0.32179162 -0.10848485
000060 77 5f bd 3e 4c 71 eb 3e 32 b7 9c bc 5a 5c 06 bf
       0.36986896 0.45984876 -0.019130323 -0.5248467
000070 3e 50 46 be e3 47 2f 3e 66 09 f6 be 9a ba 06 be
       -0.19366547 0.17117266 -0.48054045 -0.1315712
000080 f8 df 74 be 10 db e5 3d cd f0 28 bd da 9f 8b 3f
       -0.23913562 0.112234235 -0.04124527 1.0908158
000090 9c 5f 59 3e 2c 71 b3 be 57 63 19 3f a6 a1 96 3e
       0.21227878 -0.3504728 0.59917206 0.29420203
0000a0 53 aa 98 bd ed f1 56 3e 5f 6e fc 39 ed 18 26 bd
       -0.07454362 0.20990725 0.00048147418 -0.040551115
0000b0 fa 05 1f 3f 47 b5 aa bd 26 c9 98 be 32 e9 9c 3e
       0.62118495 -0.08335357 -0.29840964 0.30646664
0000c0 6b a6 f5 be 71 63 f0 bc 2a 8e f4 be b3 28 a9 3d
       -0.4797853 -0.029344292 -0.47764713 0.08259716
0000d0 30 58 10 bd e0 71 89 be 60 54 1b 3e 67 23 7b 3e
       -0.035240352 -0.26844692 0.15168905 0.24525224
0000e0 b8 88 3b 3f 10 5a 26 bd a5 3c 1e 3f 71 fc ce bd
       0.7325549 -0.040613234 0.61811286 -0.10106743
0000f0 b7 34 27 be 8d b1 95 3f 13 3a 42 3d 51 ae 9f 3e
       -0.16328703 1.1694809 0.047418665 0.3118768

fc3.weight f4 [1, 64]
000000 f1 ba cb 3e b8 76 0a bf 70 1a dc 3e 3c 95 55 3f
       0.39791062 -0.540874 0.4298892 0.8343084
000010 8e 83 06 3f 73 ed 22 bf a9 02 57 3f be 1d 14 bf
       0.52544487 -0.6364357 0.83988434 -0.5785788
000020 7c 2c b4 3e 38 50 04 bf 92 ef be be e2 b9 89 bf
       0.3519019 -0.51684904 -0.37292153 -1.0759852
000030 44 f1 5a bf a9 c1 f8 3e 8d a5 20 3f 1c de 32 3f
       -0.8552439 0.4858525 0.6275261 0.6987016
000040 2d c1 fe 3e 4a 31 94 3e 83 32 2e 3f e0 70 d7 3e
       0.49756756 0.28943855 0.68045825 0.42078304
000050 d2 11 e6 bf f5 dc 82 3f 64 33 dc 3e d6 f9 92 3c
       -1.7974188 1.0223681 0.43007958 0.017941397
000060 61 0c 0c 3f 57 63 05 3f c4 57 13 3f 3e a3 f7 bf
       0.5470639 0.52104706 0.57555795 -1.9346693
000070 9b 7f 76 bf a2 ba 69 3f c4 e8 8a 3f 33 e4 27 3f
       -0.9628846 0.91300404 1.0852284 0.6558258
000080 19 71 1a bf 35 cb 4d 3f 18 13 d9 bb 6e 37 05 3f
       -0.60328823 0.80388194 -0.0066245906 0.52037704
000090 bd 84 4c 3f 0b 44 48 bf 97 bf 45 3f 7d b1 e3 3e
       0.7989004 -0.78228825 0.7724547 0.4447135
0000a0 b4 77 1f bc 90 37 29 3f 6e ba 30 3f ab 4b 18 3f
       -0.009733129 0.66100407 0.6903447 0.5949046
0000b0 4c 55 ad 3e 55 dd 38 bf 9f 4c 4d bf aa e3 2c 3f
       0.3385414 -0.72212726 -0.8019504 0.6753489
0000c0 ff f1 e4 be c7 28 a1 3f 8d db 3a bf 27 d9 76 3f
       -0.44715878 1.2590569 -0.7299126 0.964251
0000d0 a4 64 36 3c bb 64 98 bf 31 de 08 3f bf de ca 3e
       0.011132393 -1.190574 0.5346404 0.39623067
0000e0 ef b8 c7 3e 35 c2 91 3e 21 47 ce 3e b1 f4 93 3c
       0.3900828 0.2846848 0.40288642 0.018061014
0000f0 6c ce 2a bf 59 3a b1 3e d1 be 05 3f 9a a4 05 3f
       -0.66721225 0.34614828 0.5224429 0.5220429
